examples/experiments/experiment_101/critic16_2.pth (torch, 28247 bytes, 5 tensors)

l1.weight f4 [64, 36]
00000000: 5e66 7ebd 4c32 463b b122 3fbd 9126 153c
00000010: 9670 8cbc 245e 513d e49b d0bd fe61 dabc
00000020: 22e4 f8bb c78c 0e3e 71e3 eb3c 2795 9d3d
00000030: acb5 edbc 0289 8bbd ba6d cc3d 3f7b f33e
00000040: 62e6 e2be be92 a8be 18bc a83d b278 30be
00000050: c8c9 e3bd bd4a c93b 6427 a23d 126a 7dbe
00000060: 13e9 1dbd 4451 e13e 65d9 61bd 036c 36c0
00000070: f174 5640 85d3 4140 b7e0 003b f51a 173f
00000080: 5596 093f ceb9 a53d de13 60be 013a f43e
00000090: 3713 5fbe 9125 90bd 277e 9ebd 46fe 8ebd
000000a0: 081e 4d3e 7c16 7fbd d85c 313b 547f 38be
000000b0: ce90 d7bd 2bdf 09be 68fd 523d e063 643c
000000c0: 2a79 013d b3a7 afbd cc34 85bd d159 ce3d
000000d0: b4c4 aabd a1a4 9cbd 2b59 ecbc dd7f e7bd
000000e0: bcb3 4f3e 35d9 e13b 5d3e 0a3d 46a3 38be
000000f0: 82e3 193f be49 8d3f a93a 6ebe 5720 5fbf
00000100: b249 b9bf c303 23bf 229b aa3d d32f e23f
00000110: 75ab 843e 0bb4 9bbe 3ca2 c2bf e9b8 0940
00000120: f5d7 9e3c e6b9 fcbb 1e41 04bc 3598 37bc
00000130: b40d a23b c36e 193c 60cc 97bd 75f8 9cbd
00000140: 73e7 223d 5ca7 a73d 54d8 5c3d cd94 1fbd
00000150: 1fa5 2fbe 5b3f e73d f2c8 513c 9b72 02be
00000160: 2d0d c9be e00c a23e 70e1 b3bd 95e1 51be
00000170: d7c6 54bc 0faf c4bd b0f0 663d 5aae a3be
00000180: 4293 993f 6945 58bf 3930 04bf 30b5 fb3f
00000190: b930 7740 800f 26c0 59c8 793f bbd7 2540
000001a0: 45da 24bf 7809 063f d30f 6cbe 95a3 2d40
000001b0: a546 b23d a587 523e 6f85 c0bc f0dd 14be
000001c0: f137 a03d dec5 293d 14be 9f3d 1443 213e
000001d0: b6ac 6f3e 9f67 803c 086b d83c a66e 9b3d
000001e0: 60bb 4d3e 97a0 be3c 55fb 99bd 7c81 873d
000001f0: aaef bcba a90d e83d 3922 94be d463 29bd
00000200: 8698 a23e 8340 c33d cd9d 683e ff3c cf3c
00000210: f9c8 f5be 4762 23be 6432 153f 6582 0abe
00000220: 46ef 453f c9b0 1cbf 17be 5040 fd2e 3dc0
00000230: 7f85 5bc0 c9ca 07bf 61e3 43bf 136d 81be
00000240: df45 11be 7efc f2bd d8c6 de3d 1008 85bd
00000250: 26bd 8fbd 566d e13b 0b9e 833c e032 993d
00000260: 1703 023e 80f5 95bb 0435 0e3e aac1 13be
00000270: e0f0 a4bc e69b c2bd 56c6 7a3b 1624 14be
00000280: 9095 233e a0fe a0bc 40d9 033c b36b d73d
00000290: 5e87 dfbd b6c8 563d 40c1 513d a00d bf3c
000002a0: 9045 2abd bc80 29be c246 173e 0e9c e33d
000002b0: eb28 3ebc 4672 8c3d 864a d63d b8d6 e9bd
000002c0: 728f 033e a055 5d3d 2b92 c2bc d6da aebc
000002d0: 0930 10bd 0dd6 38bd 0c02 1bbd 0c8b 88bc
000002e0: 566c f73d e4c8 f43d 9905 f5be 7e25 b7be
000002f0: 3b8f ac3c a678 e33e baf9 d83e c346 3c3d
00000300: 3330 873e 4aed 8c3e 5e2b bc3d b164 ec3e
00000310: a7fd 98bd 58a7 393e b8f0 1e3e c424 83be
00000320: bc89 563b 9a0c d0bd 73ea c73c ba2c 0dbf
00000330: 4910 54bf 1eb8 5e3f dba5 b9bd 90a9 2d3f
00000340: 6f98 99be 9205 27bf 0dc3 bbbe 6105 f43e
00000350: 1dd2 03be cc3d 13bf 1d03 fb3e 2877 91be
00000360: 739b bb3d 7cb9 113d f8fe 8c3c 7c36 663e
00000370: 9feb 9ebe 4528 1c3e f120 833e 668f b23e
00000380: acb3 62bd 2821 28bd a0a2 b2be b75b 5cbe
00000390: 3e71 393e 702c 0fbe a952 af3c 4d51 0e3e
000003a0: 9fbc c93d de37 183f a5bb af3e aa2c ec3e
000003b0: 8f54 f5bd 50ec 4f3a a833 1f3e 7c96 013e
000003c0: 4d93 663f 9b0d 80be bc5f 933e 6dc6 5f3e
000003d0: 1a0a d33d b448 b9bd 1c19 92bf 99ef 28c0
000003e0: a1f6 2abd f415 ed3b b66e cdbd 4b8e e4be
000003f0: a499 0cbe 661a 93bc 9711 00be 73b7 ea3b
-0.062109344 0.0030242382 -0.046663944 0.009103433 -0.017143529 0.05111517 -0.10185984 -0.026658054
-0.007595555 0.1392089 0.028794976 0.07694464 -0.029017292 -0.068132415 0.09981866 0.47554967
-0.44316393 -0.32924455 0.08239001 -0.17233542 -0.11122471 0.0061429427 0.079176694 -0.24747494
-0.038552355 0.44007313 -0.055138964 -2.8503425 3.3508875 3.0285351 0.001966519 0.5902551
0.53745013 0.0809208 -0.21882579 0.47700503 -0.21784674 -0.07038415 -0.077389054 -0.069820926
0.20030987 -0.062277302 0.0027063396 -0.18017322 -0.10525666 -0.13464038 0.0515112 0.013939828
0.03160969 -0.08576908 -0.06504211 0.10075725 -0.083382994 -0.07648588 -0.028851112 -0.11303685
0.20283407 0.006892348 0.03375088 -0.18031034 0.60112774 1.1038129 -0.23264565 -0.8715872
-1.4475615 -0.63677615 0.083303705 1.7670845 0.2591206 -0.304108 -1.520576 2.151911
0.019390086 -0.0077125905 -0.008072166 -0.011205723 0.004945481 0.009364787 -0.07412028 -0.07664577
0.03977151 0.08186218 0.053917244 -0.038960267 -0.17152832 0.11291381 0.012804257 -0.12739031
-0.39267865 0.31650448 -0.08783233 -0.20496209 -0.01298686 -0.09603702 0.05638188 -0.31968957
1.1998065 -0.8448091 -0.5163608 1.9664669 3.8623488 -2.594696 0.9757133 2.5912921
-0.6439555 0.523582 -0.23052911 2.7131093 0.087048806 0.20559557 -0.023501126 -0.14537787
0.0782317 0.041448466 0.077999264 0.15748245 0.23405728 0.01567441 0.026418224 0.07589464
0.20091009 0.023269935 -0.07518641 0.06616494 -0.0014414687 0.113307305 -0.2893236 -0.04135497
0.3175699 0.09533789 0.22716446 0.02529764 -0.48004892 -0.15955459 0.58280015 -0.13526304
0.7731823 -0.6120725 3.2616022 -2.955993 -3.430023 -0.530438 -0.7651883 -0.2527853
-0.1418681 -0.11864565 0.1087777 -0.064956784 -0.07018499 0.006879489 0.016066572 0.07480407
0.12696491 -0.004576385 0.13887411 -0.14429346 -0.02013439 -0.095023915 0.003826519 -0.1446689
0.15975022 -0.019652665 0.008047402 0.10518589 -0.10914491 0.052437507 0.05120969 0.023321927
-0.041570246 -0.16553015 0.14773086 0.111137494 -0.011606435 0.068577334 0.10463433 -0.114179075
0.12847689 0.054036736 -0.023751339 -0.021344583 -0.03520206 -0.04512601 -0.03784375 -0.016667865
0.1208121 0.11952379 -0.47855833 -0.35770792 0.021064391 0.44427985 0.42378026 0.04596592
0.2640396 0.27524787 0.09187959 0.4617057 -0.07470255 0.18130243 0.15521514 -0.25613987
0.0032735905 -0.101586536 0.024403786 -0.5514637 -0.8283735 0.8699969 -0.090648375 0.67836857
-0.2999911 -0.65242875 -0.3667225 0.47660354 -0.1287312 -0.5751617 0.49025813 -0.28411222
0.09160509 0.035577282 0.017211422 0.22481722 -0.3103914 0.15249737 0.2561107 0.3487503
-0.05534713 -0.041047245 -0.34889698 -0.21519361 0.18109605 -0.13981795 0.02140172 0.13898201
0.0985043 0.59460247 0.3432285 0.46127826 -0.11979019 0.00079316366 0.15547049 0.12655061
0.90068513 -0.2501038 0.28783977 0.21853037 0.10304661 -0.0904707 -1.1413913 -2.6396239
-0.04173911 0.007235283 -0.10030882 -0.4463981 -0.13730484 -0.017956924 -0.1250671 0.007162982

l1.bias f4 [64]
00000000: 000c 33bc d942 2d3d e7b3 03bc 732e e83c
00000010: ee07 ffbd 2652 48bc 9090 063d 9f06 3bbc
00000020: 8252 0a3d 283f f4bd d196 aeb8 ebf4 dcbd
00000030: f928 0cbc 0489 d5bd 56c7 14be a405 b1bd
00000040: 65dd 623c c754 923d cf16 643d 80bc 11be
00000050: d467 be3d f086 cfbc 7b8e 4ebb cb0e 9a3d
00000060: e4ba d0bc d9ed 493d 7dec a6bb 8e5a a3bb
00000070: 2546 85bb f057 b93c 1e36 823d eb65 13be
00000080: 1fc5 ac3d 0a2c 5e3d bfb8 acbb f6ed fdbd
00000090: ee83 e6bd 2081 11be cd14 923c 6d02 52bb
000000a0: 5587 98bc 02f2 d3bd 197b 703d 13fc b4bb
000000b0: e275 cd3d b446 7b3c f3fe fdbd 1be5 f5bb
000000c0: d865 193d bfc0 973c 576e 8ebb 3b94 02be
000000d0: 251b 323d 2c81 1abb 8909 43bb 1845 b5ba
000000e0: d055 1ebe e1fb 533d cd35 873c 5844 843d
000000f0: bf54 c73d 669f 3c3d 78bd 10be 33d8 713d
-0.010928154 0.04230008 -0.0080384975 0.028342461 -0.12452684 -0.012226617 0.03285271 -0.011415153
0.03377009 -0.119261086 -8.325058e-05 -0.10788902 -0.0085546905 -0.10426524 -0.14529166 -0.08643654
0.01384673 0.07145076 0.055685814 -0.14232063 0.092971474 -0.025332898 -0.003151803 0.07522353
-0.025479741 0.049299095 -0.0050941096 -0.00498516 -0.0040672 0.02262494 0.06357978 -0.14394347
0.08436035 0.054241218 -0.005271047 -0.12398903 -0.11255632 -0.14209414 0.017832184 -0.0032044903
-0.018619219 -0.10348894 0.058711145 -0.0055232137 0.1003225 0.015336681 -0.12402143 -0.007504118
0.03745064 0.018524526 -0.0043466496 -0.12751858 0.04348292 -0.0023575528 -0.0029760322 -0.0013829796
-0.15462422 0.051753882 0.016505146 0.06458348 0.09732961 0.04605045 -0.14134777 0.059044074

l2.weight f4 [64, 64]
00000000: 28aa 45bf 6c0d bebd 0409 3bc0 b75f 323d
00000010: 00b6 6eba 87ee cf3e b769 ef3d 9351 cebd
00000020: fb81 d8bc a26e 94bd ac1a 39c1 6c43 123d
00000030: e605 39c1 fbdb 64bf 9001 d23d 4631 913d
00000040: 1e05 b6bd 8937 c1bd f312 543e fc7f 923d
00000050: 377c ca3d ba7a 2b3e 6096 47c1 4354 a93d
00000060: 6441 b4bc dd0c 64bd b922 f9c0 80bb 6bc1
00000070: 59c5 60c1 b4ce edbc fb5c fabd c02d d43c
00000080: 0c18 803e b605 093e 7089 e9c0 c0b2 4fbc
00000090: 742f 843d f442 b83d d6f9 0cbe 1224 1dc1
000000a0: a83f da3d aed9 1b40 99a5 713c b18f 5ac1
000000b0: c3df 51bc aafc 8f3c f474 18bd e1e6 1ec1
000000c0: 9c62 c83d adcb 493d 05e5 47c1 0078 603a
000000d0: 3ee6 b33d 9169 293e 1cdb 56c1 0115 d4c0
000000e0: 3cd9 89bd 2a33 1d3c 3e2e 083c 052d 9dbd
000000f0: 8bf5 e43c e3ea e3bd 047e 7b3d fdb3 e1bd
00000100: b034 8bbe be11 633e 3940 e53d 2726 bb3e
00000110: bef4 d9bd f232 293e 300d 5f3e f360 9e3d
00000120: c441 bb3e ee6e bbbd 5805 d6be 3832 b1bd
00000130: ceca cfbe f614 8ebe 108f 13bd 7d76 e5bd
00000140: 39eb c03e 4fae 163e 8e09 1d3e dc83 1dbd
00000150: 7de2 413e 4a73 a13e 66cc 62be 8e59 953e
00000160: a6ee 333e 7b36 393e c7be 653d 67b4 1abf
00000170: 2af2 05bf 72fc 4c3e f5b1 483e acc2 b3bd
00000180: f1eb 893e 0114 ef3e 2fda 4ebe ac2f b4bd
00000190: 308e 69bc b0bf 98bc 5f41 903e b083 883e
000001a0: c675 1f3e 7aa2 d43e d216 38bd 5627 d8be
000001b0: eadb 593e 2415 3d3e b893 50bd 3112 cebe
000001c0: 9171 aa3e a512 943e fc06 05bf ec8f 813d
000001d0: 98a1 34ba 93d1 763d 8404 a9be f3b3 1abf
000001e0: 0010 e338 4aad 813e 4f52 1e3e a71a b13e
000001f0: 787a a73e 43fb eb3d 0ae6 8fbd 63e6 4e3d
00000200: c702 943e c85b 05bf b9a3 363e 4e69 173e
00000210: a079 cd3b 765e b93c 27d9 003e b3d0 9e3d
00000220: fb2d da3a 0c0a 653d ca70 443e 1c22 e9bd
00000230: e21f 543e 40c0 aabd d8ee 50bd b1fe dcbd
00000240: 9c23 853e 651f 03bd 098f c93d 3ccb c63d
00000250: 20a4 bf3d 69e2 193e 3f56 313f 8007 fabd
00000260: 242a 183f a64a 86be 7daf 503f ab67 f0b9
00000270: b066 b13e 933b c33d 059c 71be dc8f 4dbd
00000280: a9d6 b3be 4e93 483e 440c d6be 0c57 5ebd
00000290: 8039 edba 28d5 9ebc 8b9b c8bd e0ee c83e
000002a0: b7a9 48bc de2d 63be 7ed8 c8bc 7f31 c83e
000002b0: 340d 0fbe 0ff4 da3e 2e36 dabd a49a 433f
000002c0: a8d6 703d 888b 033e a5f5 e53d c8ea 833d
000002d0: ac11 f33e e62c f9be 9d23 483f 2a09 313f
000002e0: dc0b 16bd fbf5 853d 324c 56bc 01a9 373d
000002f0: 0b47 97be 0685 7cbe 00a8 5cbb 21a6 5bbe
00000300: b320 43be d580 c43e eb91 50bd bfc3 3f3e
00000310: 44d5 89bd 116c 473e c358 8b3e da70 003e
00000320: 2932 2a3f fcf3 463d c852 15bf 1c7e c03d
00000330: e9f1 ebbd 7397 b5bd 000d 803c 62d7 c93d
00000340: 8373 233e f83f b33e e18a 913e 00b0 f2bd
00000350: c444 2b3e 2ec0 3b3e 212d 39be 1ca6 2f3e
00000360: 8bce 2a3e fdf4 a13d 653c 38be 6cd5 cdbe
00000370: 902a 0dbf 549e 9a3e 71e9 a13e ccc5 16bd
00000380: 6aa2 1c3e fc63 4e3e f516 0cbe 1000 36bc
00000390: f44b ebbd 4a79 8cbd f707 c73e a1a8 3ebe
000003a0: 01dc 513e 0f13 ff3e feda 993e 98e3 93be
000003b0: e80d 7c3e a0c0 713e 20ad 3fbd 1b93 c5bc
000003c0: 82ab 0e3e 0c87 923e 4c25 a0be 783a 64bd
000003d0: 6606 713e 613f 433e 88e0 c0be ddef 9cbe
000003e0: 4a38 cdbd 5d85 633e 9cc7 58bc 0261 b73e
000003f0: afcd be3e c262 b53e 10a0 c13c c10a 833a
-0.7721276 -0.09279904 -2.9224253 0.043548312 -0.00091060996 0.4061167 0.116900854 -0.10074153
-0.026429167 -0.07247664 -11.569012 0.03570883 -11.56394 -0.89398164 0.10254204 0.07089476
-0.08887695 -0.094344206 0.20710354 0.07153317 0.09886973 0.16746035 -12.474213 0.08268025
-0.022003837 -0.05567633 -7.7854886 -14.733276 -14.048181 -0.029029228 -0.12224766 0.025900722
0.25018346 0.13381085 -7.298027 -0.012676895 0.064543635 0.08997145 -0.1376718 -9.821306
0.10656673 2.435161 0.014748954 -13.660081 -0.012809697 0.017576534 -0.03722091 -9.931367
0.09784433 0.049266506 -12.493413 0.0008562803 0.087841496 0.16544177 -13.4284935 -6.627564
-0.06730887 0.009594718 0.008311806 -0.076746024 0.027949115 -0.111287855 0.061399475 -0.11020658
-0.27188635 0.22174737 0.1119389 0.36552545 -0.10642384 0.1652334 0.21782374 0.07733335
0.36573613 -0.091520175 -0.41800952 -0.086521566 -0.40584415 -0.27750367 -0.036025107 -0.112042405
0.3767946 0.14714931 0.15335676 -0.03845583 0.18934055 0.3153327 -0.22148284 0.29169887
0.17571506 0.18087189 0.056090143 -0.6043152 -0.5232264 0.20018175 0.19599135 -0.08777365
0.26937822 0.4669495 -0.20200418 -0.08798155 -0.014255092 -0.018646091 0.28174874 0.2666297
0.15572271 0.4153021 -0.04494364 -0.4221751 0.21275297 0.18465096 -0.050922126 -0.40248254
0.3328977 0.28920475 -0.5196378 0.06326279 -0.00068905344 0.06025846 -0.33011258 -0.6043083
0.00010827184 0.25327522 0.15461086 0.34590647 0.32710624 0.11522534 -0.07026298 0.050512683
0.2890837 -0.5209317 0.17835893 0.14786264 0.0062706023 0.02262805 0.12582837 0.0775465
0.0016645783 0.055917785 0.1918365 -0.11383459 0.20715287 -0.0833745 -0.05100903 -0.10790766
0.2600373 -0.032012362 0.09841735 0.09706733 0.09357476 0.15027775 0.69272226 -0.12208462
0.594393 -0.26228827 0.81517774 -0.00045853606 0.34648657 0.09532847 -0.23594673 -0.050186023
-0.3512471 0.19587442 -0.41806233 -0.054282233 -0.0018098801 -0.01938875 -0.097952925 0.39244747
-0.012247494 -0.22185466 -0.024517294 0.39100263 -0.1396988 0.42764327 -0.10654865 0.7640784
0.058798462 0.12846196 0.112284936 0.06441265 0.4747442 -0.48667067 0.7817934 0.6915461
-0.036632404 0.06541058 -0.01307969 0.04483891 -0.2954639 -0.2466012 -0.0033669472 -0.21450092
-0.19055443 0.3837954 -0.05092041 0.18727015 -0.0673013 0.19474818 0.27216157 0.1254305
0.6648279 0.048572525 -0.5832944 0.093990535 -0.1152075 -0.08866777 0.015631199 0.09855534
0.15962033 0.35009742 0.2842627 -0.118499756 0.16725451 0.1833503 -0.18083622 0.1715321
0.16680352 0.07908056 -0.17991789 -0.4020189 -0.5514307 0.3019892 0.31623414 -0.036809728
0.15296331 0.20155329 -0.13680632 -0.011108413 -0.11489096 -0.068590716 0.38873264 -0.18619014
0.20494081 0.49819228 0.3004989 -0.28884578 0.2461468 0.23608637 -0.046795964 -0.024117997
0.13932613 0.28618658 -0.31278455 -0.055719823 0.23537597 0.19067146 -0.37671304 -0.3065175
-0.10020502 0.22218843 -0.013231184 0.358162 0.372663 0.3542691 0.023635894 0.0009997712

l2.bias f4 [64]
00000000: 1b81 e03d 8f36 b73e d6f6 cebc c901 be3e
00000010: f2fc 20be b949 f1bd 527a eb3d 0ea2 5a3b
00000020: a468 a23e 1ecf c6bd b7f5 043d 2104 5ebc
00000030: edad b23e f870 aebd fa04 78bd f26b 91bd
00000040: 04e6 d33d d483 3ebd 77e6 5bbc a8cf bf3e
00000050: 1174 db3e 996d 1cbe e1cc 84bd fcb3 a43e
00000060: 16d1 a5bd dfad 053d 3cc4 3a3c 192e b13e
00000070: 5af1 c23d ba1b 37bc 63b1 0f3d 4291 d23d
00000080: 7115 aa3e e178 843d 3395 383e d7ca b13e
00000090: d9c0 21be 0e6e 55bd bd3f a8bd b829 25bd
000000a0: b570 1d3e d0a7 e63b cc4c 713d 527a 07bd
000000b0: 2dfb 293d 4df4 a33d 1beb 763d c87b 173d
000000c0: 67bc a43d e714 56bd 550b 203d 7e52 7e3e
000000d0: dd93 0abe 7238 003e 3840 07be 6da4 203d
000000e0: ff60 20bc b54c debc 9879 2c3c 065c be3e
000000f0: 3eab a13d fa75 abbd 8155 b1bd f8d3 993d
0.10962125 0.35783812 -0.025264185 0.37110737 -0.15721491 -0.117816396 0.1149794 0.0033360752
0.3172046 -0.09707473 0.032460894 -0.013550789 0.3489832 -0.08517641 -0.06055162 -0.07100667
0.103466064 -0.04651244 -0.013421646 0.37463117 0.4286199 -0.15276183 -0.0648439 0.32168567
-0.080965206 0.03263652 0.011399325 0.34605482 0.095186904 -0.011176044 0.03508128 0.10281612
0.33219483 0.06468368 0.18025665 0.34725067 -0.15796222 -0.05210691 -0.08215282 -0.04032299
0.15375026 0.007039048 0.05891113 -0.033075638 0.041499306 0.08005581 0.060282808 0.03698328
0.080437474 -0.052266028 0.039073307 0.24836156 -0.13532968 0.12521532 -0.13208091 0.03921931
-0.009788751 -0.027136186 0.010527037 0.37179583 0.0789399 -0.083721116 -0.08658887 0.07511133

l3.weight f4 [1, 64]
00000000: 3cbe 8441 2ec1 923e 8e45 67bf 858b 973e
00000010: ccc2 cbbd cfd0 4ebd aca3 7341 a729 34c0
00000020: 0ae6 a93e ebb1 c83d cd0d 69bf a4ff 90bf
00000030: f661 bb3e b8cb acbd 1176 953f 23ea 9d3f
00000040: fdb7 8741 5c66 0b40 018a 9ebf baa5 3b3f
00000050: b136 173f 6a66 be3f b2bd f2bf 260e 0b3f
00000060: c5bf 1740 addc 23c0 9989 7cbf ef12 063f
00000070: 5983 8841 1f71 81bf 613a 22bf d737 aebf
00000080: 3390 b73e 7402 4441 cc91 da3f f80c b83e
00000090: 61cc 5ebd aad9 36bf bf9a 82bf 78aa 04c0
000000a0: 3a4d 3e3f 0f60 c9bf dca0 04c0 3f09 f5bf
000000b0: 2b82 8741 641c 8941 f247 a640 7b82 923f
000000c0: f7e1 1e41 c37e f4bf 2a47 1fbf dbab de3e
000000d0: 861f b93b 7d93 fb3f fe99 cc3f 2824 46bf
000000e0: a386 efbf 9e36 6ebf 924f 49bf cae2 bb3e
000000f0: 1f03 ac3f dcce e0bf 5b10 643d 8851 8441
16.592888 0.2866301 -0.9034051 0.29598632 -0.09949264 -0.050492104 15.227459 -2.8150423
0.33183318 0.0979956 -0.91036683 -1.1328015 0.36598176 -0.08437294 1.1676656 1.2337078
16.964838 2.1781225 -1.2385865 0.73299754 0.5906783 1.4875004 -1.896414 0.54318464
2.3710797 -2.560344 -0.9864746 0.5237264 17.064135 -1.0112647 -0.6337033 -1.3610791
0.35852203 12.250599 1.7075744 0.35947394 -0.05439413 -0.7142588 -1.0203475 -2.0729046
0.7433659 -1.573244 -2.072318 -1.9143447 16.938559 17.138863 5.1962824 1.144607
9.930167 -1.9101185 -0.6221796 0.4349049 0.00564951 1.9654385 1.5984495 -0.7739892
-1.8712963 -0.9305209 -0.7863704 0.36696464 1.3438452 -1.7563128 0.05567966 16.53981
