examples/experiments/experiment_103/critic14_5.pth (torch, 32855 bytes, 5 tensors)

l1.weight f4 [64, 54]
0.11861136 0.16927075 0.056759898 0.16462982 -0.01753147 -0.01631766 -0.11777913 -0.036292847
0.13833496 0.19641061 -0.08712498 -0.0668229 -0.32586336 0.37522623 0.19485201 -0.6864795
-0.3690767 0.018363146 -0.14572717 0.012768812 0.17880744 -0.19054653 -0.15450487 0.3172086
-0.17061572 0.020548984 -0.060395293 0.62462705 0.333476 0.5874727 0.33764118 0.13068861
0.23739767 0.3107607 0.17957766 0.08477539 0.4511848 -0.7354159 -0.48460546 -0.44583982
0.86642253 -0.71973073 -0.4955508 0.032090385 -0.42409983 -1.5098591 -1.778986 0.0068260645
-1.4149612 0.15565956 -0.087596916 -1.9434224 -0.99736243 -1.0229357 0.16675487 -0.33862212
-0.012606639 0.13799311 0.013060946 0.1837865 -0.1555782 -0.15003222 0.12441347 0.32876137
0.07070784 -0.4766099 0.53080416 0.5745455 0.19424662 0.2374032 -0.14522818 0.036639806
0.4376792 -0.034811046 0.5054641 0.41615564 -0.04973415 0.5842551 -0.28211606 -0.34960836
0.08987566 0.42660177 0.090123676 0.2282644 -0.35825965 0.25414854 -0.40206316 0.33933443
-0.22738506 0.027063606 1.033141 0.23511754 0.21996005 1.4471401 -0.1121162 1.006386
-0.10021879 -0.11982544 0.29937062 0.085974306 0.08014447 -0.3525425 -0.20098178 0.5428763
-0.67498595 -0.8324358 -1.2090111 -0.010342839 -0.26551118 0.2012024 -0.027660618 -0.24223208
-0.04826969 0.040123627 0.041023564 0.2140812 0.0356047 -0.24763489 -0.12788302 0.10099839
-0.20591109 0.29034823 0.055228077 1.5630956 1.0792084 0.19808157 0.06646261 -0.33130595
-0.10454521 0.14146279 0.18950996 0.09959977 -0.07935739 0.51942384 0.21106288 0.0013497182
-0.3140859 -0.08594414 -0.2746915 0.03769194 0.10626349 0.18564528 0.46085382 0.04728586
-0.80622226 0.5123434 -0.6959777 -0.39297667 0.66262746 0.77427864 0.12945855 0.35578182
-0.14755271 -0.42340443 0.71060586 0.78372365 0.08730626 0.08796619 0.81238633 1.2837044
-4.2194314 -0.2426913 -0.055434685 0.08636351 -0.1304868 0.010776159 0.030910773 0.09230154
0.14277282 0.32482982 -0.057406083 -0.3056257 -0.11442342 -0.07919441 -0.12593727 -0.11621784
-0.12968086 0.03744284 0.31843206 -0.10203555 -0.023523377 -0.021237437 -0.05897245 -0.08162908
-0.10566709 -0.0048470185 -0.037400607 -0.02527271 -0.005999395 -0.057921432 0.053333312 0.055367984
-0.12429211 -0.115620255 -0.05474558 -0.07128301 0.576003 0.060483884 0.6618791 -0.0046423106
-0.1047165 0.25095022 0.12947737 -0.15373692 -0.25047168 -0.14838466 -0.25284377 0.2658645
-0.12363353 -0.026109597 0.2588562 0.20091851 0.11209503 -0.119891055 -6.102019 0.3378276
0.030102061 0.119803 0.020111734 -0.031418625 0.21333319 -0.23166876 -0.3104321 -0.015464568
-0.1816498 0.24034388 0.16720313 0.026189554 -0.17136928 -0.009911523 -0.09068108 -1.5591683
-0.051103245 0.3851664 0.054977078 -0.05451469 -0.036491424 -0.20823956 -0.1517401 -0.037930943
0.16560857 -0.015521512 -0.120276645 -0.50232226 0.10579832 -0.17209285 0.023651369 -0.091160595
-0.09855199 -0.4640162 0.35691598 0.22893102 1.0534605 -0.18679436 0.6355062 0.74659836
00000000: 83ea f23d 5055 2d3e 117d 683d b894 283e
00000010: 289e 8fbc 9dac 85bc 2f36 f1bd cfa7 14bd
00000020: aea7 0d3e dd1f 493e 956e b2bd 72da 88bd
00000030: 90d7 a6be a71d c03e 4987 473e 1fbd 2fbf
00000040: 9ff7 bcbe 4f6e 963c 8139 15be 4734 513c
00000050: 4c19 373e a11e 43be 8636 1ebe 2a69 a23e
00000060: e3b5 2ebe 5856 a83c 0e61 77bd 8fe7 1f3f
00000070: 5ebd aa3e 9c64 163f 4edf ac3e 3cd3 053e
00000080: 6018 733e 071c 9f3e 35e3 373e b89e ad3d
00000090: b201 e73e 3744 3cbf 351e f8be 1e45 e4be
000000a0: decd 5d3f 4640 38bf d6b8 fdbe 3571 033d
000000b0: 9d23 d9be 1043 c1bf d0b5 e3bf 2ead df3b
000000c0: 731d b5bf 3865 1f3e 0366 b3bd 11c2 f8bf
000000d0: 2553 7fbf 8fef 82bf cac1 2a3e e15f adbe
000000e0: 148c 4ebc 114e 0d3e 94fd 553c 8732 3c3e
000000f0: e44f 1fbe 0ca2 19be 7dcc fe3d 6953 a83e
00000100: 46cf 903d 3606 f4be c8e2 073f 6a15 133f
00000110: 96e8 463e d319 733e b2b6 14be 9f13 163d
00000120: 7d17 e03e 0796 0ebd 1866 013f 5a12 d53e
00000130: 09b6 4bbd be91 153f 8471 90be deff b2be
00000140: bb10 b83d 8c6b da3e c392 b83d 25be 693e
00000150: cf6d b7be c21f 823e 39db cdbe 3ebd ad3e
00000160: a1d7 68be 7fb4 dd3c f73d 843f a7c2 703e
00000170: 353d 613e e33b b93f 2e9d e5bd 42d1 803f
00000180: 823f cdbd 0a67 f5bd 1b47 993e 4c13 b03d
00000190: c922 a43d 7380 b4be 2bce 4dbe f1f9 0a3f
000001a0: e1cb 2cbf 831a 55bf e0c0 9abf 0375 29bc
000001b0: 15f1 87be 0008 4e3e 8598 e2bc b00b 78be
000001c0: 70b6 45bd ac58 243d 5308 283d 1a38 5b3e
000001d0: 3cd6 113d 0094 7dbe c4f3 02be 3ed8 ce3d
000001e0: 5bda 52be 86a8 943e d636 623d 8413 c83f
000001f0: 8023 8a3f e5d5 4a3e 8d1d 883d efa0 a9be
00000200: cd1b d6bd 9fdb 103e e60e 423e f7fa cb3d
00000210: 2186 a2bd f6f8 043f de20 583e 07e9 b03a
00000220: decf a0be 7b03 b0bd 5da4 8cbe dd62 1a3d
00000230: aca0 d93d cc19 3e3e 08f5 eb3e d1ae 413d
00000240: 9564 4ebf f028 033f 982b 32bf 3d34 c9be
00000250: f4a1 293f 2037 463f c890 043e 0929 b63e
00000260: 0f18 17be 77c8 d8be 44ea 353f 1da2 483f
00000270: a0cd b23d 9e27 b43d 8df8 4f3f 6d50 a43f
00000280: 9505 87c0 1184 78be 7b0f 63bd 5adf b03d
00000290: 559e 05be 7d8e 303c 9738 fd3c 9708 bd3d
000002a0: 0a33 123e 1850 a63e a422 6bbd f97a 9cbe
000002b0: d356 eabd ae30 a2bd b3f5 00be 9e03 eebd
000002c0: 0fcb 04be aa5d 193d 8709 a33e 04f8 d0bd
000002d0: 19b4 c0bc 22fa adbc 198d 71bd 262d a7bd
000002e0: fd67 d8bd bdd3 9ebb 6131 19bd b708 cfbc
000002f0: 9396 c4bb 063f 6dbd 0874 5a3d 8ac9 623d
00000300: dd8c febd 50ca ecbd e73c 60bd d4fc 91bd
00000310: ef74 133f f3bd 773d e970 293f 861e 98bb
00000320: 9b75 d6bd 8c7c 803e b795 043e 366d 1dbe
00000330: d33d 80be 26f2 17be bd74 81be 641f 883e
00000340: 9433 fdbd cbe3 d5bc cd88 843e 95bd 4d3e
00000350: 1492 e53d 7189 f5bd bd43 c3c0 bdf7 ac3e
00000360: 9998 f63c 465b f53d 5dc1 a43c d1b0 00bd
00000370: 0474 5a3e 933a 6dbe f5f0 9ebe 195f 7dbc
00000380: 6802 3abe b51c 763e 4c37 2b3e 7a8b d63c
00000390: 6e7b 2fbe f163 22bc 01b7 b9bd d492 c7bf
000003a0: a351 51bd 8834 c53e a52f 613d cc4a 5fbd
000003b0: 0878 15bd c03c 55be c261 1bbe 7a5d 1bbd
000003c0: 4b95 293e f14d 7ebc 9a53 f6bd 3198 00bf
000003d0: caac d83d 1c39 30be 84c0 c13c 68b2 babd
000003e0: a0d5 c9bd 8893 edbe b1bd b63e e56c 6a3e
000003f0: cbd7 863f 0547 3fbe 89b0 223f 1221 3f3f

l1.bias f4 [64]
0.15838006 -0.004236081 0.031263936 0.12590519 0.15179402 0.033069875 0.020405432 0.054650355
-0.09897552 0.09505275 0.13679107 0.0357822 0.11144245 0.16574584 -0.06496393 0.00025178288
-0.11448016 0.09222311 -0.1353165 0.090666875 0.00011534737 0.031039959 -0.0005879782 -0.012718756
-0.0023176314 0.13873765 0.02915118 0.16589999 0.039701764 0.08050754 0.01999325 -0.13130581
0.0048710485 0.0013184132 0.074505806 -0.10669441 -0.03448961 -0.08488019 -0.0023761126 0.10691094
-0.002650321 0.14337157 0.1703971 -0.006739675 0.112060465 -0.0010924026 0.16242237 0.10491807
-0.011706038 -0.015990976 -0.0041772495 0.056799553 -0.06682013 0.078058235 0.02686734 0.11100437
0.111495 -0.12727576 -0.0040651644 0.12182886 -0.0031031424 -0.11281203 0.065871835 0.12072793
00000000: 622e 223e d3ce 8abb 9d0e 003d 4aed 003e
00000010: e46f 1b3e 4774 073d 4b29 a73c 0dd9 5f3d
00000020: adb3 cabd 04ab c23d f512 0c3e 5b90 123d
00000030: f03b e43d 47b9 293e cf0b 85bd ba01 8439
00000040: 9374 eabd 78df bc3d 6990 0abe 8eaf b93d
00000050: a6e6 f138 8347 fe3c 8d22 1aba 5462 50bc
00000060: 67e3 17bb 3e11 0e3e 75ce ee3c b0e1 293e
00000070: 519e 223d 23e1 a43d e2c8 a33c 0875 06be
00000080: 519d 9f3b 9bce ac3a 8096 983d 9982 dabd
00000090: fa44 0dbd aad5 adbd 8eb8 1bbb 1ff4 da3d
000000a0: 02b1 2dbb ffcf 123e 947c 2e3e 7ed8 dcbb
000000b0: f57f e53d f32e 8fba 0d52 263e 49df d63d
000000c0: afca 3fbc 82ff 82bc 4fe1 88bb a6a6 683d
000000d0: fed8 88bd ffdc 9f3d e518 dc3c 4256 e33d
000000e0: 7e57 e43d 9454 02be 1235 85bb 6981 f93d
000000f0: 175e 4bbb fe09 e7bd d0e7 863d 3440 f73d

l2.weight f4 [64, 64]
0.10911796 -0.12487796 -0.022418458 -0.10519563 -0.038440645 -0.1266449 -0.11420676 -0.06780809
0.0784958 0.097373605 0.07087903 -0.016494472 -0.067155 -0.11614862 -0.02897534 0.030846983
-0.025285631 0.06775047 -0.11546031 -0.032135367 0.103324205 -0.082587756 -0.05190283 -0.036655508
0.08463634 0.023335814 0.054941684 0.021029007 0.05002314 -0.014694126 -0.11051074 0.012763277
0.026457578 0.09842671 -0.10239446 -0.10941608 0.0027694327 -0.005835831 0.07198377 -0.04622014
-0.022844955 -0.12099548 -0.041133597 -0.12177652 0.004868641 -0.027917475 -0.069821835 -0.034861933
-0.087727726 0.11085862 -0.10566598 0.09983928 -0.08263023 -0.058452815 -0.020443875 0.021255085
0.023643924 -0.032557413 -0.092149764 -0.06824014 -0.13154888 0.09662932 -0.07756628 -0.0010916747
0.12467765 0.12992676 0.018924633 0.14115912 0.25681153 0.2930615 0.141068 0.2891714
-0.0018499494 0.12703598 0.2053917 0.16478391 0.14765133 0.15984829 0.18066287 -0.40579355
0.08786821 0.1500456 0.03652487 0.016453957 -0.39121312 0.22185498 -0.37014 -0.027395913
-0.22284043 0.3644305 0.06968294 0.2352399 0.05615198 0.18142408 -0.059514664 0.06757563
0.08120705 -0.12951674 0.1276353 -0.12182474 -0.0074031795 -0.105106 -0.39873114 0.12290353
-0.34614697 0.41989914 -0.021127492 -0.6945398 0.2733284 0.17169188 0.07471215 0.26032346
-0.34201446 -0.027156869 -0.56729966 0.23697416 -0.34072396 0.23402505 -0.13463782 0.10037464
0.21907155 -0.08585756 -0.2933925 -0.016859405 -0.73353666 -0.08189081 0.22324935 0.3458642
-0.15434623 0.016641622 0.29404494 0.014975905 -0.46012706 0.56246734 -0.376072 0.04186202
0.015721276 -0.55132824 0.20806707 -0.25941104 -0.14148955 0.15774192 0.14251983 0.21672264
0.043013677 0.30362585 -0.09843153 -0.34034628 0.013606851 -0.29782814 0.23647183 -0.14354643
0.44775438 0.37056053 0.10153924 0.2128946 -0.007060533 -0.056220174 -0.025442533 -0.11050677
-0.05648623 0.008017561 -0.06508727 -0.079116866 0.08039925 0.061972618 0.25062168 -0.34072566
0.25249684 0.09398077 -0.35423973 0.45157105 0.016586747 -0.06171176 -0.10271695 -0.36789805
0.3859127 -0.01624764 0.49708113 -0.18343312 0.027951302 -0.20445809 0.29564238 0.035675537
0.6233592 -0.058490817 0.59067136 -0.31744197 0.17969693 0.04387422 0.07452693 0.18309383
0.14179903 0.021854589 0.027011968 0.26923212 0.29050988 -0.40624806 0.37865773 -0.19326527
0.115440324 0.03794831 0.11787104 0.15258142 -0.071901634 -0.2562756 0.4498263 -0.036699142
0.11953075 0.04968916 0.11690315 0.07376862 0.61283267 0.35655123 0.876322 0.36655813
0.2831433 -0.20746323 0.15204959 -0.26839992 0.2646744 0.09759779 0.45647874 0.0009873509
0.0690986 0.1671624 0.1033416 -0.044769928 0.45762232 0.0064462833 0.22144002 0.083122924
-0.35204965 -0.7004246 -0.07437707 0.12261531 0.061847087 -0.10492396 -0.40401036 0.091430254
0.1780723 0.72078115 0.04605654 -0.005096238 0.18012966 0.36534008 0.63278955 0.26941893
0.008856177 -0.047078 0.48941684 0.22432053 0.28480673 -0.056087255 -0.4020266 -0.2744737
00000000: 3d79 df3d 04c0 ffbd eaa6 b7bc ce70 d7bd
00000010: f073 1dbd 33af 01be 3ce5 e9bd f8de 8abd
00000020: 68c2 a03d d06b c73d 0629 913d 6a1f 87bc
00000030: 9088 89bd 54df edbd b15d edbc d0b2 fc3c
00000040: d023 cfbc c2c0 8a3d 7476 ecbd 60a0 03bd
00000050: a49b d33d c523 a9bd 1098 54bd 1624 16bd
00000060: d155 ad3d c02a bf3c 880a 613d 0645 ac3c
00000070: 10e5 4c3d a2bf 70bc 7453 e2bd 101d 513c
00000080: 90bd d83c f193 c93d 30b4 d1bd 8a15 e0bd
00000090: 5f7f 353b 803a bfbb 3a6c 933d 5451 3dbd
000000a0: 5825 bbbc 7acc f7bd b47b 28bd f865 f9bd
000000b0: 1f89 9f3b 30b3 e4bc c0fe 8ebd 63cb 0ebd
000000c0: 98aa b3bd d809 e33d 6867 d8bd 8978 cc3d
000000d0: 0a3a a9bd 386c 6fbd ea79 a7bc 251f ae3c
000000e0: e7b0 c13c ec5a 05bd 04b9 bcbd 7dc1 8bbd
000000f0: c0b4 06be 98e5 c53d 12db 9ebd 8616 8fba
00000100: ff56 ff3d 850b 053e d507 9b3c 048c 103e
00000110: cd7c 833e 280c 963e 2174 103e 460e 943e
00000120: 007a f2ba b815 023e 3452 523e 1dbd 283e
00000130: e931 173e 45af 233e b0ff 383e 2cc4 cfbe
00000140: 40f4 b33d 8ea5 193e 1a9b 153d 73ca 863c
00000150: 164d c8be f42d 633e fd82 bdbe 656d e0bc
00000160: 4830 64be a296 ba3e eeb5 8e3d bae2 703e
00000170: 9eff 653d 3cc7 393e a6c5 73bd 1865 8a3d
00000180: e24f a63d 09a0 04be d4b2 023e 407f f9bd
00000190: 5f96 f2bb d141 d7bd 7d26 ccbe d9b4 fb3d
000001a0: 2d3a b1be 05fd d63e 9013 adbc 5ccd 31bf
000001b0: b3f1 8b3e ffcf 2f3e af02 993d 1e49 853e
000001c0: 851c afbe 1578 debc 8d3a 11bf 5ba9 723e
000001d0: 5f73 aebe 43a4 6f3e 7fde 09be 3891 cd3d
000001e0: 4b54 603e 17d6 afbd 8b37 96be bc1c 8abc
000001f0: 0fc9 3bbf 5eb6 a7bd 7a9b 643e 1d15 b13e
00000200: f00c 1ebe 0354 883c 0f8d 963e 805d 753c
00000210: c695 ebbe dcfd 0f3f 828c c0be 8277 2b3d
00000220: e8c9 803c d923 0dbf 890f 553e 86d1 84be
00000230: a3e2 10be 1987 213e b8f0 113e 8aec 5d3e
00000240: 1c2f 303d d974 9b3e 7896 c9bd de41 aebe
00000250: 45ef 5e3c ee7c 98be ac25 723e d6fd 12be
00000260: 1040 e53e 1cba bd3e cef3 cf3d 0b01 5a3e
00000270: 0b5c e7bb 2047 66bd dc6c d0bc 6051 e2bd
00000280: 1b5e 67bd 175c 033c 7a4c 85bd 0608 a2bd
00000290: 5da8 a43d 00d7 7d3d 7c51 803e 9873 aebe
000002a0: 4447 813e fd78 c03d e95e b5be 5234 e73e
000002b0: eee0 873c 78c5 7cbd 445d d2bd 225d bcbe
000002c0: 5996 c53e c519 85bc 6b81 fe3e e4d5 3bbe
000002d0: 21fa e43c 765d 51be 705e 973e 8320 123d
000002e0: 7894 1f3f 1194 6fbd 3d36 173f c187 a2be
000002f0: 7902 383e 74b5 333d 93a1 983d f37c 3b3e
00000300: c433 113e 6508 b33c 3448 dd3c cbd8 893e
00000310: b6bd 943e bfff cfbe 6ddf c13e 55e7 45be
00000320: fa6b ec3d b06f 1b3d 5f66 f13d 4e3e 1c3e
00000330: 2a41 93bd 8e36 83be a24f e63e d751 16bd
00000340: 8acc f43d dc86 4b3d eb6a ef3d 0114 973d
00000350: 9ae2 1c3f e28d b63e a356 603f 82ad bb3e
00000360: 29f8 903e 3e71 54be e3b2 1b3e b76b 89be
00000370: 6783 873e 5ae1 c73d 95b7 e93e 006a 813a
00000380: 9183 8d3d 9f2c 2b3e c3a4 d33d ac60 37bd
00000390: 794d ea3e 583b d33b 2cc1 623e 5a3c aa3d
000003a0: da3f b4be 074f 33bf 0153 98bd bc1d fb3d
000003b0: 5f53 7d3d 60e2 d6bd 72da cebe c93f bb3d
000003c0: 9658 363e 1d85 383f c8a5 3c3d 58fe a6bb
000003d0: e973 383e db0d bb3e 7ffe 213f 47f1 893e
000003e0: 8019 113c dcd4 40bd d894 fa3e 48b4 653e
000003f0: 30d2 913e c0bb 65bd 6ed6 cdbe d187 8cbe

l2.bias f4 [64]
-0.11854748 0.2239723 0.068875544 -0.034869965 -0.04329695 -0.14359282 -0.16664721 0.29466188
-0.030748278 -0.08240288 0.083393045 0.30699438 0.24471258 -0.04641576 0.18158568 -0.02041454
-0.08415911 0.110117026 0.13452215 -0.09646685 0.07715632 0.19349927 0.0011789288 0.09412926
0.07963862 0.13516794 0.0014143086 0.24254975 -0.10221195 0.10391035 0.19326697 -0.09164094
0.31437147 -0.1725694 -0.003366278 0.060110494 -0.11121962 -0.33856905 -0.093409196 0.092515446
0.05399446 -0.016552638 0.11077611 0.21182506 0.29789805 0.2718125 0.30892444 0.03360736
0.19724469 0.21365365 -0.18721083 0.34378576 0.06531792 -0.121372394 0.12310481 0.03632985
-0.15010554 0.31594044 -0.12783839 0.011592246 0.069380894 -0.11864034 0.31179217 -0.06325882
00000000: 05c9 f2bd ff58 653e 9f0e 8d3d cfd3 0ebd
00000010: 2558 31bd ff09 13be 91a5 2abe ecdd 963e
00000020: d0e3 fbbc d7c2 a8bd f9c9 aa3d 5e2e 9d3e
00000030: ef95 7a3e 741e 3ebd 99f1 393e 653c a7bc
00000040: 9d5b acbd 0985 e13d 2dc0 093e 6990 c5bd
00000050: 2204 9e3d ac24 463e 4986 9a3a d7c6 c03d
00000060: 9319 a33d 7769 0a3e 5260 b93a f65e 783e
00000070: 8054 d1bd f3ce d43d c7e7 453e 3fae bbbd
00000080: 4cf5 a03e 08b6 30be c69c 5cbb 6c36 763d
00000090: 1dc7 e3bd ec58 adbe 524d bfbd bd78 bd3d
000000a0: 4b29 5d3d 6699 87bc 96de e23d abe8 583e
000000b0: 1886 983e 022b 8b3e 582b 9e3e dfa7 093d
000000c0: 83fa 493e 06c8 5a3e 32b4 3fbe b004 b03e
000000d0: 67c5 853d 1792 f8bd 601e fc3d 9cce 143d
000000e0: 44b5 19be f2c2 a13e 11e8 02be 67ed 3d3c
000000f0: 9217 8e3d b5f9 f2bd 39a3 9f3e d78d 81bd

l3.weight f4 [1, 64]
-0.032518793 0.34258008 -1.1531118 -0.9481219 -1.6825883 -0.9629721 -2.2773447 0.26031327
21.076101 20.214247 -7.1883044 0.2572209 1.7508911 -0.6367652 0.34393495 -1.6361226
-1.0370107 1.7043717 0.3874586 -1.3276408 -1.5132936 2.495421 -0.85581493 -2.7289965
-0.5931422 0.5361735 -2.122235 0.3160542 -1.0289329 -1.7664595 0.34058356 0.0007779799
0.2440129 2.1591177 20.853863 14.553983 1.4793067 1.8282878 -1.1176834 -1.0230347
3.447817 -1.7458773 -9.052361 0.2601143 0.27517575 0.52204835 0.288113 -1.138427
0.30675364 0.3762838 2.537018 0.29102948 -0.8772537 -0.9507317 -0.9727425 1.66036
-7.4760456 0.21187751 -0.001722607 -0.8624968 -1.1801212 -0.0023712027 0.32857722 1.5385022
00000000: 6d32 05bd a866 af3e 2b99 93bf 1eb8 72bf
00000010: 0e5f d7bf 5785 76bf 04c0 11c0 c847 853e
00000020: db9b a841 c7b6 a141 9706 e6c0 75b2 833e
00000030: 331d e03f 0b03 23bf 3e18 b03e 776c d1bf
00000040: c4bc 84bf da28 da3f f960 c63e 22f0 a9bf
00000050: 9bb3 c1bf fab4 1f40 b016 5bbf e1a7 2ec0
00000060: 2bd8 17bf ab42 093f b3d2 07c0 dbd1 a13e
00000070: 13b4 83bf 581b e2bf f860 ae3e 59f1 4b3a
00000080: 85de 793e fc2e 0a40 b6d4 a641 1ddd 6841
00000090: ec59 bd3f 5605 ea3f 4010 8fbf cdf2 82bf
000000a0: 09a9 5c40 e878 dfbf 78d6 10c1 b42d 853e
000000b0: d6e3 8c3e f6a4 053f 8c83 933e fab7 91bf
000000c0: d00e 9d3e 45a8 c03e 815e 2240 d101 953e
000000d0: b393 60bf 2763 73bf a705 79bf ad86 d43f
000000e0: c43b efc0 6bf6 583e 19c9 e1ba 97cc 5cbf
000000f0: 360e 97bf 2e66 1bbb 463b a83e a4ed c43f
