examples/experiments/experiment_20/actor82_6.pth (torch, 27223 bytes, 6 tensors)

l1.weight f4 [64, 30]
000000 f8 a5 27 be ac c2 f8 bd 53 69 e2 3c 5e f2 1d 3e
       -0.16371906 -0.12146506 0.027638113 0.15424487
000010 c6 ac 34 3d c7 82 da bd 32 d8 59 3c a7 45 de 3d
       0.044110082 -0.10669475 0.013296174 0.10853129
000020 99 7d a1 bc a3 0f bc bd 15 8f 04 be 47 ad 15 3e
       -0.01971321 -0.0918267 -0.12945206 0.14616881
000030 1c da cd bd 80 c8 29 bd 9c cc 3f 3d bc 0a f2 bd
       -0.10051367 -0.041450977 0.04682599 -0.11818454
000040 48 85 1f bd 34 3e fe 3d d0 9f 1c 3e df 22 b0 3d
       -0.038945466 0.12414208 0.15295339 0.08600401
000050 c5 72 14 be de 16 d0 3d 2c 03 8d bd 7d b2 20 3e
       -0.14496906 0.101606116 -0.068853706 0.15693088
000060 f7 fd 09 be 59 dc 7b 3c 44 b1 61 bd a6 8f 3a 3e
       -0.13475786 0.015372359 -0.055100694 0.1821886
000070 8e fc af 3d c9 b7 31 be a6 09 39 3e 8a cf 37 3e
       0.08593093 -0.17355265 0.18070087 0.17950264
000080 ea 78 a4 bd 09 e0 16 be ee d4 31 be a1 5e de bb
       -0.08030875 -0.147339 -0.17366382 -0.006786183
000090 b5 4a 4d bd 7e 3b 14 be 67 8b e4 bc 74 47 d7 bd
       -0.050120074 -0.1447582 -0.027898503 -0.105116755
0000a0 07 e3 36 bd b3 41 1a bb b4 f0 c6 3b ac 14 39 3d
       -0.044650104 -0.0023537695 0.0060711745 0.04518573
0000b0 fe c3 04 3e 6d e6 19 be 77 bf 05 be 3d 00 c5 bc
       0.1296539 -0.15029307 -0.1306132 -0.024047965
0000c0 f7 ac 17 3c ce b2 f6 3d 0e 3e 26 3e fc a3 33 be
       0.009257547 0.12045823 0.1623461 -0.17543024
0000d0 7e f3 14 be 15 28 f9 3d 67 80 31 3e b5 64 99 3d
       -0.1454601 0.12165848 0.17334138 0.074899115
0000e0 8c 65 28 be d7 27 1e 3e 0d db fd 3c 30 6e a0 bd
       -0.16444987 0.15444885 0.03098824 -0.078335166
0000f0 c0 43 f2 3c 75 c5 2c 3e 70 c6 92 3d 33 57 1f 3e
       0.029573321 0.16872199 0.07166755 0.15560608
000100 df 06 96 3d 92 ed c9 3d f0 b8 21 bd 92 5e 23 be
       0.07325529 0.09859766 -0.03948301 -0.15954044
000110 25 01 64 3d 39 fd a2 bd d7 cd 03 be f0 88 0c 3d
       0.055665154 -0.07958455 -0.1287149 0.03431028
000120 ec 5d cd bd fa e5 34 3e 61 73 e5 3b ae a6 15 be
       -0.1002768 0.17665854 0.0070022796 -0.14614365
000130 3b 50 99 bd b3 f5 b6 3d 13 d3 2c 3e e8 22 db 3d
       -0.07486006 0.08933582 0.16877393 0.10700017
000140 6a 16 0a be 07 bd 15 be 9f 4b b9 bc 04 3a 03 3e
       -0.13485113 -0.1462289 -0.022619067 0.128151
000150 3b e0 42 3d 8c 85 32 be 78 d2 a6 3d c8 75 dd 3d
       0.047577124 -0.17433757 0.081456125 0.108134806
000160 f4 76 05 3e bf 73 29 3e ec cc e0 bc 61 ee 3f bf
       0.13033658 0.1654806 -0.027441464 -0.7497311
000170 81 66 56 be 51 b4 b5 3c be b1 43 3e 46 02 94 3d
       -0.2093754 0.022180708 0.19110772 0.07226996
000180 35 79 43 c0 55 77 63 3d ba ef b7 bf 98 00 82 3e
       -3.054273 0.055533726 -1.4370034 0.25391078
000190 fd fd 8c bd 65 47 93 3c cd 7d 32 3c f8 aa 6c bd
       -0.06884382 0.01797838 0.010894251 -0.057780236
0001a0 9d be 8a bd 39 e1 2a 3e ed ce 94 bd 1c c6 7f be
       -0.06774638 0.16687478 -0.072660305 -0.24977916
0001b0 da d7 a4 3c 1a 2f 3e bd 55 76 07 be f0 b1 35 bd
       0.020122457 -0.04643164 -0.13228734 -0.044359148
0001c0 c5 71 7e 3c ec 4d 28 bb e3 5b 82 3e 52 d1 3d be
       0.015530054 -0.002568121 0.2546073 -0.1853688
0001d0 3b 44 da 3e ce 1e 16 bf 75 4d 85 bd 34 87 97 be
       0.4263018 -0.58640754 -0.065089144 -0.2959534
0001e0 67 c4 09 3f 9e cc e1 bf fd c9 08 3f c9 1c 21 be
       0.5381531 -1.7640569 0.5343321 -0.15733637
0001f0 5e af 13 3e 92 63 d4 3d 3a 2c f1 be 8b 70 43 40
       0.14422366 0.10370554 -0.47104055 3.053744
000200 10 12 68 bf 7c e4 fc bd 36 83 50 3e 01 2e 23 3e
       -0.9065256 -0.123482674 0.20362553 0.15935518
000210 5b ab 5e be ff 3f c2 3d ad da 0b be 44 34 98 3b
       -0.21745054 0.094848625 -0.13657637 0.0046449024
000220 1d 01 40 3e ec b2 b8 3d b5 70 20 be 79 93 44 be
       0.18750425 0.09018502 -0.15667994 -0.19196881
000230 7d b6 cb 3d 1a 7e 13 be e9 5c de bd a5 6c 40 3e
       0.09946916 -0.14403573 -0.10857565 0.18791445
000240 77 f2 45 3f 3e c9 9f 3e a6 63 5e 3a 33 7b 42 3a
       0.77323097 0.31208223 0.00084834767 0.0007418871
000250 ad 3b d9 bb f7 54 a3 bd f2 44 8e bf 78 d1 e7 3e
       -0.0066294284 -0.0797519 -1.111479 0.45277
000260 98 74 8e be 9a 62 9c b7 47 2d 6f 3d 27 97 61 3d
       -0.2782333 -1.8642564e-05 0.05839279 0.05507579
000270 ff 60 94 c0 33 75 f9 bf fb 89 13 40 03 9c a4 3d
       -4.6368403 -1.9488891 2.3052967 0.080375694
000280 bd 4e e0 3d ab b3 63 3e d9 11 10 be 43 76 ee 3d
       0.10952518 0.22236507 -0.14069308 0.116436504
000290 a2 42 00 be c3 ea 89 3d 9a 95 ca 3d 4d 39 8f bc
       -0.12525418 0.0673423 0.098918155 -0.017483378
0002a0 16 9b a1 3d 99 26 37 3d 69 9e 7d be e5 fc 59 be
       0.078909084 0.044714544 -0.2476746 -0.21287878
0002b0 0d cf 98 3d 68 52 60 3d 83 f5 71 3f cd e3 54 3d
       0.07461367 0.05476609 0.94515246 0.05197506
0002c0 5d 29 b8 bd 59 67 8c 3d 1b 1b 8a bd 1f ad 5e be
       -0.089922644 0.068556495 -0.06743451 -0.21745728
0002d0 6f 1b 85 3f ce ed d1 3d c5 b5 00 3e ba fc 1c bd
       1.0398997 0.10250436 0.1256934 -0.038326956
0002e0 46 de 57 bc 71 74 0b bd 90 f8 a1 c0 e2 5f 14 bf
       -0.013175553 -0.034046594 -5.061592 -0.57958806
0002f0 17 20 5b bf ed d7 33 be 10 c2 75 3d 00 b5 be bd
       -0.8559584 -0.17562838 0.059999526 -0.09311867
000300 dd 27 0b 3c 7e 27 2a 3d fe 43 3e 3c 9d 81 a8 3d
       0.008493391 0.04154157 0.01161289 0.08227847
000310 85 b3 89 3d 26 f9 43 3c ad 9e 2f bd c4 87 13 3d
       0.06723694 0.011961257 -0.042875934 0.036018148
000320 7c 65 f1 3c 64 c9 08 3d b6 b7 f0 3d 19 2b 38 be
       0.029467337 0.033395186 0.1175379 -0.1798519
000330 e2 cb 7f bd 5c a6 c7 bd 86 67 e9 bb 79 c5 11 be
       -0.062450297 -0.097485274 -0.0071229367 -0.14235486
000340 f6 53 41 bd 2c b5 ed 3b e1 4e 5f bf c0 e4 97 bf
       -0.047199212 0.0072542634 -0.87229735 -1.1866684
000350 14 d3 f4 3d 75 8d 19 3e 28 ee 0f be aa 35 c8 3d
       0.119543225 0.14995368 -0.14055693 0.097758606
000360 a8 74 c3 be 27 e6 84 40 50 d4 3b bf 55 a1 2c be
       -0.3817494 4.153095 -0.7337084 -0.16858418
000370 5e 44 18 3e 0e 6b 12 3e 2a e1 5e 3b 80 3f 35 3e
       0.1486983 0.1429865 0.003400872 0.17700005
000380 86 9e bc 3d 62 7f 0d 3e 3e 00 f5 3d 77 55 5b 3b
       0.092099234 0.13818124 0.11962937 0.003346769
000390 22 3d dc 3e c8 3d a0 3e f5 a2 d6 3d 13 ad 83 3e
       0.4301539 0.31297135 0.104803 0.25717983
0003a0 47 a9 2d 3e 53 ea 87 bd a0 c7 18 3f ea 2c 6d be
       0.16959105 -0.06636491 0.59679604 -0.23161665
0003b0 9e 27 17 be 27 d4 62 be a7 c6 90 3d 69 62 93 bc
       -0.14761207 -0.22151242 0.0706914 -0.017991262
0003c0 a9 95 c1 3f 1b b7 6d bf d1 34 84 3e 60 e0 74 3c
       1.5123798 -0.9285752 0.25821546 0.014946073
0003d0 18 17 c5 3c ce c2 04 be 09 d8 a3 c0 d0 19 16 40
       0.024058864 -0.12964937 -5.1201215 2.3453255
0003e0 c6 35 56 bf 2c da d9 bd a3 99 1c bd 9e b4 79 bd
       -0.836758 -0.10637316 -0.038232457 -0.060963266
0003f0 61 bf d2 bc 10 50 f5 bd ec 97 34 3e f4 96 26 be
       -0.025726022 -0.11978161 0.17636079 -0.16268522

l1.bias f4 [64]
000000 1c 2c ce bd 58 f0 1a be 0f b2 07 be 21 0d 0d 3e
       -0.10067007 -0.15130746 -0.13251518 0.1377454
000010 14 f8 04 3e 73 bd 76 3e 53 db f1 3d d4 4a 8c 3e
       0.1298526 0.24095707 0.11809411 0.2740084
000020 60 7c 65 bb 81 74 f5 bd 06 e1 34 be da 32 8b 3e
       -0.003501676 -0.11985112 -0.17663965 0.27187234
000030 41 eb ab bd 59 4d 18 3e f8 73 9f bc cf 00 65 3e
       -0.083944805 0.14873256 -0.019464478 0.2236359
000040 0a 3f 0f 3e 02 6a 9c 3d de bf a1 bc a0 a3 29 be
       0.13988891 0.07637407 -0.01974481 -0.16566324
000050 e0 49 e2 3d cd 32 b8 3d b2 17 3e 3e 27 04 b2 3d
       0.11049247 0.089940645 0.18563727 0.08692198
000060 67 1f 7f 3e 49 e1 c8 bd 7a 88 3e 3e 47 5f 9d 3d
       0.24914323 -0.09808595 0.18606749 0.07684188
000070 a0 99 be bd 01 6e c5 3d ba 36 21 3e 27 9c 10 be
       -0.093066454 0.09640122 0.15743533 -0.14122067
000080 8f 96 7d 3d 7e 94 55 3e dc ad 1e 3e a1 80 22 be
       0.061911162 0.20857427 0.1549601 -0.1586938
000090 e6 34 17 3e f5 1d a3 bd 08 fd 11 be 87 71 80 3d
       0.14766273 -0.07964698 -0.1425668 0.062716536
0000a0 2d d3 26 3e 56 c8 59 3e da a5 b4 3d bf 48 4c bb
       0.16291495 0.21267828 0.08820696 -0.003117129
0000b0 57 70 9a 3d b1 2e 88 3e c1 87 f4 3c ca 88 18 be
       0.075409584 0.26598123 0.029849889 -0.14895931
0000c0 24 39 04 3e e9 d4 7d 3e 10 8a 17 be 00 b7 75 3d
       0.12912422 0.2478825 -0.1479876 0.059988976
0000d0 b6 4f 11 be e2 bd cb 3d 0f 56 e1 3d a0 e9 3a be
       -0.14190564 0.09948327 0.110027425 -0.18253183
0000e0 27 35 07 bd 7a 46 0a 3e c8 f4 2c be 28 06 02 be
       -0.033009674 0.13503447 -0.16890252 -0.12697661
0000f0 76 da b4 3d cd 73 e0 bb 19 11 68 3e e0 b3 f2 3d
       0.088307306 -0.006849742 0.22662772 0.11850715

l2.weight f4 [64, 64]
000000 68 59 88 bd 24 da c1 bd 83 24 37 bd b8 ac b9 bd
       -0.06657678 -0.09465435 -0.044712555 -0.090661466
000010 4b 43 a9 3d a4 6d 94 bd ca ae c0 be 14 0d b3 3e
       0.08264788 -0.07247475 -0.37633353 0.34970915
000020 c0 6a b7 be 5b a3 de 3d 4c 81 5d 3d 9d 22 0e 3f
       -0.3582363 0.10871001 0.054078385 0.55521566
000030 ee c9 b8 bd 7a af 52 be c1 46 09 bd cd cd ce bd
       -0.0902289 -0.20574751 -0.03351474 -0.10097847
000040 fc cd 52 bd 24 f4 e7 3e 35 ff 18 be 50 b2 d5 bc
       -0.051465973 0.45303452 -0.14941104 -0.026086003
000050 ce 22 29 3e 70 59 54 be 3d db 20 3f 3e 82 83 3c
       0.16517183 -0.20737243 0.6283453 0.016053315
000060 3c 0a 43 3e f1 d2 d7 bd a4 0a ba 3e cd 18 4d be
       0.19046873 -0.10538281 0.36336243 -0.20028992
000070 5c 8a 57 3c 16 c6 22 3d 39 cb b8 be 88 b0 07 3d
       0.013155546 0.03973969 -0.36092547 0.033127338
000080 62 ec 8a be 0a 33 ca 3e 72 32 82 3d e0 18 8e 3d
       -0.2713347 0.39492065 0.06357278 0.06938338
000090 42 c8 47 3e 3c c7 3e 3d d4 90 10 3d b8 13 c4 be
       0.19509986 0.046576723 0.03529437 -0.38296294
0000a0 22 6d e3 3e 53 78 9b 3c 63 ac 12 3e 01 6f 64 3f
       0.444192 0.018978273 0.14323573 0.8923188
0000b0 b7 6b 9b bd 31 05 93 3e 5d f9 ed bd f6 19 c3 bd
       -0.07588904 0.28714898 -0.11619828 -0.09526436
0000c0 04 73 af be 1b 9e 6e 3e f8 96 ac 3d 64 91 5b be
       -0.34267437 0.233025 0.084272325 -0.21442181
0000d0 ee f6 ea bd 30 9b e7 be 6b 56 01 be 70 a2 a5 3d
       -0.11472879 -0.45235586 -0.12630622 0.08087623
0000e0 f3 56 a3 3e e7 86 9f 3e b5 e6 a8 3e 6f f7 8d be
       0.31902274 0.3115761 0.32988515 -0.2772784
0000f0 27 c9 98 3e b7 5b 02 bf 84 da a9 3d 88 4d 33 be
       0.29840967 -0.50921196 0.08293632 -0.17510045
000100 20 31 d2 bd 66 d3 9c 3d ac f6 db 3d 50 50 03 3f
       -0.10263276 0.076575086 0.10740408 0.5129442
000110 d7 60 15 3e 78 f8 cb be a6 44 15 be 06 67 b4 3e
       0.14587723 -0.39838004 -0.14576969 0.3523485
000120 6b d0 f2 3b 70 04 c5 bc 20 64 8f 3b d0 46 76 3e
       0.0074100993 -0.024049968 0.0043759495 0.2405045
000130 38 2d 21 bd 68 96 f7 3d c5 5c 56 be 58 50 ff be
       -0.039349765 0.120892346 -0.20933826 -0.49865985
000140 9a c7 bf 3e 88 76 d8 be 17 c8 25 be 48 e2 ea bc
       0.3745697 -0.42277932 -0.1618961 -0.028672352
000150 9d 0a 12 3f e9 ef af 3e ea d8 0d 3f e9 9b b7 bb
       0.57047445 0.34362724 0.5540911 -0.0056033027
000160 29 e3 db 3e f8 c5 f1 bc 33 78 f8 3e 1f a1 3c bf
       0.42946747 -0.029513344 0.48529205 -0.7368335
000170 00 f4 df 39 20 8a 9a 3d 38 b0 d7 be 8c 1a 10 bd
       0.0004271567 0.075458765 -0.42126632 -0.035181567
000180 ec 51 85 be 50 80 36 be dd 63 92 be 60 2a 0d bd
       -0.26039064 -0.17822385 -0.28591815 -0.03446424
000190 8a eb 58 3e f6 04 ad bd e0 e3 ed bb d2 84 99 3e
       0.21183601 -0.08448212 -0.007259831 0.29984146
0001a0 e4 2a 8d 3e 64 92 72 be 95 31 41 bd 84 e8 ef 3e
       0.27571785 -0.23688656 -0.047166426 0.46857083
0001b0 ef 94 9e 3d ef c6 ba 3d 90 7d 26 bc c0 05 85 bd
       0.077432506 0.09119975 -0.010161772 -0.06495237
0001c0 f9 75 ef 3e d6 f8 25 3f c0 62 74 3b 86 38 d2 be
       0.46769693 0.6483282 0.0037290305 -0.4105875
0001d0 70 77 39 bc 1b df 58 3e b4 8f 77 be 20 83 b6 bd
       -0.01131998 0.21178858 -0.24175912 -0.08911729
0001e0 c8 f3 88 3e b0 8f 7d bf ab e0 73 3e f9 0e 59 bf
       0.2674849 -0.99047375 0.23816173 -0.8478847
0001f0 3f 48 b6 3e 02 a8 51 be ed 94 fe 3e ac 89 02 be
       0.35601994 -0.20474246 0.49722996 -0.1274783
000200 5c 79 54 3d cc cb 3b bd 4e 7d dd bd 3f 55 4a bf
       0.05187355 -0.045848653 -0.108149156 -0.79036325
000210 99 35 80 3e 25 cd cb be fb 55 1c be c4 bb b0 bd
       0.25040892 -0.3980495 -0.15267174 -0.086295635
000220 81 d4 25 be ac f5 07 bd 36 62 b8 bd 32 20 be 3e
       -0.16194345 -0.033193275 -0.09003107 0.37133938
000230 f8 e2 8d bd 49 6a 42 3e 07 19 84 3f ed e1 5c 3e
       -0.069280565 0.18985857 1.0320138 0.21570559
000240 26 e3 a1 bd 04 aa ff bb 4b f1 1a 3e 7e 4b f6 3d
       -0.07904653 -0.00780225 0.15131108 0.12026118
000250 d9 31 2c 3e d1 72 89 3e d3 b5 11 3e 85 e9 1f 3f
       0.1681589 0.2684541 0.14229517 0.624657
000260 62 f3 98 3e 74 21 8b bd 19 20 e4 3d a3 ad a9 bd
       0.29873186 -0.0679349 0.11138935 -0.08285072
000270 22 37 84 3d c9 05 7b 3e 3a ee 63 be 00 c6 7a bd
       0.06455828 0.24513926 -0.22258845 -0.061223984
000280 a9 69 90 3e 0f 35 45 be 6a 77 91 bd ee 7f cf 3d
       0.28205612 -0.19258521 -0.071028545 0.101318225
000290 ff fc dc bd 1a bf c8 3d 70 a7 d5 bd ff 42 a3 be
       -0.10790443 0.09802075 -0.10432327 -0.3188705
0002a0 ee 0e f3 be 1f 36 f0 be f8 52 8a 3e fb 6d eb 3d
       -0.47472328 -0.4691629 0.27016425 0.114955865
0002b0 f2 77 a4 3e c0 9d 45 3d 26 f8 bf 3d 98 88 d8 bc
       0.3212276 0.048246145 0.093735024 -0.02643232
0002c0 fc 31 ad 3e 4f 29 80 3e 92 4c bd 3d f9 3e 8e bd
       0.33827198 0.25031516 0.0924312 -0.06945605
0002d0 4c 1d 08 3d e5 0d 64 be 85 fa b0 3e 24 74 02 3d
       0.033231065 -0.22270925 0.3456613 0.03184904
0002e0 6e ba 23 3e 34 58 8b be ea 32 03 3f 62 af f3 bc
       0.15989086 -0.2721573 0.51249564 -0.029746715
0002f0 a5 2a ff bb d0 7c 94 be 9f e3 d9 3d 9e 0f 8d 3e
       -0.007787066 -0.29001474 0.106391184 0.27550977
000300 b8 ce 77 bd b4 a0 61 3d 29 04 b4 bd 65 10 d5 bd
       -0.060499877 0.0550849 -0.08789856 -0.10403518
000310 e5 7e b9 be e1 03 24 3f ec 24 9f bd fa a7 4c bd
       -0.36229625 0.6406842 -0.07770714 -0.049964882
000320 d7 93 59 be 8e 67 78 3c ce aa 99 3d 42 22 60 3e
       -0.21247803 0.015161408 0.075032815 0.21888068
000330 00 ab 03 bd 2f f2 b8 3e ac 0f e0 bb aa 32 9a be
       -0.0321455 0.3612227 -0.0068378057 -0.3011678
000340 0d f0 ad bf 03 c5 1c 3f 1f ef 54 be 30 df ef bc
       -1.3588883 0.61238116 -0.20794342 -0.029281229
000350 39 1f ed 3e f6 cd a9 3f 82 1c d8 be 36 3f 15 bc
       0.46312883 1.3265979 -0.4220925 -0.009109309
000360 25 31 aa bf 47 65 4b bd 15 6f 83 be 37 69 bf 3f
       -1.3296248 -0.049657132 -0.25670686 1.4953984
000370 e8 0c 33 bd 3d ec cb 3e 4c 8f 15 3e 75 5a 65 bd
       -0.04371348 0.39828673 0.14605445 -0.05599447
000380 61 bd e9 3d b9 f2 72 3f d2 17 f0 3e b2 90 9d 3d
       0.11413074 0.94901615 0.46893173 0.07693614
000390 6a f3 b1 be fc 8a 9e 3d 98 92 b9 3c 8c 68 1b bf
       -0.34756023 0.07741353 0.02265291 -0.607064
0003a0 61 bc 2a 3f da 35 92 3d 87 5a 77 bb 1a 01 e6 3e
       0.66693693 0.071391776 -0.0037743167 0.44922715
0003b0 e1 a8 c1 bc e3 cb 6d 3e bf 45 eb bd 58 24 df bd
       -0.023640098 0.23222308 -0.114879124 -0.10895604
0003c0 7f 1b 01 bf 47 31 4b bf ee a9 e1 3d 8f c2 1a bf
       -0.5043258 -0.79372066 0.1101874 -0.6045312
0003d0 30 2c 03 3c 5a 34 86 be b9 f4 c4 3e 58 af 90 bc
       0.008006141 -0.26211816 0.3846796 -0.017661735
0003e0 21 5f 05 be 0d 60 e7 be e7 5f 4b 3b b0 8a 08 bd
       -0.1302457 -0.45190468 0.0031032504 -0.033335388
0003f0 25 eb be be c0 f1 6b be cd db 0d bf d5 df b6 3e
       -0.37288776 -0.23041439 -0.55413514 0.35717645

l2.bias f4 [64]
000000 b2 30 ba 3e d7 7e 55 3e 55 d4 ff bc f3 24 84 3c
       0.36365277 0.20849167 -0.031229177 0.0161309
000010 04 20 9c bc 2a 1c c2 bc dd eb 99 3d 26 ca 00 be
       -0.019058235 -0.02369507 0.075156905 -0.12577114
000020 29 b8 e6 3d 23 5d 58 bd 61 d5 f7 bd f8 e4 2e bd
       0.112655945 -0.052823197 -0.12101246 -0.04269883
000030 96 44 21 bd 9a eb 49 3d f4 ed b1 3d 12 de 03 3e
       -0.03937205 0.049296953 0.08687964 0.12877682
000040 df 99 12 3e 59 f5 96 bd 8b b6 7a 3d fa ee e2 bd
       0.1431651 -0.07371015 0.061209243 -0.110807374
000050 90 f1 7f 3e 2f c8 db 3c 4a 27 2c 3e 88 4a 3e 3d
       0.24994493 0.026828853 0.16811863 0.046457797
000060 ee 81 9b 3d 37 44 ad bd a2 c4 8f 3d d3 5d 57 3d
       0.075931415 -0.084602766 0.070199266 0.052579712
000070 6d 3b 16 bd 12 7e e1 3c 11 69 9f bd 31 b8 29 3e
       -0.036677767 0.027525935 -0.07783712 0.1657417
000080 81 28 26 3d 5d 10 5c 3d d7 5c b4 3d ac f1 c7 bd
       0.04056597 0.053726543 0.0880677 -0.09762892
000090 61 67 ca 3d 01 20 33 be be b8 ca bd ed b7 da 3b
       0.09882999 -0.17492677 -0.09898518 0.0066747577
0000a0 1c fd 91 3e 77 0f 5e 3e 0e b1 50 3e 09 cd 76 3e
       0.2851342 0.21685587 0.20380041 0.24101652
0000b0 2a 8e 29 3e 73 60 e0 3d 9a 8f f8 bd b4 14 5a bc
       0.16558138 0.10955896 -0.12136765 -0.0133106
0000c0 76 02 2f 3e 90 58 1c 3d b6 35 8c 3d 71 52 13 3c
       0.17090783 0.038170397 0.06846182 0.0089918235
0000d0 d2 8c 86 3e bf 89 d6 3b 3c b7 8a bd 90 36 32 3e
       0.26279312 0.0065471823 -0.067732304 0.17403626
0000e0 20 b9 84 3e 35 a6 f3 3d e8 40 e9 bd fd be d0 3d
       0.2592249 0.11896936 -0.11389333 0.10192678
0000f0 ab 65 96 3d 2d 4e a0 be 22 0b c1 3d be ae 8d 3d
       0.073436104 -0.31309643 0.094259515 0.06918095

l3.weight f4 [3, 64]
000000 c6 73 b2 3e 91 d6 c5 3e ac ab 25 40 fe ba 24 3e
       0.34853953 0.38640264 2.588603 0.16086957
000010 5b c5 c1 be e2 35 65 3b 41 05 52 bd 34 fe 0b 3d
       -0.37845883 0.0034974744 -0.05127454 0.034177974
000020 cf 12 98 3f 1a 4f 94 be 80 69 32 bc 6c 7c b0 be
       1.188074 -0.289666 -0.010889411 -0.34469926
000030 1d fd 9d be 0f d1 ec 3e 51 07 d5 be 44 ba e2 3e
       -0.30857173 0.4625325 -0.41607144 0.44282734
000040 82 f2 3c 3d da 44 61 3f e6 a4 00 3e f1 ff 38 3d
       0.04612971 0.87995684 0.12562904 0.04516596
000050 1e ac 1f 3d 8d 15 af bd 0d f5 24 3d 80 2f de be
       0.038982503 -0.08549032 0.04027276 -0.43395615
000060 eb 1a e0 3d ca 27 de bb 23 bd 33 bb b0 da fd bd
       0.10942634 -0.0067796456 -0.0027425967 -0.12395227
000070 bd a2 c0 be c9 d2 13 bc d3 58 c7 be 94 67 5b bc
       -0.3762416 -0.009022423 -0.38934955 -0.013391394
000080 7e bb d2 be be df 65 3e fd 7c 1b c0 9c 01 c6 bd
       -0.4115867 0.22448632 -2.4295037 -0.09668276
000090 9a d5 b7 be aa 45 09 3f 9a f6 d1 bd aa f3 a6 bf
       -0.35905153 0.53621924 -0.10252114 -1.304311
0000a0 ed ee 7c 3e c1 ac 10 bf ba af 74 3e 24 dc f9 3e
       0.24700518 -0.565136 0.2389516 0.48800766
0000b0 11 88 b2 3c 85 03 bd be 63 13 25 be 3d 12 c4 3e
       0.021793397 -0.36916748 -0.16120677 0.38295165
0000c0 83 fd a7 3d e4 15 28 be d8 ad 96 bf 37 c4 af bd
       0.082026504 -0.164146 -1.1771803 -0.08582347
0000d0 2c 44 a9 3d 41 a3 94 3e cb 2f 2e 40 97 13 6d be
       0.08264956 0.29030803 2.721667 -0.23152004
0000e0 2c fa 25 3f bb 95 b7 ba 2b 08 95 be e0 48 61 3e
       0.64834857 -0.0014006415 -0.29107794 0.22000456
0000f0 62 0b b7 bc 43 b9 97 c0 78 4e 97 bc e5 5e 8e bd
       -0.022344295 -4.741365 -0.018470034 -0.069516934
000100 db 4c a4 3e a5 3e ba be 02 d9 52 bf 50 9e 22 be
       0.32089886 -0.3637592 -0.8236238 -0.15880704
000110 00 2d b4 3e e6 f2 1d bf 6c 7e 22 3f e7 3e 58 3d
       0.35190582 -0.6169876 0.63474154 0.052794363
000120 c2 14 92 c0 14 cc 98 be 68 e8 1d 3d c7 67 92 3e
       -4.565034 -0.298432 0.038551718 0.285948
000130 51 58 02 3e 6c 9e 49 c0 a1 cd 9a 3d 3d d7 c2 3e
       0.12729003 -3.1502943 0.07558752 0.3805484
000140 a8 fa 24 bf 60 6e 9a 3d 08 85 c6 be 38 ed 59 40
       -0.6444497 0.075405836 -0.3877337 3.4051037
000150 64 31 b8 be fd 6f 0b be 41 8b 38 c0 9a 53 c4 3d
       -0.35975182 -0.13616939 -2.8834994 0.09586258
000160 3e 35 d6 3e 4e d7 d1 3f 89 72 ce 3e 63 67 9e bd
       0.41837496 1.6393831 0.40321758 -0.07734563
000170 4b a3 09 bb 44 01 0f 3d 6a 14 cd be cb 09 de 3f
       -0.0021001871 0.034913316 -0.40054637 1.7346739
000180 a1 5c 2a 3e 5c f4 d0 3e 96 42 3a 3e 35 47 b4 bd
       0.16636898 0.4081143 0.18189463 -0.08802644
000190 b7 f2 23 3d a4 0c aa 40 38 b6 a9 bc f9 b2 93 be
       0.040026393 5.314043 -0.020716771 -0.28847483
0001a0 5e 5e 14 be dd e2 7f c0 b7 a7 05 bf 27 4c 12 be
       -0.14489123 -3.9982216 -0.5220904 -0.14286862
0001b0 84 a6 69 3e f6 4b 9c bd b2 7f 6c bf 3f 30 06 3d
       0.22817427 -0.07631676 -0.9238235 0.032760855
0001c0 14 85 c1 be c7 18 1d bf 32 13 68 c0 0f 54 eb be
       -0.37796843 -0.6136593 -3.6261716 -0.4596257
0001d0 1e 9d 87 3f 14 cf e8 3d fc 63 09 3c da 3f 4a 3c
       1.0594823 0.11367622 0.008385655 0.012344325
0001e0 14 ae a8 3e 90 30 21 3f 51 09 cf bd 67 56 f7 3e
       0.3294531 0.62964725 -0.10109199 0.48308107
0001f0 e5 7b 80 bd 5a 00 d7 bd 28 79 87 40 7a d2 19 3f
       -0.06273631 -0.10498114 4.2335396 0.60086787
000200 24 60 da 3e e0 14 ee be 31 35 a5 3e fa b7 74 40
       0.42651474 -0.465003 0.32267144 3.823729
000210 d5 a0 41 be 69 80 b3 be 74 71 8d 3e 34 3f df bd
       -0.18909009 -0.35058907 0.2762562 -0.10900727
000220 f9 90 0c bf c3 cc 96 3e ed b5 6b 3d 7e c2 dd bd
       -0.5490871 0.29453096 0.057546545 -0.10828112
000230 77 b7 8c bd df 5d 30 3e 82 fe a7 bd f2 25 e7 3d
       -0.06870931 0.17223309 -0.082028404 0.11286534
000240 51 d4 96 be a0 ce be 3d 95 dc 20 bd 87 80 49 3f
       -0.2945886 0.09316754 -0.039272863 0.7871174
000250 0a 81 3e 3d d4 ab 74 be 77 7d 06 3d 61 ae 18 be
       0.04650978 -0.23893672 0.032834496 -0.1491027
000260 a3 87 1b 3f 6e 0e 65 3c 45 bb ae 3f e1 d5 0f 3e
       0.6075384 0.013980491 1.36509 0.14046432
000270 4c b9 18 3d fe 75 9a c0 d7 a5 9b 3d f2 6b 8a bd
       0.037286088 -4.8269033 0.07599991 -0.0675887
000280 4e a0 a2 be ab d5 0f bf 79 7a 41 3e e0 7e 80 bb
       -0.31762928 -0.56185406 0.18894376 -0.0039213747
000290 5b bb 8d 3d 98 a3 5e bf ac 96 b6 bd d5 ff 8d be
       0.06920501 -0.86968374 -0.08915457 -0.27734247
0002a0 1d aa 1d bf d9 0d 97 bf f5 ae 9a 3e 07 ea b5 3e
       -0.615877 -1.1801101 0.30211607 0.3553011
0002b0 93 37 ce 3e 6d 70 dd 3e c3 04 c9 bf 31 96 26 bd
       0.40276775 0.43249837 -1.5704578 -0.040670577
0002c0 a3 68 39 be 4a 92 de 3c 1c 86 cb 3f 58 1f f4 3d
       -0.18106322 0.027169365 1.5900302 0.11920041
0002d0 8e dc 0e be f0 5e a7 3e 5b b3 23 be 2e 65 cb c0
       -0.13951322 0.3268962 -0.15986387 -6.356101
0002e0 cf 37 d6 be b2 f9 f4 ba 88 d7 b8 be f8 fb 88 be
       -0.41839454 -0.0018690138 -0.36101937 -0.26754737
0002f0 9a df 17 3f a4 08 88 3e c0 eb fc be 92 7c 97 be
       0.59325564 0.26569092 -0.49398613 -0.29587227

l3.bias f4 [3]
000000 02 07 00 3e 04 ce 49 3d 42 0b a5 bd
       0.12502673 0.049268737 -0.08058788
