examples/experiments/experiment_20/critic55_4.pth (torch, 37463 bytes, 5 tensors)

l1.weight f4 [64, 72]
000000 fc 63 35 bc 9b ba 86 bc 29 d0 18 3b 27 5b 7f bc
       -0.011071201 -0.016446402 0.0023317432 -0.015585697
000010 6b 64 41 3c d2 69 8c 3b 17 6b c4 bb b8 8f b6 3c
       0.011803727 0.0042850757 -0.0059942114 0.022285327
000020 a5 03 e8 ba 10 55 21 3c c6 e2 ae 3c e9 da 49 3c
       -0.0017701281 0.009846941 0.021348368 0.012320259
000030 ce 47 3d bc b1 35 b6 bb 9b 1a 05 bd 26 b5 f1 bb
       -0.011552764 -0.0055605997 -0.032496076 -0.007376331
000040 35 7f f9 3a 72 0e 91 3b dc ed b1 bc ce c8 16 bc
       0.0019035103 0.004426771 -0.021719866 -0.009203149
000050 30 fb b9 3b d9 80 a3 3c 58 12 12 bb 5c 19 58 ba
       0.005675696 0.0199589 -0.0022288766 -0.0008243525
000060 9e 2b e2 bb 78 8f be 3b 88 11 bc bc 22 19 9f bb
       -0.006902172 0.0058154427 -0.022957578 -0.004855291
000070 c1 7e b5 ba f5 0a 91 bb d1 7c 3b bc c0 b7 bc ba
       -0.001384698 -0.004426355 -0.011443333 -0.0014398023
000080 29 88 e6 3a e1 f2 29 3c 04 4f 19 3c 4c f1 54 bb
       0.0017588186 0.010372848 0.009357218 -0.0032492457
000090 44 e6 be bd c0 03 e9 bc 19 99 4d bf 23 6a 19 3c
       -0.093212634 -0.028444171 -0.80311733 0.009363684
0000a0 74 61 f3 3b e1 41 8f 3b 9e f2 fe 3b 02 bc 6a 3b
       0.007427389 0.004371867 0.007780387 0.0035817628
0000b0 b3 73 06 3c b2 3d d5 3b ce c3 a0 bb db 4c aa 3a
       0.008206296 0.006507599 -0.0049061542 0.0012992875
0000c0 dd 53 2d 3d 9b 44 91 3c 9a f6 c6 3d c3 bc 1c bb
       0.042316306 0.017732909 0.09715004 -0.0023916222
0000d0 a9 30 68 bc 08 f9 24 bb ed b6 9f 3d 06 5f fa 3b
       -0.014171758 -0.0025172848 0.07798562 0.007640722
0000e0 4f 90 77 bc 9d c7 58 bd be 73 4e 3d fe 06 1f bd
       -0.015110089 -0.05292474 0.05040335 -0.038825028
0000f0 b3 9b 89 3f 58 f8 c6 3e 72 39 01 41 41 28 e5 3b
       1.0750641 0.38861346 8.076525 0.006993324
000100 d2 ad 07 3c 8a c0 ec 3a 1d d1 cf 3c 12 b7 a9 bb
       0.008281188 0.0018062752 0.025368268 -0.0051792944
000110 c7 d7 d9 bc 97 b6 51 bc 24 d5 e0 bb e1 f4 0d bd
       -0.026592148 -0.0127998805 -0.006861346 -0.034657363
000120 8e b3 c6 bc 05 29 d9 3d 8d 8c de 3d ad db ae 3d
       -0.02425554 0.10603527 0.10866652 0.085379936
000130 16 1f 2d 3f 56 e7 b8 3d a0 8d a8 3e 3d fc 89 bd
       0.6762556 0.09028499 0.3292055 -0.06737564
000140 2e 68 de bd ed bb 1a bf ea 07 8a 3e 61 36 c1 3d
       -0.108597144 -0.60443 0.26959163 0.094342
000150 bc 8e aa be db 88 c3 3d b3 1c 4c be 2e 60 40 3e
       -0.33312023 0.095475875 -0.19932823 0.1878669
000160 05 60 50 3e 17 04 2d be 61 cd d3 3d e7 ff 6b be
       0.20349129 -0.16896091 0.10341907 -0.23046838
000170 00 32 09 bd 4e 35 19 39 7c 1f bb be 14 ce a5 3c
       -0.03349495 0.00014611075 -0.36547458 0.020239867
000180 da 4b 23 3d 3c 48 95 3d 67 f7 da 3d e7 fc 3a bc
       0.03986726 0.07289168 0.106917195 -0.011412836
000190 de 9b d9 3c 9a 66 0a 3e f6 84 92 3d 85 eb 8e be
       0.026563581 0.13515702 0.071542665 -0.27914062
0001a0 ca ff ec bd 9f fa b5 be 9b f5 2c 3d 60 e0 10 3d
       -0.115722254 -0.3554277 0.042226415 0.03537023
0001b0 3c da 36 bd f4 d6 cb bd b5 34 80 bd 5a 02 54 be
       -0.04464172 -0.099531084 -0.06260053 -0.20704022
0001c0 8a 48 56 bd 2d 31 bc 3d 99 44 9e 3e ab 02 7b be
       -0.052315272 0.09189067 0.3091171 -0.24512736
0001d0 1f e6 4b 3e 47 e6 21 3b ed 7a 97 3c 47 c3 36 bd
       0.19912003 0.0024703906 0.018491233 -0.044619825
0001e0 ef 50 6e bf 4a 20 cf bf 45 e1 8e 3e 4b 72 7d 3d
       -0.93092245 -1.6181729 0.27906242 0.061876576
0001f0 32 0a b1 be 45 82 5d be 3d b2 bc 3e 86 7c 3c 40
       -0.3457809 -0.21631725 0.36854735 2.9451003
000200 76 81 93 3f 77 ae aa bf e6 ff 2f 3f 48 de cd 3e
       1.1523883 -1.3334492 0.68749845 0.4020865
000210 d0 fe 74 3e 55 fb 21 3d 4e e1 42 bd f7 87 70 3f
       0.23925328 0.03954633 -0.04757815 0.93957466
000220 46 73 13 3f 56 b1 db 3d 8e 92 54 c0 d2 0b 00 40
       0.5759777 0.107271835 -3.321445 2.0007215
000230 b3 91 09 c0 7f d3 c9 3c e7 ef 14 be 7b 6b 20 3f
       -2.1495178 0.024636982 -0.1454464 0.62664
000240 eb ce 9a bc 7a 64 82 bd 19 0a 5b 3c 11 2a e2 3d
       -0.018897494 -0.06366821 0.013369107 0.1104318
000250 42 d3 ac bc 67 e4 81 bc 7b 37 43 bc 33 f3 ae b8
       -0.02109683 -0.015855981 -0.011915083 -8.342266e-05
000260 fb c5 29 bd 30 e4 84 bd 20 13 1b bd fd aa 5f 3d
       -0.041448575 -0.06488836 -0.037860036 0.054606427
000270 8d 19 37 3d ea bd cf bd 22 88 2e 3c 64 e6 9c 3d
       0.0447021 -0.10143645 0.010652574 0.07661131
000280 75 95 32 3d cd b7 10 3d 90 c0 f7 bc 93 ae 76 3d
       0.043599565 0.035331536 -0.030243188 0.06022508
000290 6a f6 ca bd 5d fb 58 bd 36 fc d5 bd c9 37 da bd
       -0.09910281 -0.052974094 -0.10448496 -0.106551714
0002a0 af 68 3d bd 29 0d 07 3d b1 af 45 3c 6d 95 a3 bd
       -0.046242412 0.032971535 0.012065814 -0.07987485
0002b0 68 89 3e bd b3 d6 28 3d 53 ea d1 3d 80 8e 45 bd
       -0.04651776 0.041220378 0.10249772 -0.0482316
0002c0 93 94 38 bd f8 25 b1 3d b4 71 f0 bd d9 6c a6 3d
       -0.045063566 0.0864982 -0.11740437 0.0812623
0002d0 97 72 c3 bd 11 5b c9 3d 1d e8 a3 bd 0e 99 a8 3d
       -0.09543341 0.09831823 -0.080032565 0.08232318
0002e0 c7 70 cb 3d 0c 27 ab bd 4b 6a 69 3c da 3f 07 bd
       0.0993362 -0.08357057 0.014246534 -0.033019878
0002f0 9a d2 ca 3d 15 0f 11 bd 51 13 36 bd 52 b2 10 bd
       0.0990345 -0.035414774 -0.044452015 -0.03532631
000300 9e f0 df 3d 89 a4 19 bd 4c 23 6c 3d 00 4b c0 bd
       0.10934566 -0.03751043 0.05765085 -0.09389305
000310 24 31 ba 3d 10 6a 1f bd d4 f7 e9 3d 8b b5 16 bd
       0.09091404 -0.03891951 0.114242226 -0.036794227
000320 84 8a 90 3d ce cd 81 bc 47 dc e9 3d 31 45 8b 3d
       0.0705767 -0.015845206 0.11418968 0.068003066
000330 f9 8e 6e 3d 0e 80 0f bd 2a 68 72 3c 61 15 f5 bc
       0.058241818 -0.03503423 0.014795342 -0.02991742
000340 e4 cb f1 bb e2 32 28 3d 80 67 f9 3b 63 d4 9b 3d
       -0.007379042 0.04106415 0.007611215 0.07608869
000350 77 14 06 3d 04 80 df bc 32 dc 3f bd b1 72 80 bd
       0.03273436 -0.027282722 -0.046840854 -0.06271876
000360 2c 9b 19 bd 30 e9 bf bd e3 4e 35 be f4 c3 74 be
       -0.0375015 -0.09370649 -0.17705874 -0.23902875
000370 d4 03 d9 bd a8 c5 81 be 99 68 cc 3d ac 97 81 bd
       -0.10596433 -0.25346112 0.09980888 -0.06327757
000380 d3 30 79 3d 3d 51 3c be 97 41 1a 3e b2 2b 1e be
       0.060837578 -0.18390365 0.15064083 -0.15446356
000390 0f aa 34 bd 10 ce df be 71 f1 bc 3d 65 3f a3 3d
       -0.044107493 -0.437119 0.09225739 0.07971076
0003a0 17 d8 3a be 08 df 21 be e7 82 ae bd 45 ad e0 3d
       -0.18246494 -0.15807736 -0.085210614 0.109705485
0003b0 2d 3f c4 3d 4c 2a 8e be cd 9d 84 be 01 25 57 bc
       0.09582362 -0.27766645 -0.25901642 -0.013131381
0003c0 82 89 b5 bd 13 b6 8a bc e8 ca 6f 3e f3 83 8a bc
       -0.08864118 -0.016932523 0.23417246 -0.016908621
0003d0 ce 24 8f 3c d6 38 b8 3c f3 ca 7d 3c f4 41 8c bc
       0.017473605 0.022488039 0.015490281 -0.017121293
0003e0 34 fd 95 3d bd 91 0e bd d9 e6 ab ba 27 64 0a bd
       0.07323685 -0.034806956 -0.0013115063 -0.03378692
0003f0 e9 b5 81 be cf 6d 9f be d9 dd b2 3e 33 45 82 be
       -0.253341 -0.31138465 0.3493488 -0.2544342

l1.bias f4 [64]
000000 46 eb cf ba 7a 7c 6b 3e af 18 b5 bd 04 5f e9 3d
       -0.0015862964 0.22996703 -0.08842599 0.11395076
000010 23 32 ae 3d 36 73 2a bc 6e ff 1a bc 34 50 38 3e
       0.085056566 -0.010403445 -0.009460313 0.17999345
000020 a8 3a c8 3b 60 75 99 bb 32 04 d8 3d a5 6f 91 bc
       0.006110508 -0.0046831816 0.10547675 -0.017753432
000030 7b cf e3 bc 7e db 91 bb ef 61 e0 3a 0d 36 df 3b
       -0.027808895 -0.0044512143 0.001711903 0.0068118633
000040 df 46 64 3d b9 65 6e ba 50 6a 38 be 80 ea 49 bd
       0.05573165 -0.00090941373 -0.18009305 -0.049295902
000050 ba e3 75 3d f3 ef c1 bb b9 9c 78 3e b1 7d 10 bc
       0.06003163 -0.0059184968 0.24278535 -0.00881903
000060 23 61 9c bb 08 52 c3 bb d9 39 1e be c1 07 a8 3d
       -0.004772322 -0.0059607066 -0.15451755 0.08204604
000070 b3 0a 6e be 5c b5 e6 bd 8a 29 d6 3d 1d bc 7d 3c
       -0.23246269 -0.1126506 0.10457142 0.015486744
000080 09 db 00 3e 0e be 16 be bb 1a c6 3c 70 04 db ba
       0.12583555 -0.14720938 0.024182668 -0.0016709697
000090 e9 ef 77 3c 80 3c 92 3e b1 c9 c2 3d f7 5f a6 b8
       0.015132883 0.28561783 0.09511126 -7.933372e-05
0000a0 4e e4 40 ba 56 ae 1d bb 22 30 0a bd e5 2c a8 bd
       -0.0007358239 -0.002406021 -0.03373731 -0.08211688
0000b0 c1 d1 6d 39 d0 55 2e 3b 8f d5 6c bd 28 c0 a2 bd
       0.0002268022 0.0026601441 -0.057820853 -0.07946807
0000c0 30 7b b3 ba 5d a2 98 bd 4a b7 d2 bd 82 53 d0 ba
       -0.0013693329 -0.07452843 -0.10288866 -0.0015894028
0000d0 40 5e 8d bb 07 b3 bf bd 54 a1 2e ba e6 a6 61 3c
       -0.004314214 -0.09360319 -0.0006661613 0.013772702
0000e0 56 07 17 3d 72 37 e8 bd a0 4e 30 3e 67 85 0e bc
       0.03687223 -0.113387 0.17217493 -0.008698798
0000f0 cf bc 8d 3d b3 b2 00 bc 61 78 14 3e ac 41 32 3e
       0.06920778 -0.007855105 0.14499046 0.17407864

l2.weight f4 [64, 64]
000000 52 0a e1 3b 72 a6 3e be c0 f0 5f 3c 5f 5d 94 be
       0.0068676854 -0.18618181 0.013668239 -0.28977486
000010 d3 63 7f 3f 77 e9 bd 3d 4b 6b e0 bd dc 8b 18 be
       0.99761695 0.092730455 -0.109579645 -0.14897102
000020 41 71 10 3e 33 b7 ea bf 8a 36 a7 3d 84 5c 2a be
       0.14105703 -1.8337158 0.081646994 -0.16636854
000030 ed 05 d2 3d 01 c6 bb 3e dc c7 2b 3e 84 d3 72 3e
       0.102550365 0.36674502 0.16775459 0.237135
000040 ef d8 d9 bc 6e 02 1f be 9f da 5a c0 2a c5 ac be
       -0.0265927 -0.1552827 -3.4195936 -0.33744174
000050 ad ef 7a 3e d9 12 54 bc a5 97 9c bc cb 34 09 3d
       0.24505492 -0.012943947 -0.019115278 0.033497613
000060 b8 83 29 be aa 3c 34 3d e0 72 3f 3e a9 ea 86 be
       -0.16554153 0.044003166 0.18696165 -0.26350906
000070 88 3d 9c bd 80 d9 02 bb a1 b7 35 bf 22 16 ae bd
       -0.07628924 -0.0019966066 -0.7098332 -0.08500315
000080 4f 44 2d bd 68 d2 6f 3d 99 2a d1 3e 36 12 cd 3e
       -0.042301472 0.05855027 0.40852812 0.40052956
000090 80 4f 28 3e a8 68 74 3d d3 99 b3 3e 81 e4 18 be
       0.16436577 0.05967012 0.35078296 -0.14930917
0000a0 15 59 1b 3d 89 8b 81 3d 44 21 13 be a0 f4 2b 3c
       0.037926752 0.06325442 -0.14368159 0.010495335
0000b0 f7 38 dd bd 13 27 b2 bc b2 fe 4d 3d 64 79 9a 3d
       -0.10801881 -0.021747148 0.050291725 0.07542685
0000c0 24 66 bb 3b 4f a7 fc bb 78 9b 70 3d 16 b8 f1 be
       0.005718963 -0.0077103744 0.058742017 -0.4721076
0000d0 88 c5 b3 be 79 63 c1 bd 63 30 b3 3d ea 8c 38 be
       -0.35111642 -0.09442801 0.087494634 -0.18022504
0000e0 6b b0 86 3e 0c 91 18 3d 39 64 cd 3d c5 99 31 3e
       0.2630647 0.037247702 0.100288816 0.17343815
0000f0 dd 29 85 be d1 50 3a 3e 54 6a 93 3d 67 65 0a 3e
       -0.26008502 0.18194892 0.07198015 0.13515244
000100 da 07 14 bf fe 00 fb bd 00 c6 31 3c f0 be 12 3e
       -0.5782448 -0.122560486 0.01085043 0.1433065
000110 6a 34 e6 bd 4e 33 3f 3f 98 d3 c7 be 28 71 c0 3e
       -0.11240466 0.7468766 -0.3902862 0.3758633
000120 5e ee e7 3e a3 6c 25 3f 7e 44 76 3e ac 3d 74 3e
       0.45299047 0.6461889 0.24049565 0.23851651
000130 72 b0 d7 bc 04 1c 69 3e d3 80 0a 3f f7 b1 a9 bc
       -0.026329253 0.22764593 0.5410282 -0.020714743
000140 39 42 ac be df de c8 bc 33 dd c4 bf 84 b5 7a 3e
       -0.33644274 -0.024520336 -1.5380005 0.24483305
000150 6a f7 53 3f a4 0f 0c 3c b8 ca 9d be e5 6e ee 3d
       0.827994 0.008548651 -0.30818725 0.11642245
000160 67 25 21 3e 82 27 71 bd 7f 62 7c 3e 43 06 95 3e
       0.15736924 -0.05887557 0.24646948 0.2910634
000170 25 05 c7 be 50 60 f9 3d ae 7e 7c be 4d 0d 05 3f
       -0.38871112 0.12176573 -0.246577 0.5197342
000180 26 9b ae 3e 3b 72 55 3f f4 30 b0 3e 4f 9f d9 3e
       0.34102744 0.83377427 0.34412348 0.42504355
000190 f6 16 01 3f 81 89 77 3e 3b da a4 3e cd 5d 86 3e
       0.5042566 0.24173547 0.32197747 0.2624344
0001a0 98 b0 ab 3c c9 cd e4 3e a3 ee 1f 3f 43 0a 17 3d
       0.02095823 0.44688252 0.62473506 0.03687502
0001b0 01 ef a8 be 16 1e ae 3e df d2 03 3d bd 7c 52 3e
       -0.32994846 0.3400733 0.032183524 0.20555396
0001c0 8d fd 2a bd 92 98 6b bf 50 5a 1f 3c b6 8d e2 be
       -0.04174571 -0.9202968 0.009726122 -0.44248742
0001d0 95 29 a6 be 2b 73 b5 3c 82 37 1c be 07 fe 8e be
       -0.324536 0.022149643 -0.1525555 -0.27928182
0001e0 93 d2 72 be 08 6a fd 3c 29 86 b5 3f f2 be 57 3e
       -0.2371314 0.030934349 1.4181567 0.21068934
0001f0 75 c6 dc 3d de 04 48 3e d5 6f 03 bf d9 98 61 3f
       0.1078004 0.19533107 -0.5134252 0.8812385
000200 22 93 24 3e 29 19 11 3f 80 74 fc bc 99 27 9b be
       0.16071752 0.56679016 -0.03081727 -0.30303648
000210 24 5b 80 3e 4c 78 84 be fe 48 39 3e 54 de 64 3c
       0.25069535 -0.2587303 0.1809425 0.013969023
000220 4f 16 20 3d 1d 8f ff be 23 38 14 3f c6 19 0d bf
       0.039083775 -0.49913874 0.5789816 -0.5511745
000230 7e 56 c7 3d cb fd cd bd 71 49 5a bd 78 04 c3 bd
       0.09733294 -0.10058173 -0.053292695 -0.09522337
000240 38 27 2e bf 03 1d e4 bc e5 6c c4 c0 8b 38 7c be
       -0.68028593 -0.027845865 -6.138293 -0.24630944
000250 90 68 60 be 0b 06 c7 3d 7c 81 85 bd aa 41 e2 bd
       -0.21914887 0.097179495 -0.06518838 -0.11047681
000260 b1 84 02 be 88 00 9c bd a8 2b b8 be b3 57 22 bf
       -0.1274593 -0.07617289 -0.35970807 -0.6341507
000270 0d 8b 2c 3e d0 02 e9 3c b0 b9 c4 be 7b 26 28 3f
       0.16849919 0.028443724 -0.38422918 0.65683717
000280 1a bd 6e bc eb 77 db 3d 52 ac a9 3e 97 77 ce be
       -0.0145714525 0.10716232 0.33139282 -0.40325615
000290 7b 5b d1 3e 19 9e cf 3e 00 b9 95 be 6f 2f 82 bd
       0.40890107 0.40550306 -0.29242706 -0.063567035
0002a0 cd 15 5a 3d 06 d5 f6 bf 40 33 03 be c0 f6 27 3b
       0.053243447 -1.928376 -0.12812519 0.0025629252
0002b0 3e 0b 29 bb be 38 4f be 3b 9e 18 bf f6 c5 af be
       -0.0025794054 -0.20236489 -0.5961644 -0.3433072
0002c0 02 a1 f4 bd 8f 52 f3 bf ea 76 98 bd ae 73 59 c0
       -0.11944772 -1.900957 -0.07444556 -3.3976855
0002d0 b3 37 6e be cc 3f 38 bd ef 97 a5 be 3e 1f 9f 3c
       -0.23263435 -0.044982716 -0.3234248 0.019424077
0002e0 7a ad 0e 3e 9c 1f dd bd a5 1b d0 be d0 1e 18 3d
       0.13933364 -0.10797045 -0.4064609 0.03713876
0002f0 d6 4a fa 3d 02 56 67 be 88 f9 0b be be bf 6b be
       0.12221305 -0.22591403 -0.13669407 -0.23022363
000300 9e 3d bd be 73 45 92 3d 08 fb ad 3c 6d b3 48 3d
       -0.36961073 0.07142153 0.021237865 0.04899924
000310 4e 20 95 3d 50 bd 83 3e 53 6a 59 bd 6b 92 11 bf
       0.07281552 0.2573037 -0.053079914 -0.5686404
000320 d3 fa 2a bf ec 52 5a 3d 04 d5 7d be e4 98 95 3e
       -0.6678898 0.053301737 -0.2478829 0.2921821
000330 59 e9 2a 3f 81 88 89 3d 92 77 5f 3e 81 5f 69 be
       0.6676231 0.06715489 0.21822956 -0.22790338
000340 86 12 ed 3e f2 f9 18 3e 36 da 90 bf b1 1c f1 be
       0.46303195 0.14939097 -1.1316593 -0.47092202
000350 53 4f 83 be cd 1b a2 be 9a c7 b5 be 6a 44 e0 3e
       -0.25646457 -0.31661835 -0.35503846 0.43802196
000360 00 62 ca 3e f5 39 ae bd 20 4c 37 3e fc dc d2 be
       0.39527893 -0.08507148 0.17900133 -0.41184223
000370 c1 ea dd 3e 1c 36 48 bd c5 6c 09 3f 9b ab 20 3e
       0.43343166 -0.048879728 0.53681594 0.15690462
000380 d5 d5 0e 3f a3 77 eb 3e 84 a2 c3 3e 70 3a 2f be
       0.5579503 0.45989713 0.38209927 -0.17112136
000390 cc 1f 1d bf 9f 2c 82 3e f3 bb 05 3e 41 a1 19 be
       -0.61376643 0.25424668 0.13059978 -0.1500292
0003a0 cb 01 82 3e 18 10 a9 be ae 9f 05 bd 21 be c6 3c
       0.25391993 -0.3302009 -0.032622986 0.024260582
0003b0 38 a6 cf 3d 10 59 60 bc 8c a3 b9 3e ac 84 32 be
       0.101391256 -0.013693109 0.3625759 -0.17433423
0003c0 dc 24 21 be e2 fb 73 3d 10 da ae 3c a3 3f 0e 3f
       -0.15736717 0.059566386 0.021344215 0.5556585
0003d0 13 4d 1c be 1f 9b 10 3d f9 7d 70 be a7 49 95 be
       -0.15263776 0.035304185 -0.23485555 -0.29157755
0003e0 cc 4c 10 3f c8 ce d4 3c 50 df 0a 3f 00 86 2f bf
       0.5636718 0.025977507 0.54247 -0.6856384
0003f0 a7 88 33 3e 47 81 ee bd e2 98 04 3e 48 c4 e2 3d
       0.17532597 -0.116457514 0.12948945 0.11072594

l2.bias f4 [64]
000000 1e b9 5a bd 16 e5 16 be e1 0d 64 3d 20 f4 8e 3d
       -0.053399198 -0.14735827 0.0556773 0.06980157
000010 52 84 3a 3e 1d 2f e2 3d c5 6e fc bd a6 ea bc bd
       0.18214539 0.110441424 -0.12325815 -0.09224443
000020 40 ab 24 bc 5e de 31 be 30 53 17 3e a7 6e 69 3d
       -0.010050595 -0.17369983 0.14777827 0.056990292
000030 0f d3 39 bd 70 19 03 3d 80 65 26 bd 97 a4 ef 3d
       -0.045367297 0.03200668 -0.04062414 0.11701315
000040 b3 06 ac 3d 59 49 e2 3d bd e1 25 3e b7 ee 3d bd
       0.08399715 0.11049146 0.16199394 -0.046370234
000050 55 f6 2b bd be 24 1a bd 7d e4 02 bd 4c 2d b7 3d
       -0.041982967 -0.037632696 -0.031956185 0.089441866
000060 bf 22 04 3d 71 59 02 3e ae fc e4 3c ec 0b 60 3d
       0.0322597 0.12729432 0.027952518 0.05469887
000070 c2 97 d3 bd 9e b8 e9 3c 74 c1 67 3e f5 08 be bd
       -0.1033168 0.028530415 0.2263239 -0.09279052
000080 34 4d 76 3d 26 46 0c be 9d 5a fe bb ec 41 f9 3d
       0.06013222 -0.13698635 -0.007762267 0.12170777
000090 39 b2 55 3e 1c fe 46 be c0 86 30 3e da cf ee bd
       0.20868768 -0.19432873 0.17238903 -0.11660738
0000a0 bc 4c 6a 3e b1 d6 6f be 15 26 40 3d b7 76 39 3e
       0.22880834 -0.23421742 0.046911318 0.18111692
0000b0 a9 19 a5 bd 3f b8 44 3e ee 13 25 bd 0b 79 2b 3e
       -0.08061535 0.1921091 -0.04030221 0.16745393
0000c0 05 2f 89 3e c6 60 a5 be 4c d6 f7 bd e8 2f 4d 3e
       0.26793686 -0.32300395 -0.12101421 0.20037806
0000d0 eb b0 20 be 9c 5a 1a be e1 28 31 bd 95 91 f5 bc
       -0.15692489 -0.15073627 -0.043251876 -0.029976645
0000e0 4e e4 dd bd 08 11 d4 3d 78 e8 94 bb fc 02 bd bd
       -0.10834561 0.10354811 -0.004544314 -0.09229085
0000f0 9d e7 2c 3d af d3 db bd 4a 13 8f bd 29 d2 bd be
       0.04221307 -0.10733735 -0.06986101 -0.37074402

l3.weight f4 [1, 64]
000000 aa 23 9a 3f 58 9c f6 3e 3e ae 5e 40 89 94 e0 3e
       1.2042134 0.48166156 3.479385 0.43863323
000010 fd 73 29 3e 6c db 0a 3f 4f b9 13 3c 6c a8 d1 3e
       0.16548152 0.5424106 0.009016349 0.40948808
000020 80 98 d6 40 53 0e 09 c1 4b 0c 28 40 0b 45 02 c0
       6.7061157 -8.565997 2.6257503 -2.035464
000030 df 8c b8 bd ae 10 7d bf 0e 85 77 3f 2f a2 0c 3f
       -0.09011244 -0.98853576 0.966874 0.5493497
000040 d4 63 ac bf 7f eb fa 3e 60 14 55 3d 57 d6 35 3f
       -1.3467965 0.49007794 0.052021384 0.7103018
000050 11 a4 12 bb ec 43 3b 3f 74 cc ff 3e 94 39 e6 3e
       -0.0022375623 0.73150516 0.49960673 0.44965804
000060 64 e6 1b c0 9b be 15 c1 9b 9b c4 3f 5f 7a 84 40
       -2.435937 -9.359035 1.5359987 4.139938
000070 b3 ec be 3d c3 6e 16 3f 9d d8 34 c1 0b 81 0c 3f
       0.093224905 0.5876276 -11.302884 0.54884404
000080 f7 e3 1f 40 94 cf 5e bf 1f 60 f3 3e 88 db 50 bf
       2.4982889 -0.8703549 0.47534272 -0.8158498
000090 ad 5f 37 3f be bc 84 bf 70 fe 6f 40 62 e7 f5 3d
       0.71630365 -1.03701 3.7499046 0.120070234
0000a0 ef aa 95 40 ea 2d ee bf 75 9b 68 bf 5e 72 42 3f
       4.677116 -1.8607762 -0.9086221 0.7595576
0000b0 75 60 07 bd 03 16 3f 3e fd a2 17 c0 63 98 26 3f
       -0.033050973 0.1866074 -2.369323 0.65076274
0000c0 68 f1 3e 40 24 dc 3f c0 5c 93 80 3f d9 12 cd 3d
       2.9834843 -2.9978113 1.004497 0.100133605
0000d0 1b ba f8 3e 45 1e cd c0 8b 4e b7 3f ba d7 93 3e
       0.48579487 -6.409945 1.4320844 0.28875524
0000e0 d7 e9 8a bf 51 3d 53 bf 10 a0 89 c0 46 7d e2 bd
       -1.0852612 -0.82515436 -4.300789 -0.1105905
0000f0 53 26 5b 40 1d c9 85 3f ed 88 ee 3f 2f a4 27 40
       3.4242141 1.0452 1.8635536 2.619396
