examples/experiments/experiment_20/critic55_3.pth (torch, 37463 bytes, 5 tensors)

l1.weight f4 [64, 72]
00000000: 83b3 8ebd 80f3 de3d 4a94 b9bd fa13 d03d
00000010: 70aa 9f3c 56c0 cb3d 8e74 063d e79c ba3d
00000020: a94d fabd 3307 ddbc 2d22 46bd 3794 323c
00000030: d0fc 783d 090e 2a3d 0d94 013d 3a9b 7dbd
00000040: 7607 abbd 9722 3c3d ae80 50bd 751e d43b
00000050: 9e63 fdbc 562d 97bc 05df ab3d 7d86 edbc
00000060: 12d0 803d 78c6 9d3d 481a 84bd efc3 14bd
00000070: cb1e 4bbd 8e94 203d ac67 76bd 51d5 123c
00000080: 373e 9eb9 1b3c 84bc f4e8 a7bd f746 ecbc
00000090: 023c f13c 9db7 c2bd 738a 9cbd 3880 593c
000000a0: 2f88 9b3d 27e1 cb3c 5e96 83bc d798 85bd
000000b0: 6af3 003d b51a e13c d443 c13d 40dc 84bd
000000c0: 25e5 01be 8177 183d f435 d1bd 5d74 0e3c
000000d0: db6a 9fbb 9086 a0bd 5b8b 083d 6342 db3d
000000e0: 4826 553d 520d b93d 9fa4 92bd d209 44bc
000000f0: f194 bebd 3d36 543d 0a46 09bc 4acf a63c
00000100: bcf7 23bd 5cf3 43bd f468 0e3d 1893 1a3d
00000110: 6152 60bd 3b86 cdbd c937 e83d 2f23 c13d
00000120: e9a2 a63d 11a7 86bd 3882 1f3d bd87 fdbd
00000130: 56a4 a7be b3d5 1f3e a550 c639 52f0 8e3d
00000140: 110d 863d a59e 7cbf e6e5 81be db76 b3be
00000150: 0a31 d13c 2f1d e1be 1003 ad3d fea1 0bbf
00000160: 96e9 063e e3e9 f3bd 167d 52bd 9c2c 55bd
00000170: 2176 43be 0a95 d6be be83 f9bd 4e06 9b3d
00000180: cd9d afbc 5734 583e 175f e1bd 9108 abbc
00000190: 205f 78bc 814d 6ebc 11b1 abbd 6991 fd3b
000001a0: 3496 abbc dc4c 0dbe 2915 8b3d 28a8 aebd
000001b0: 1694 5d3d 310a 85bd 4f30 a83d 30a1 5b3e
000001c0: fa59 433d 0a2c 2cbe 2b12 d7be 5ec0 a73e
000001d0: 831b 32bd b330 1abd 3a6c 0f3d 83b7 8e3c
000001e0: 8053 aa3d 4c70 51bf 5a86 5d3f 33d9 21be
000001f0: 5205 2c3e b982 18bf 8bde d63e dbdf ddba
00000200: eaee f13d 3b37 8e3f 4d81 5d3f 90fa 273e
00000210: 6edf 72bf 0d20 943f 0d3c c4bf 3198 0cc0
00000220: 0e50 4bbd c77e 2a3f a1bc 9d40 fb6d 84c0
00000230: 3451 893e 287c ef3c 4c3c 52be 12dd d3be
00000240: b87d c7be 72b1 adbd a4e2 fc3c 41ae ec3c
00000250: 96c0 d8bc d825 833d 9314 2f3e f727 1bbe
00000260: 24a1 553e 26ce 4cbc d661 2b40 0466 913d
00000270: 86be d2bd 10e8 f2bb ff35 933d 5542 093e
00000280: 7a53 f1bc 868f 573e d20a 41be 8114 4fbd
00000290: 0b02 3f3d d3b1 053f eec4 e2bc e5ed 383c
000002a0: e85e 44bc 2b19 1abd 9f0f 4e3d 6297 9abd
000002b0: 7266 1dbd c091 8dbd 2366 4e3d e250 033d
000002c0: 2528 1c3d 79f9 fe3c 7f8f 2d3f af62 033d
000002d0: cb39 083e 260a 95be c79b 163e 8880 cebc
000002e0: c2da acbc 39fa e9bb a21a 773d 4c3d 923e
000002f0: 5829 093e 9335 263d d3e4 11bd 3ff0 a6bc
00000300: 6323 b53d 2121 9c3e fac9 66be 3d98 183f
00000310: f9c8 5a3e 15e8 003d 8e29 30be c6f8 abbe
00000320: c4f9 d9be 8fe5 5ebe c0a3 15c0 2ca1 56be
00000330: 2925 85bf e88a 4040 8252 bbbf dcb7 563e
00000340: 39a2 133e da83 fe3e 515b 03bf 1226 51c0
00000350: ce68 6abf d91f 11bd 20b0 893d 8c79 763d
00000360: 9ecc 42bf 6bbd a23e a0ff 313e 9274 cbbe
00000370: 3592 523d d9f5 c3be 106f 083f c036 8dbc
00000380: a03d 833d 9b80 b2bd 5604 11bf 47b0 acbe
00000390: aae7 18bf e743 24bf 7a3e aa3e 6174 6dbe
000003a0: 1413 ed3e f9ba 9dbe f34b 513f 487f 1abf
000003b0: b47b eebe 81c7 243f f421 d9bc 027a 0ebe
000003c0: be89 33bc 1ea3 193d a71d 313e c426 2cbb
000003d0: 078b 0b3c 3888 bd3b 4534 d23b 6a8e 62bd
000003e0: 81a3 343d 765b 80bc ed02 c93c 914a bf3d
000003f0: 7752 b7bc d68c 7dbd c2aa afbc d3cb 993d
-0.06967833 0.10886288 -0.09061487 0.1016006 0.01949045 0.099487945 0.032826 0.09111958
-0.12221844 -0.026980972 -0.048372436 0.010899595 0.060787976 0.04151729 0.031635333 -0.061915614
-0.083510324 0.045931425 -0.05090397 0.0064733573 -0.03093129 -0.018454235 0.08392147 -0.028994793
0.06289686 0.077038705 -0.06450325 -0.03631967 -0.049589913 0.039204173 -0.060157463 0.008961991
-0.00030182462 -0.016141942 -0.08198729 -0.028842432 0.02944756 -0.09507678 -0.076435946 0.013275199
0.07594334 0.024887634 -0.016062912 -0.065232925 0.031482138 0.027478555 0.09436765 -0.06487322
-0.12685068 0.037223343 -0.10215369 0.008694735 -0.004865033 -0.07838166 0.033336025 0.10706022
0.05203846 0.09035744 -0.07160305 -0.011965232 -0.09305752 0.05180954 -0.008378515 0.020362515
-0.04003118 -0.047839507 0.03476806 0.037737936 -0.054766063 -0.10035368 0.11338765 0.09430539
0.081365414 -0.06574834 0.038942546 -0.12379406 -0.32742566 0.15608864 0.00037825588 0.06979431
0.06545461 -0.9867957 -0.2537071 -0.35051617 0.025536079 -0.43967578 0.0844785 -0.54544055
0.13175043 -0.11909845 -0.051388822 -0.052044496 -0.19088031 -0.41910583 -0.12183331 0.07569562
-0.02143755 0.21113716 -0.11004465 -0.020878108 -0.015159398 -0.014544846 -0.08383382 0.0077382815
-0.020945646 -0.13798851 0.06791145 -0.08528167 0.054096304 -0.064960845 0.08212339 0.21448207
0.04769323 -0.16813675 -0.4200605 0.32763952 -0.04348327 -0.0376441 0.035015322 0.01742149
0.083167076 -0.81811976 0.8653313 -0.15805511 0.16798905 -0.59574467 0.41966662 -0.0016927676
0.11813147 1.1110605 0.8652542 0.16404176 -0.94872177 1.1572281 -1.5330826 -2.196789
-0.049636893 0.66599697 4.929276 -4.1384254 0.26819766 0.029234007 -0.20530814 -0.413796
-0.38963103 -0.08481111 0.03086979 0.028891684 -0.02645902 0.064037025 0.17097692 -0.15151964
0.20862252 -0.0125003215 2.6778464 0.07099536 -0.10290246 -0.007412918 0.07188033 0.1340421
-0.02945875 0.21050844 -0.18851784 -0.050556663 0.046632808 0.52224463 -0.027681794 0.011287187
-0.011985518 -0.03762166 0.050307866 -0.07548405 -0.038427778 -0.06912565 0.050390374 0.032059558
0.038124222 0.031124817 0.6779708 0.032076534 0.13303296 -0.29109305 0.14707862 -0.025207773
-0.021100406 -0.0071404246 0.060328133 0.2856239 0.13394678 0.040578436 -0.035618614 -0.02037823
0.0884464 0.30494025 -0.22537985 0.596073 0.21365727 0.03147133 -0.17203352 -0.33588237
-0.4257337 -0.21767257 -2.3381195 -0.2095992 -1.0401965 3.0084782 -1.4634554 0.20968574
0.14417352 0.4970997 -0.5131121 -3.2679486 -0.9156617 -0.035430763 0.06723046 0.06017451
-0.7609347 0.3178514 0.1738267 -0.39737374 0.051408965 -0.38273504 0.5329447 -0.01723802
0.064082384 -0.08715936 -0.5664724 -0.3372824 -0.5972849 -0.6416611 0.3325079 -0.23188926
0.46303618 -0.3080671 0.81756514 -0.60350466 -0.46578753 0.6436692 -0.026505448 -0.1391373
-0.010958133 0.037509076 0.17296468 -0.0026268223 0.008517033 0.005784061 0.0064149224 -0.055311598
0.044101242 -0.015668612 0.024537528 0.09340394 -0.02237819 -0.06190189 -0.021443728 0.075095795

l1.bias f4 [64]
00000000: 9d51 f8bd 8257 733e 9dba 343d 7bfd a03d
00000010: 615d 0b3e 3b52 9f3b 0981 5fba 37ac 8c3d
00000020: f532 9d3d 43c3 8bbd 0693 003b 311b 0d3d
00000030: bcbc 0abd fd27 b53c e38a fc3d 290f 153e
00000040: bf4a ec3d 3542 bcba 50b3 d5bb 9432 1b3e
00000050: 8c69 18be 6acf 02be 362b d83a 3835 ef3a
00000060: 98b6 ebbd 4da5 063b c949 363e 9610 efbd
00000070: 1dbe e23c 028b 01be 60ef 27bc d3fc 33bb
00000080: 8433 03be 3920 5dbe 4824 66bd 5b80 a43d
00000090: 36bb 16be 3321 7e3e 2063 563e f39d 09bb
000000a0: 90c9 0c3e b42e b7bb 0a05 aebd 8539 78bc
000000b0: e56d b03b e4b4 1a3e 1f4e 413e 669f 89bb
000000c0: 730e 463e e2f3 9abb 5030 88be 256d 11bb
000000d0: 577a 1c3d 27f2 193e b764 8dbb 0609 923d
000000e0: e0f8 093e 5917 1f3e f728 bf3c bf11 e539
000000f0: 38c6 d03c 66ff 63bc bcdf 9c3d 8b79 ad3e
-0.121249415 0.2376385 0.04412328 0.078608476 0.1360984 0.0048620976 -0.00085260026 0.06868785
0.07675735 -0.068243526 0.0019618883 0.03444976 -0.033871397 0.022113794 0.12331178 0.14556564
0.11537694 -0.0014362993 -0.00652162 0.15156013 -0.14884013 -0.12774435 0.001649237 0.0018250113
-0.11509436 0.0020545304 0.17801584 -0.116730854 0.027678544 -0.12650684 -0.010249943 -0.0027463927
-0.1281262 -0.21594323 -0.056186944 0.08032294 -0.14719853 0.24817352 0.2093625 -0.0020998686
0.13748765 -0.0055902842 -0.08497055 -0.0151504325 0.005384194 0.15108067 0.18877457 -0.00419991
0.1934145 -0.00472878 -0.2659936 -0.00221903 0.03820261 0.1503378 -0.0043149847 0.07130627
0.13473845 0.1553625 0.023334963 0.00043691506 0.025485143 -0.013915872 0.076598614 0.33881792

l2.weight f4 [64, 64]
00000000: fa17 9b3d be0c e13c cbf0 853e 8bf3 61bd
00000010: ef5e 66bd e742 6b3d 8860 013c 29ab 643e
00000020: bd83 86be 5424 7dbe 6d39 ec3d 595d b63d
00000030: d5ad 8e3e 1578 443d b2f7 d63d 95b9 753e
00000040: ef82 45be c16e 3cbd bceb a8be 724d 813e
00000050: 878f a83d 7bcb 7abe 8c60 083e dc3b e3bd
00000060: c091 efbd 2b81 603d 01da ccbe 1028 573c
00000070: d1ca 873e ff4d ecbe 0033 9e3e b766 123d
00000080: bd84 1a3e 7fa2 96bf 8c88 f73e ebe3 ad3c
00000090: 866c 493f 9dda 0b3e 1101 97bc 3f7f 783e
000000a0: 8dab b63e 6ccf f33d 5c42 223d b80b a43e
000000b0: 467f 1bbd 6795 d7bd 9fd7 d53e fbb8 7ebd
000000c0: 1cb2 bcbe e96e a23e b08a 643f c5a7 a1bd
000000d0: 4011 96be 1149 7dbe ad9b 55bc df85 463e
000000e0: 8002 803e c34a 2a3f c277 6a3e b3ad ed3c
000000f0: afa7 673e af59 dcbc 919b b0bd 1bdc e23e
00000100: 95f9 b1bb 983f 5e3d 6182 933c 6eb4 8a3e
00000110: 3811 b83d 7942 563d 2963 9c3d 0c96 d6bd
00000120: c69c 403c bca1 103e aaa5 ecbe b248 88bd
00000130: b0f4 fe3e 2044 913e fb7c 50bc 555c a53d
00000140: 3b15 1c3e 5fc3 0abe e56d b13e 4380 af3d
00000150: 578c d63e c4cb d53e 111c b0bd 1b9b d2be
00000160: 7882 ebbd b500 903d 667d 12bd ba8a 753d
00000170: a3e2 0c3e 4df0 d33e 340b d73c 2bc2 4e3d
00000180: 3881 803e b4a2 73c0 e5e0 a93d 4a4b 11be
00000190: 7b92 1b3f 58f6 efbd 7537 1b3e 8b57 1dbe
000001a0: 9060 893d 935d 113e b01e bdbc c591 053e
000001b0: 1003 d5bd 9e9c 37bd cb31 803d 75c9 33bd
000001c0: f02b fe3d b639 b3bd dc0d 313f 3517 d33e
000001d0: 8698 ae3e b318 4bbe 9280 5f3e 3555 b0bd
000001e0: b745 073f 9f32 283f 7fbe 09bd 1207 9cbe
000001f0: 790b 583c ad18 4b3d 2f08 f0bd 17b9 363f
00000200: cccc b2bd fe82 1fbc 2037 803d e2cd babd
00000210: 917d d93b 82b5 01bc 1e02 f4bb 260e b1bd
00000220: 0620 dd3c 9e28 b53d b809 a93c 3b00 5bbd
00000230: fe5c c0bc 92f6 84bc bd51 b9bc 1187 f33c
00000240: d2a7 483d f37d a4bd 0053 063c c9c2 f7bd
00000250: 4071 fabd 5f65 af3d 6819 94bc b64a 88bd
00000260: ccf7 48bd de68 77bd b02e a0bd 02a8 953d
00000270: 9898 d3bc cfeb bbbc a858 e1bd b020 88bc
00000280: 00ba 223d 47bf c43c dae5 c03c b818 7b3d
00000290: 1ace f43d e231 fcbd 2cf8 f1bd 0768 c8bd
000002a0: 6a15 33bd d028 a6bd 741d 4dbd 6982 b63c
000002b0: d27c 46bd e515 fe3c 7bb5 f1bd 030b 673d
000002c0: 9188 bc3d 1601 2d3d f21c dbbb cc5e 95bd
000002d0: d16c a4bd 246b d33a 3ae8 293d bc7a afba
000002e0: 3fe3 9a3d d6c1 a23d b5a5 e1bd ca46 d1bd
000002f0: ff19 24bc 8a18 d73d 89da 47bc 602e 71bd
00000300: 3cef 43bd 1de8 8bbc 714b 753d 9d5a 16bd
00000310: 5835 e8bd 2c27 af3c fbb2 8e3d 9540 24bd
00000320: 558a 48bf 2c40 9abd d9e0 88bd 0a5e 1a3d
00000330: 5ccf 3fbe 2f68 e6bd 4f12 19be f120 383e
00000340: 3df3 b8bd a9a0 cd3e 0091 d23d 59f6 94be
00000350: 0bc5 12be 399d 7bbd 1d7b 52bd dea1 1d3e
00000360: 2819 eebd eb59 16be 6af6 233e 084d 113d
00000370: ae4e 94bc 2fd4 dd3c 6922 563e beba 803d
00000380: 5981 77be 9096 f83f c2a0 d5bc a09a b63d
00000390: c6ac 38be 5b0b 7dbf 376c 253f 7506 853d
000003a0: 8a95 3d3d ab48 8f3e c888 a83d ee5a 3e3c
000003b0: 74f9 7c3d de60 673f 04dc 53be 620a c9bb
000003c0: 1d77 25bd b6ef 40bd 3287 3f3e 16ed 893f
000003d0: 187a 62be 9100 eb3e 3a8f 0e3e eee1 29bd
000003e0: 0256 5bbb 4e4b 14be cfc7 9e3d eaba 0abd
000003f0: 79c6 dabe 4bdb e4bc aea7 223e 0349 4c3e
0.075729325 0.027471896 0.26160273 -0.0551639 -0.05624288 0.05743685 0.00789655 0.22330917
-0.26272383 -0.2472089 0.115343906 0.089045234 0.27866998 0.04796608 0.10496463 0.23996575
-0.19288228 -0.04600406 -0.3299235 0.252544 0.08230501 -0.24491684 0.1331808 -0.11095402
-0.116977215 0.054810684 -0.40010074 0.01313211 0.26521924 -0.46153256 0.30898285 0.035742488
0.15089698 -1.176834 0.48346364 0.021226844 0.7868122 0.13657613 -0.018433126 0.2426729
0.35677758 0.11904797 0.039614066 0.3204019 -0.037963174 -0.10526543 0.41766068 -0.06218813
-0.36854637 0.31725243 0.8927412 -0.078933276 -0.29310036 -0.24734904 -0.013037604 0.19387005
0.25001907 0.6652033 0.22897246 0.02901349 0.2262256 -0.026898233 -0.08623422 0.44308552
-0.005431364 0.054259866 0.018006505 0.27090782 0.08987659 0.052309487 0.07636101 -0.10477838
0.011756128 0.14124197 -0.46220142 -0.066544905 0.49796057 0.28372288 -0.01272511 0.080742516
0.15242474 -0.1355109 0.34654155 0.08569386 0.41903946 0.41757023 -0.08599103 -0.4113396
-0.11499494 0.07031385 -0.03576412 0.059946753 0.1375833 0.41394272 0.02625046 0.05047814
0.25098586 -3.8068056 0.08294848 -0.14188877 0.60770386 -0.11716908 0.15157874 -0.15365426
0.06707871 0.14195852 -0.023085922 0.13043888 -0.10400975 -0.044827096 0.06259497 -0.043893296
0.12410724 -0.08751242 0.6916177 0.41228643 0.3410074 -0.19833641 0.2182639 -0.08610002
0.5284075 0.6570224 -0.033628937 -0.30474144 0.013186329 0.04958408 -0.11720311 0.71376175
-0.08730468 -0.009735821 0.06260514 -0.091213 0.006637283 -0.00791681 -0.0074465415 -0.08645277
0.026992809 0.08845638 0.020634517 -0.053467017 -0.023481842 -0.016230855 -0.022621984 0.02972749
0.04898817 -0.080318354 0.0081985 -0.12097699 -0.12228632 0.08564257 -0.01807852 -0.06654875
-0.049064443 -0.060402744 -0.07821405 0.073074356 -0.025829598 -0.02293959 -0.11003238 -0.01661715
0.039728165 0.02401699 0.023547102 0.06130287 0.11953373 -0.12314202 -0.11814913 -0.09785467
-0.043721594 -0.08113253 -0.050076917 0.022278981 -0.04845888 0.0310163 -0.11802193 0.056406986
0.092057355 0.042237364 -0.0066868 -0.07293472 -0.080285676 0.0016129953 0.041481234 -0.0013388018
0.07562875 0.079471275 -0.11017934 -0.1021858 -0.010015964 0.10502727 -0.012198099 -0.058882117
-0.047835574 -0.017078454 0.0598864 -0.03670751 -0.113382995 0.021380983 0.069677316 -0.040100653
-0.7833608 -0.07531771 -0.06683511 0.03768734 -0.18731445 -0.1125034 -0.1494839 0.17981316
-0.09030769 0.40161636 0.10281563 -0.29094198 -0.14332978 -0.061429236 -0.05138694 0.15393779
-0.11625892 -0.14682738 0.16011968 0.035473853 -0.018103924 0.027078716 0.20911564 0.06285618
-0.24170436 1.9420948 -0.026077632 0.08916211 -0.18034658 -0.9884545 0.6461825 0.06495372
0.04628519 0.2798513 0.08229214 0.011618359 0.061761335 0.9038218 -0.20689398 -0.006135271
-0.0403968 -0.047103606 0.18703917 1.0775478 -0.22116888 0.4589887 0.13921824 -0.04147523
-0.0033468013 -0.14481851 0.07752954 -0.03386966 -0.42729548 -0.027936598 0.15884277 0.19949727

l2.bias f4 [64]
00000000: d9ea a7be 6b71 1dbd 72d6 b5bd 813e 34be
00000010: 2932 f7bd 1ff2 c33e a0ad a4be 12d7 f4b9
00000020: d109 513d 08c8 9dbd 25a2 723e 9013 9fbd
00000030: 49ce 363e 5ce2 313e 91b5 243e 0c53 323d
00000040: 26fd 993d 5c29 c8be f008 50be fd48 8f3d
00000050: 0c46 533c c6df 8cbd 42ba 903d 8eb5 bd3d
00000060: d5cc eb3d d0b3 413e 5012 c53d d1fe 14be
00000070: 291f 833d 68df 293e c378 723e 9005 433e
00000080: 1424 f6bd 561f df3d de7e 3d3e 265e ea3e
00000090: 8b2a 793e fb5f 8c3e 22a9 38bc 9e9e 3ebe
000000a0: 80d1 6e3c f329 afbe ae7a ccbd d848 59be
000000b0: 331a c63d efe9 223c c538 3fbd 28e8 9bbe
000000c0: 1575 273e bd9e fcbd 9764 d73d bbc0 313d
000000d0: 85f8 fbbe c448 b63d 023c 2ebe 6e10 323d
000000e0: 1598 103d a364 e6bd ce1b e63d e667 533e
000000f0: 31ac ff3d 56d7 a0bd b72c 86bd c3c0 2fbe
-0.32796362 -0.038438242 -0.08878793 -0.17601968 -0.12070114 0.3827066 -0.32163715 -0.00046699547
0.051034752 -0.077041686 0.23694666 -0.07767403 0.17852129 0.17371505 0.16084887 0.04353623
0.07518987 -0.39094055 -0.2031591 0.06996343 0.012895118 -0.06878619 0.07066776 0.092631444
0.11513678 0.1891625 0.096226335 -0.1455033 0.06402428 0.16589129 0.2367888 0.1904509
-0.120186 0.10894649 0.18505427 0.45774955 0.24332635 0.27416977 -0.011270793 -0.18615195
0.014576316 -0.34211692 -0.09984337 -0.21219194 0.09672966 0.009943469 -0.046685 -0.3045056
0.16353257 -0.123349644 0.10517233 0.043396693 -0.49213043 0.08900598 -0.17015079 0.0434727
0.035301287 -0.11249664 0.11235772 0.20645103 0.12484015 -0.07853572 -0.065514974 -0.17163377

l3.weight f4 [1, 64]
00000000: 3b13 59bf 8487 8f3d 872c c7bc 60e5 0f40
00000010: 3f2b 2cbf e5c3 63c1 7347 8fbf fa35 8a3e
00000020: 4443 f1c0 2d26 e4c0 18e3 4fbf 49f5 ccbf
00000030: d43b 61bf 06ea d2bf 7eed 0b3e 6e8b b840
00000040: 9995 d2be 4773 8fc1 0663 06c1 a5f0 643e
00000050: ddc6 283f 17ef febe 3671 013f b328 21bf
00000060: 00c6 173f fcf7 2bc0 6ec1 af3f 424f 3fc0
00000070: 4057 463e 9658 4b3f 3016 5240 4ec8 483e
00000080: 2830 d3bc 02f0 a040 0890 f4bf 13b0 87bf
00000090: 08a5 be3f 0f06 8740 0471 af3d 83dd 13bf
000000a0: 7128 6d3f d873 5ec1 3443 febc 0f05 f1c0
000000b0: d0bf 1c3f 1c3d 38c0 bd19 0ac0 78fe 10c1
000000c0: 3798 3f40 1efe d2bf 7188 6b3e 465e ed3e
000000d0: ae64 ea40 6cb5 b13f 99ea cbbf 06c0 3abf
000000e0: 9fad cf3f e3f1 1dbf bcc1 1a3e ec86 1740
000000f0: 74df 3140 400b 87bd f796 2040 c25c 36bf
-0.8479497 0.070082694 -0.024313224 2.248375 -0.6725349 -14.235326 -1.119368 0.26994306
-7.539461 -7.12966 -0.8120589 -1.6012355 -0.87981915 -1.6477668 0.13664815 5.76702
-0.4112976 -17.931288 -8.399176 0.22357424 0.6592844 -0.49791786 0.5056337 -0.6295273
0.592865 -2.6870108 1.3730905 -2.9892125 0.1936922 0.79432046 3.2826042 0.1960766
-0.025779799 5.029298 -1.9106455 -1.0600609 1.4894114 4.2194896 0.08566478 -0.57759875
0.92639834 -13.903282 -0.031037904 -7.5318675 0.6123018 -2.8787298 -2.157821 -9.062126
2.9936655 -1.64838 0.23001267 0.46360987 7.32479 1.388349 -1.5930969 -0.72949255
1.622486 -0.61697215 0.15112966 2.36761 2.7792635 -0.06593943 2.5092142 -0.7123529
