examples/experiments/experiment_20/critic41_7.pth (torch, 37463 bytes, 5 tensors)

l1.weight f4 [64, 72]
000000 58 95 c5 bd 33 2b 26 3d 2c d2 01 3e 54 62 38 bd
       -0.09647626 0.04056854 0.1267783 -0.045015648
000010 75 b6 95 3d eb e0 f4 bc 57 d3 be be 0a 53 47 3d
       0.073101915 -0.029892405 -0.37270615 0.048663177
000020 18 61 6f 3d ec 89 3f bf d9 22 b3 ba 3b 75 42 bd
       0.058442205 -0.7481983 -0.0013667002 -0.04747508
000030 ed 84 c6 3d 11 1d 82 ba f1 2c 24 3e fa c8 31 be
       0.09693322 -0.0009926875 0.16032769 -0.17361823
000040 3f e3 ac 3e 6b 66 c0 bc b9 3b a8 be 94 69 39 3e
       0.33767125 -0.023486337 -0.32858065 0.18106681
000050 74 7a 4c bd 2f 5e 91 bd 5e 38 5a 3d 46 a6 67 be
       -0.049921468 -0.07098042 0.053276412 -0.22622022
000060 4a b8 fe bd 55 6b 61 3d 92 9f e4 3d a3 67 49 bd
       -0.12437494 0.055034 0.11163248 -0.0491711
000070 dc ca 0c 3e 4e de f2 3d e2 02 1b be e2 5e 71 3d
       0.1374926 0.118588075 -0.15137818 0.058928378
000080 4e a7 e7 bc 32 79 ea bd 5e c1 57 3e e0 a0 b4 bb
       -0.02827802 -0.114488974 0.21069857 -0.005512342
000090 e4 e8 70 be 68 eb 5b 3e a8 f2 9b bd a3 ba 5e 3d
       -0.2352634 0.21476519 -0.076146424 0.05437721
0000a0 2d 6b cc bd 21 62 93 3d 33 b7 aa 3c f5 45 86 3d
       -0.0998138 0.07196451 0.02083931 0.06556312
0000b0 ea 2c a1 bd 95 0e cc 3d 2f 62 7b 3e 9b f1 17 bf
       -0.07869895 0.09963719 0.24549173 -0.59353036
0000c0 bc 43 3d 3e 72 f3 ce be cb 75 06 bf ff 32 d5 bc
       0.1848287 -0.4042011 -0.5252349 -0.026025293
0000d0 d1 41 52 bf 29 41 25 bf 6a d1 04 3f 34 e9 fd be
       -0.8213168 -0.6455255 0.5188204 -0.49591982
0000e0 28 66 e7 3e 5e e2 d6 3e 15 15 85 bf 62 35 41 3d
       0.45195127 0.4196958 -1.0397059 0.04717005
0000f0 05 a2 96 3f 40 5f 93 bf 04 41 7d 3e c9 9d 22 bf
       1.1768194 -1.1513443 0.24731833 -0.6352201
000100 e3 87 77 3f 5e a4 9c be f0 f9 76 bd cc 5f c8 be
       0.9669172 -0.30594152 -0.060296953 -0.39135587
000110 93 c7 06 3f b6 7d b6 be b0 7e 87 bf 69 6c 01 40
       0.52648276 -0.35642785 -1.0585537 2.0222418
000120 83 0b 81 3d ca 88 50 be 30 6a 16 bd e3 fa 9a 3e
       0.06301024 -0.20364681 -0.036722362 0.30269536
000130 a0 e1 c6 3e e8 e6 51 be f9 13 fe bc e5 b7 35 3d
       0.38844013 -0.2049824 -0.031015383 0.04436483
000140 07 36 9f bd 97 23 13 3f 78 06 47 be 0d cb 7e 3b
       -0.07773977 0.5747618 -0.19436061 0.0038878352
000150 6d a4 a4 3f a3 a6 d4 3d 3f 62 0a 3f 1c 31 e2 3e
       1.2862679 0.10383346 0.5405616 0.44178092
000160 dd c9 94 bc d3 d4 7b be 23 28 95 3f e4 5b 16 3f
       -0.018162662 -0.24592905 1.1652874 0.58733964
000170 13 5d 1a 3f 65 d3 7a 3d 35 cd c1 be d2 41 6d be
       0.6029827 0.061236758 -0.37851873 -0.2316964
000180 8d 61 d0 3d d3 37 a5 bd ca 6b 81 bd dd f9 d2 3c
       0.10174856 -0.08067288 -0.06319387 0.02575391
000190 20 36 ea 3c 24 49 1d bb 62 ea 07 3e ea a4 2f 3d
       0.028590262 -0.0023999894 0.13273004 0.042881884
0001a0 3f b2 7e bd f0 dd b5 3d 7c e1 9c bd 15 bc 66 3d
       -0.062181707 0.08880222 -0.07660195 0.056331713
0001b0 0a 3d f0 3d 24 f2 9a 3d 1f da 8a 3d a5 a2 54 3d
       0.11730392 0.07565716 0.067798845 0.051912922
0001c0 97 7e cd 3c 8e eb d0 3b a9 68 99 3c fe 3b 13 3d
       0.025084777 0.0063757366 0.018726664 0.035945885
0001d0 e9 03 0f bd 9f 71 c9 3d 4e 16 da bd 8c f5 d4 bd
       -0.03491584 0.09836125 -0.106487855 -0.10398397
0001e0 46 a4 f3 be 11 d5 22 bf 51 ad a0 3d cc 72 f6 bd
       -0.47586268 -0.63606364 0.078455575 -0.120336145
0001f0 24 99 5d 3e 4f 16 26 3e 13 30 10 be a5 7d 38 3e
       0.2164045 0.16219448 -0.14080839 0.1801668
000200 52 5b c2 3c 7b 5b 78 3f f6 21 5d 3d 1e cc 50 be
       0.023725186 0.9701459 0.053987466 -0.20390365
000210 6e cd c3 3e 18 bf ed bc f0 f0 27 be 89 9b 71 3f
       0.38242668 -0.029021785 -0.16400504 0.9437795
000220 0f e5 18 3f e1 09 85 bf ea 3c b8 3f 23 0b 0b 3d
       0.59724516 -1.039364 1.439359 0.033946168
000230 c0 a7 b5 3e e1 b3 16 bf cc 11 d8 3e f7 b5 2b 3f
       0.35479546 -0.58868223 0.42201078 0.6707453
000240 5e 17 e1 3c 2e 1f b0 3b 2c db 60 ba 4e 1d 5d bb
       0.027476963 0.0053748107 -0.0008577581 -0.003373939
000250 27 64 58 3b 19 47 9e ba a9 12 c0 bb e7 95 bd 3b
       0.003301868 -0.0012075632 -0.0058615995 0.005785692
000260 0a 3b 73 bb 48 39 79 3b b9 6c 43 bc 7a 5d a0 3b
       -0.0037114047 0.0038028527 -0.011927777 0.004893956
000270 dc 52 a5 3c af c5 06 bb 0e 45 05 3c db e0 52 bc
       0.020181112 -0.0020564606 0.00813414 -0.0128709925
000280 04 7f 78 3b aa a6 d0 39 44 9d 96 bb 4c 3c 46 bb
       0.0037917504 0.00039797026 -0.0045963842 -0.0030248342
000290 05 bb 99 3b 3d 45 e9 3b a4 72 46 3b e0 e1 81 3b
       0.004691484 0.0071188495 0.0030280733 0.003963694
0002a0 06 e2 e5 3b a6 17 0a ba 8a 9d 80 bb b4 2d 2c bb
       0.0070154695 -0.0005267806 -0.00392503 -0.0026272358
0002b0 15 06 ae 3a f9 05 30 ba ad 64 f3 bb 84 42 44 bb
       0.0013276959 -0.0006714757 -0.007427773 -0.0029946873
0002c0 76 d8 f5 b8 e7 39 e7 3e a1 02 ee be 2e de b7 3c
       -0.000117228294 0.45161363 -0.4648638 0.02244481
0002d0 bd a1 8a 3b 18 a1 1b 3b d8 af 20 3b 6b 8e b3 3a
       0.0042307065 0.0023747142 0.0024518874 0.001369906
0002e0 d9 e9 7f ba 32 9d 42 bb a4 c5 1c 3b b3 db 99 3a
       -0.0009762324 -0.0029695746 0.0023921514 0.0011738449
0002f0 f8 f6 24 3c cf 83 fe 3a 58 1c 08 3c e2 97 0d bc
       0.010068648 0.0019417944 0.008307539 -0.008642169
000300 76 ff 0c bc 1e 51 9d bb 56 73 26 3c 02 a5 47 bc
       -0.0086058285 -0.0048009297 0.010159334 -0.012185337
000310 ba dd bf 3a 88 a2 7f ba 4d 61 c0 bb 55 18 8f bc
       0.0014638223 -0.0009751697 -0.005870974 -0.017467657
000320 ac 61 4f bc 4f 9d 8b c0 5d da 8e 40 9a ac 9f be
       -0.012657564 -4.3629527 4.4641557 -0.31186372
000330 15 52 4c bc 2a 1e 73 3c 30 be 5f bc 1a f3 01 bc
       -0.012470742 0.014838735 -0.013656184 -0.007931495
000340 fa 3c ef 3b b7 ee 92 3b 88 4a 16 3a a8 67 60 bc
       0.00730097 0.0044840234 0.0005733152 -0.013696589
000350 15 43 16 3c 95 20 76 bb 4c 69 06 bc 64 0e 21 3c
       0.009171267 -0.0037556041 -0.008203816 0.009830091
000360 c3 44 5b 3e 5d a3 28 3e 11 33 89 3d 9f d0 1a bf
       0.2141295 0.16468568 0.06699193 -0.6047458
000370 f7 e4 bb be 59 a9 2b be 15 2e 95 bd d5 b3 d1 3e
       -0.36698124 -0.1676382 -0.0728418 0.40957513
000380 c0 4e 13 be 29 c7 a7 3b 32 d3 ca 3d b1 d4 d9 bd
       -0.1438551 0.0051201773 0.099035636 -0.10636271
000390 a9 f6 2b bf 9f cf 41 3e 37 e2 8c be 71 ea 4f be
       -0.6717325 0.18926857 -0.27516338 -0.20304276
0003a0 70 d3 ab 3e 0d 71 9a 3e 9e e7 1f bf 8b 2b 95 3e
       0.33559752 0.30164376 -0.62462795 0.29134783
0003b0 85 ed 3f bf 18 1c 59 3e d1 e3 3e be bd 15 62 3f
       -0.749718 0.21202123 -0.18641593 0.8831442
0003c0 96 12 4c 3c e3 4b e9 bb f7 5f 32 3c 14 0d 62 bd
       0.012455603 -0.007119642 0.010887138 -0.055188254
0003d0 3e 7c 78 3b 34 6e 4d 3d 73 01 dd bc 58 a1 3e bd
       0.003791585 0.050153926 -0.02697823 -0.04654059
0003e0 22 3b 30 ba 11 08 ec bc 0c a2 63 bd a9 6e 5c bc
       -0.00067226787 -0.02881244 -0.05557446 -0.013454118
0003f0 05 3b bb bd da 07 97 3d 16 43 82 bd 81 48 1a be
       -0.091421165 0.073745444 -0.06360452 -0.1506672

l1.bias f4 [64]
000000 28 3d 34 3d ab 19 85 be 0e 47 fc ba 8b 9a 3b 3d
       0.044003636 -0.25996146 -0.001924725 0.04580168
000010 ff 42 9e 3d b8 5a 8c 3d f4 e6 fa 38 c5 7b ca bd
       0.07727622 0.06853241 0.00011963947 -0.098868884
000020 5a a5 e4 3c 66 0d 7b 3a d3 f8 ed 3d b1 38 39 3e
       0.027910877 0.00095768867 0.11619725 0.18088032
000030 c0 55 df bd bd ed 53 3e aa 7a 2f bd 81 40 22 bc
       -0.109050274 0.20696159 -0.04284159 -0.009903074
000040 f8 fb 86 bd d0 31 ed ba 5e 20 e5 3d 3a 0d 7e bd
       -0.06591028 -0.001809651 0.11187814 -0.062024333
000050 db 4d 6e 3b c8 1f a2 3c 84 2d d5 3b 4d 28 58 3d
       0.0036362323 0.019790545 0.00650567 0.05277281
000060 2c d0 39 bd 58 5b 5b bd 3a 01 85 3d e9 ca e4 3d
       -0.045364544 -0.05355391 0.064943746 0.111715145
000070 83 ba ee bd 81 7f df 3c eb e7 d4 bd 15 2d 8a 3c
       -0.11656668 0.027282478 -0.10395797 0.0168672
000080 7c 90 c6 3d 79 29 ab 3d e8 a7 34 3e 18 fa 25 3e
       0.09695527 0.0835752 0.17642176 0.16208684
000090 b0 ae c7 3d 04 ae 72 3d cc 28 9a 3c b3 1f a1 3d
       0.09750116 0.059247985 0.018818282 0.07867374
0000a0 b3 ca 82 3d 0e dd bb 3b 23 29 19 3e 4a bc 87 3d
       0.06386318 0.005733139 0.14957099 0.0662771
0000b0 7a 7e 4e 3d 6f ca 01 3c 43 cb 22 3d c6 d7 15 3b
       0.050413586 0.007921799 0.039744627 0.0022864207
0000c0 8b 8e 1d 3e b0 e4 52 3d e1 32 20 3e 56 8a bc 3d
       0.15386407 0.051487625 0.15644409 0.09206073
0000d0 11 dd 6b 3c 09 21 d3 ba 83 f2 7a bd 4b ae 00 be
       0.014395968 -0.0016107868 -0.061266433 -0.12566487
0000e0 8f 6f 59 bd e1 02 3a 3b 8f 08 5e 3b 37 ab 0f 3d
       -0.053084906 0.0028383064 0.0033879613 0.035075393
0000f0 58 60 dd 3d 9f 5e 6e 3c 63 39 89 ba bb a8 69 bd
       0.10809392 0.014548927 -0.0010469373 -0.05704568

l2.weight f4 [64, 64]
000000 f9 20 b6 be 89 c0 2a 3f 92 22 8a bd ac 67 3b 3e
       -0.3557203 0.66700035 -0.06744875 0.18301266
000010 a9 ed b9 3c cd 48 e9 3e 48 b7 15 3c c7 4d 09 bd
       0.022696333 0.45563355 0.009137936 -0.03352144
000020 91 9c b4 bc a7 ff 41 3d 55 02 0e bf 22 7e 65 3e
       -0.022047313 0.04736295 -0.5547231 0.22411397
000030 76 f0 e3 3d 53 01 85 3e d9 3f de be 3f 6b 9f 3e
       0.11129849 0.25977573 -0.43408087 0.3113651
000040 a5 0b b2 3e 40 20 19 bd ab 46 23 3e 74 84 2e 3f
       0.3477451 -0.03738427 0.15944926 0.6817086
000050 fb 0f d0 bd 88 18 46 be 5c 62 6d 3e 40 08 5f 3e
       -0.10159298 -0.19345295 0.23182052 0.21780491
000060 f6 22 1f 3f 48 a3 ff bd df 09 63 be 3c bc de 3e
       0.6216272 -0.12482315 -0.22171734 0.43502986
000070 96 f2 85 bd 3e d7 17 be 24 ba a1 3d fb f7 63 be
       -0.0654041 -0.14828202 0.07896832 -0.22262566
000080 2f c2 57 3f 21 78 d1 3c ab 88 85 be db 79 1b 3e
       0.84280676 0.025569977 -0.26080832 0.15183203
000090 77 09 45 bf c1 64 0f be ae 32 d3 3d 2e e9 b9 3e
       -0.7696757 -0.14003278 0.10312401 0.36310714
0000a0 41 3f 2b bf 57 24 8e 3e 5d 7e f8 3e 43 90 77 be
       -0.6689339 0.277621 0.48533908 -0.24176125
0000b0 48 db 8e 3e a9 69 20 be 05 20 6a 3d 54 69 72 3c
       0.27901673 -0.15665306 0.057159442 0.01479562
0000c0 f0 8c bc be f3 fa d0 bd ab 9a 1a bf 1b f6 1d be
       -0.36826277 -0.10204115 -0.60392255 -0.15425913
0000d0 de a5 d5 3e d9 4e 45 be f3 2e 7c 3d 38 aa e8 3d
       0.4172811 -0.19268359 0.06156821 0.11360592
0000e0 9e 10 2e 3d 06 cf c0 ba ac 35 f7 bc a8 34 8f 3e
       0.042496316 -0.0014710135 -0.03017696 0.2796986
0000f0 55 7e 92 3d e2 f8 a5 3d 0a 25 16 3f 72 e8 14 3d
       0.07153002 0.08104111 0.5865027 0.03635449
000100 7e e4 43 bd fc 80 b4 bd 57 d2 9b bd 82 91 54 bd
       -0.04782533 -0.08813664 -0.076084785 -0.05189658
000110 3f 88 f7 bc 48 e1 d5 bd 0a a0 e6 bd 32 de c7 bd
       -0.030216334 -0.104433596 -0.11260994 -0.09759177
000120 43 6e 1c 3d e4 1d 07 3d fc 3e 57 3d 52 08 07 3d
       0.03819109 0.03298749 0.0525503 0.03296692
000130 e0 bc 9c bb 30 8b 29 bd 28 50 82 bd 52 08 d5 3c
       -0.004783258 -0.041392505 -0.06362945 0.026004944
000140 d8 6a b1 3d 69 1f dc bd 1e e4 9f 3d 58 af b7 bc
       0.08662957 -0.107481785 0.07807182 -0.022422478
000150 17 ce 7a bc 19 24 26 bd 78 b0 b4 3d 09 c1 ee bd
       -0.015307925 -0.04056177 0.08822721 -0.11657912
000160 e4 60 80 bd 82 88 d3 3d c6 6d af bd 4f b3 95 3d
       -0.062684804 0.10328771 -0.085658595 0.07309591
000170 24 4d d8 3d 0c 44 5c 3d 5c 3c 2d bd 45 ff c9 bd
       0.105615884 0.053775832 -0.04229389 -0.09863142
000180 7f 8e 90 3c d8 15 32 3c 54 1f a5 bd 78 22 65 3d
       0.017646072 0.010869466 -0.08062616 0.055941075
000190 56 9e 9f 3d 18 bc f4 b9 50 f2 4b bd 37 57 c4 bd
       0.07793872 -0.00046679447 -0.049791634 -0.095869474
0001a0 23 e9 e0 bb 92 f4 97 3d bb 8f aa 3d 52 e2 9a 3d
       -0.0068637296 0.07419695 0.08328196 0.075626984
0001b0 a0 ee a1 3b 54 45 c1 bd 28 23 66 bd bc 80 41 bd
       0.0049417764 -0.094370514 -0.05618587 -0.04724191
0001c0 8e 99 e5 bd bf 36 79 3c ee 5b 14 3d 09 78 e3 bd
       -0.11210929 0.015210806 0.036220483 -0.11106879
0001d0 42 98 72 3d dd a2 95 bd 6a 07 e3 bc 70 9b 7e bd
       0.059227236 -0.07306454 -0.027713496 -0.062159956
0001e0 b6 ad ad 3d 6f 6c b5 bd f0 20 f8 bc 46 7f bd bd
       0.08480398 -0.08858573 -0.030289143 -0.09252791
0001f0 ae 12 6f bd 0f 24 a4 bd 99 02 e6 bd 9a e0 b4 3d
       -0.058367424 -0.0801469 -0.11230964 0.08831902
000200 55 44 c4 3d 46 ad 1e 3e 7e 1d ff bc 63 d9 0c 3e
       0.09583346 0.15495786 -0.031141993 0.13754801
000210 8b dd f6 bd f3 85 12 bf 52 1c c1 bc 57 e7 d7 3c
       -0.12053975 -0.5723564 -0.023573074 0.026355429
000220 05 52 26 3e f7 28 4e bf 7a 22 6d 3f 9f 8d 5b be
       0.16242225 -0.8053126 0.9263073 -0.21440743
000230 de f9 dc bb 6b f9 b7 3d ee 2d 68 3e b5 71 0e bd
       -0.0067436537 0.089831196 0.22673771 -0.03477641
000240 dd ee 00 bf 00 4f 17 3d 6d 53 8a bd 51 a1 38 be
       -0.50364476 0.036940575 -0.067541935 -0.18030287
000250 73 62 d9 3d 79 75 c8 3e 1d b5 71 c0 82 0b 2c 3e
       0.10614481 0.39152125 -3.7766793 0.16801265
000260 e8 bd d5 bf bf 91 ce 3d 4b 1e ac bd 3d ce 02 bf
       -1.669858 0.100863926 -0.084042154 -0.51095945
000270 28 36 4b 3d 0e d3 10 be f8 b1 19 3d ac 8a 84 be
       0.049612194 -0.14143011 0.03752324 -0.25887048
000280 6f 31 f9 bf 94 06 45 3f 0f 96 76 3e f4 ae 67 be
       -1.9468211 0.7696316 0.2408068 -0.22625333
000290 12 dd 47 3c 9a 8e 34 3e 17 66 d9 be af e9 a1 3e
       0.012198703 0.17632523 -0.424607 0.316236
0002a0 c5 d7 89 be ef 67 11 bf d3 59 ca bd 32 0f 20 3d
       -0.26922432 -0.56799215 -0.09880414 0.03907699
0002b0 0b 2b 8a 3e b6 d3 b8 be fc 69 33 bc 4c 8b 05 be
       0.26985964 -0.36099023 -0.010950562 -0.13041419
0002c0 da d1 28 bd d0 ec 15 3f 48 33 2f be a0 57 8a 3e
       -0.041215755 0.5856447 -0.17109406 0.27019978
0002d0 43 dd 57 be 81 8a f3 bd e7 2c a1 bb 2f f8 12 bd
       -0.21080498 -0.11891652 -0.004918683 -0.035881218
0002e0 0a d2 85 3e 6a 7f 91 bd 75 22 88 be c8 c9 50 bc
       0.2613681 -0.071043804 -0.2658879 -0.012743421
0002f0 a5 56 05 bd 0d d7 97 be f4 0e 96 c0 49 66 71 be
       -0.032553334 -0.29656258 -4.6893253 -0.23574175
000300 e4 e6 77 bd 23 07 0f 40 2f ff eb be d7 e3 47 bf
       -0.06052293 2.2348106 -0.46093127 -0.7808203
000310 0e d4 0d bf d2 56 bf 3d c5 25 bf be 8b 16 93 bc
       -0.55401695 0.093427315 -0.37333503 -0.017955085
000320 da d5 44 be 0f 38 5f 3e e6 d8 ff bc 08 99 9a be
       -0.19222203 0.21798728 -0.031231355 -0.3019488
000330 a7 b1 a0 bd d1 12 aa bd ac ba 55 be a0 e1 23 3e
       -0.078463845 -0.0830437 -0.20871991 0.16004038
000340 84 10 60 be 69 77 42 be a2 3f 5e be 61 1b 7e be
       -0.218813 -0.18990864 -0.21703961 -0.24815132
000350 0f ee 07 bf 35 91 8d 3e 72 6f df be d4 9a f3 bd
       -0.53097624 0.27649847 -0.43639714 -0.118947655
000360 47 02 08 be 10 82 e1 bc 24 ab 14 bd 48 12 ea 3e
       -0.13282119 -0.027527839 -0.036296025 0.45717072
000370 00 7a fd 3b 51 1a 1f bf 62 5e c8 3d b7 a3 33 be
       0.007735491 -0.6214953 0.09783627 -0.17542921
000380 ef ae 24 be ea d6 ab 3e 98 80 b6 3e b3 cc 07 3f
       -0.16082357 0.33562404 0.35644984 0.5304672
000390 d5 c1 14 be 6b 1b 91 3e d5 9b 40 be c4 5f a3 bc
       -0.14527066 0.2834123 -0.18809445 -0.019943126
0003a0 7c 13 bc be 3f a4 fe bc 06 7e 0f 3f 9a 77 a3 be
       -0.36733615 -0.031084178 0.5605167 -0.31927186
0003b0 01 5c 2f 3e 02 4b 04 bf 0b 92 4e be 0a a9 24 be
       0.1712494 -0.5167695 -0.20172898 -0.16080108
0003c0 ee 57 13 3f 2a 47 14 3e 11 4f 58 3e b4 4b b7 be
       0.57556045 0.14480272 0.21123911 -0.35799944
0003d0 3a bf 91 3c e5 60 ce 3c 6b 65 f5 bb 7c 12 cc bd
       0.01779138 0.025192687 -0.0074888966 -0.09964463
0003e0 2e 17 10 3e b2 f4 18 be 34 01 05 be cf a7 1c bd
       0.14071342 -0.14937094 -0.1298874 -0.038245972
0003f0 5d 09 df 3e c9 7b 90 be bb 64 a8 be bf 58 1f be
       0.4356183 -0.2821944 -0.3288935 -0.15561198

l2.bias f4 [64]
000000 fe ed 91 bd 75 6d 1c be 2c a7 f5 3d e2 bd 62 be
       -0.071254715 -0.1527613 0.11994776 -0.22142747
000010 08 c4 10 3e cd 10 16 be 7b e8 32 3e 45 a9 93 bd
       0.1413728 -0.14654846 0.17471497 -0.0721002
000020 57 80 f1 bd bc 67 9e bd 28 89 26 be 55 4a 4a 3e
       -0.11792057 -0.077346295 -0.16263258 0.19754918
000030 18 97 14 bc 71 ca 3a 3d bf 5e eb 3d ab d5 41 3e
       -0.009069227 0.04560322 0.11492681 0.18929164
000040 9e f6 bf 3d f0 8e 4c be 8d f9 a4 be ee 20 e0 3c
       0.0937321 -0.19976401 -0.32221642 0.027359452
000050 27 4f 6b 3e 50 70 34 bd 99 b8 8f be 59 d5 a4 3d
       0.22979413 -0.044052422 -0.28070524 0.08048505
000060 46 0d d2 3c f2 45 14 3a b5 c8 02 be 44 50 b6 3d
       0.025641095 0.00056561746 -0.12771876 0.08902028
000070 82 c6 14 be be 9d b0 bd 92 a3 07 bd 89 39 85 bd
       -0.1452885 -0.08623837 -0.033114977 -0.065051146
000080 bf a8 35 be e6 fb d3 3d 96 3f b9 bc 6a d1 13 3e
       -0.17740153 0.1035078 -0.022613328 0.14435354
000090 93 35 ec 3d f8 2d f7 be 98 20 d9 bc dd 11 8e bd
       0.11533656 -0.4827726 -0.0265048 -0.06937001
0000a0 ed 7b 06 3e 3f 95 94 ba a6 7e ef 3d c8 1c c7 bd
       0.13133211 -0.0011335983 0.11694078 -0.097222865
0000b0 8d fc e0 bc e0 7b 3c be 5b 76 13 3e 58 de a6 bd
       -0.027464176 -0.1840663 0.14400618 -0.081478775
0000c0 e6 4b b5 3c 70 f9 c4 3d f7 8d f7 3d 3a e6 ae bd
       0.022130918 0.09617889 0.120876245 -0.08540006
0000d0 d4 00 97 bd 16 fc f8 3b 2e 02 25 3e 7f 7f 43 3e
       -0.07373205 0.0075984104 0.16114113 0.19091605
0000e0 0c 90 a6 3d 4f 09 11 3e 3a 8f 9d be 38 53 fa bd
       0.081329435 0.14163707 -0.30773336 -0.12222904
0000f0 e7 75 24 be 9f 99 89 b9 68 22 81 bd 6f ef 7d 3d
       -0.16060601 -0.00026245133 -0.063053906 0.06199592

l3.weight f4 [1, 64]
000000 bb 8b bd bf f0 36 d2 3b 94 36 45 40 cc 5b 32 c0
       -1.4808267 0.0064152405 3.0814562 -2.7868528
000010 72 0e 37 bf 0c 3d 07 bd a9 87 7c bf c1 af 56 bf
       -0.71506417 -0.033017203 -0.986445 -0.8386193
000020 c1 9b 9e c0 e1 27 6f bf 04 e7 90 3f d8 7e b6 3e
       -4.956513 -0.93420225 1.13205 0.3564365
000030 f7 16 b2 40 c5 32 20 3f f5 07 0d 3f 5f ee af c0
       5.5653033 0.6257747 0.55090266 -5.497848
000040 4e 46 02 3f ff 93 50 bf 52 fb 10 c0 72 1d 75 c1
       0.50888526 -0.81475824 -2.2653394 -15.319689
000050 bd 39 fd bf 8a 40 89 40 9e c9 80 bf 8b d0 83 40
       -1.9783245 4.2891283 -1.0061529 4.119207
000060 47 f2 23 3f f4 f2 94 bf 7a dc a6 bf 3c 3c 45 3e
       0.6404156 -1.1636643 -1.3036034 0.19261259
000070 86 62 80 bd c0 21 43 3f ef f1 51 bf 4c cb 9b 3f
       -0.06268792 0.76223373 -0.82009786 1.2171416
000080 4a f3 a2 bf 3e 93 31 3e a5 b4 41 bf 88 dc 69 3f
       -1.2730496 0.17341325 -0.75666267 0.9135213
000090 75 db fa 3e 8e 6d 69 40 85 46 03 3f b9 af be 3f
       0.48995557 3.6473117 0.5127948 1.4897376
0000a0 8a 7f 86 3f 06 1e 4d c0 ee 8a 5f 3f 2e ce 81 3d
       1.0507672 -3.2049575 0.87321365 0.06338154
0000b0 22 7e ec 3e cb 65 55 bf 11 e9 0d 3e bd da b4 40
       0.46189982 -0.8335845 0.13858439 5.6517015
0000c0 80 3f 04 3f 77 51 5a bf d7 7b 28 c1 45 e6 cf 3d
       0.51659393 -0.85280555 -10.530234 0.10151342
0000d0 9e a0 89 be ef 7c 6e 3f cd 57 da 3e e0 62 48 3f
       -0.26880354 0.93159384 0.42645112 0.7827587
0000e0 5f 3e 3a 3e b3 8a a5 3f bd bc 5d c0 e2 6e 17 c0
       0.18187855 1.2932953 -3.4646447 -2.3661427
0000f0 7f 9f 79 bf 21 6d 44 c0 b1 51 20 40 8a ec 0a 40
       -0.97508997 -3.0691607 2.504986 2.1706872
