examples/experiments/experiment_19/actor78_1.pth (torch, 27223 bytes, 6 tensors)

l1.weight f4 [64, 30]
-0.042230617 0.38334358 -0.2756051 0.09631135 0.0033204432 0.084269054 2.7011893 1.2741551
3.529428 -0.1946423 0.02290991 -0.054066077 0.05079732 0.16447544 -0.022824699 0.060949408
-0.03154654 -0.046081685 0.05329029 0.011343001 -0.06550478 -0.07410379 -0.039490018 -0.024521615
0.18266684 -0.008483512 -0.012953041 -0.07171029 0.096714206 -0.14165112 -0.16102877 -0.24057397
-0.23935296 0.034955397 0.072735965 0.057116713 -2.6216347 4.5488615 1.4222497 -0.32150802
0.21153527 -0.08095863 0.2865938 0.057622913 0.0895875 -0.15181315 -0.38066503 -0.31139684
0.0102187535 -0.12602906 -0.16257931 -0.23705405 -0.087772995 -0.022059452 0.23561023 -0.17206064
-0.07818518 0.11424084 0.16953224 -0.070761435 -0.35334942 0.19458887 0.7556887 0.0040653693
0.012850886 -0.0074564507 0.3547935 0.7039946 1.0699177 -0.039181545 0.010051394 -0.11298021
-0.029547514 0.029518174 -0.1012167 -0.055372283 0.027201608 -0.09490286 -0.10364301 0.048844256
-0.10105582 -0.025703514 0.010189139 -0.0014360581 -0.027971286 0.002946167 -0.0646521 -0.03356935
0.05947852 -0.06707558 -0.120387435 -0.022395559 -0.18087804 0.0491911 0.16697012 -0.14229377
0.109611265 0.17844449 -0.02843635 0.146734 -0.0049866256 0.038567632 -0.025778616 0.11061781
-0.10305294 0.16755345 0.13935523 0.14832352 0.14158992 -0.13920997 -0.15214214 -0.11498994
0.11162244 -0.14095126 -0.1114845 0.09667819 0.09452243 0.0058208606 -0.12619364 -0.0013030646
0.3358418 -1.8847576 0.32948446 -0.037719417 0.059733767 0.033102773 0.34936902 1.3683028
2.70981 -0.12434764 -0.1614185 0.1746647 -0.39737952 -0.4269223 -0.54722905 0.21403462
-0.11392876 0.14420427 0.15390679 -0.1581641 0.23255724 -0.21486929 -0.26636294 0.15094395
0.14454992 -0.2628062 0.03824091 0.1868466 -0.36189476 0.21977365 0.11865675 -0.119687654
-0.101881355 -0.056318272 -0.101344675 0.11439262 -0.11794077 -0.013593763 -0.12015149 0.1687873
-0.0035721369 0.11591755 -0.051275507 0.029286286 -0.059446193 0.04625574 0.03250321 -0.046225518
-0.086681716 0.03980208 0.15198833 0.15303099 -0.0035361263 0.071371324 -0.15424916 0.1453049
0.021674296 -0.11068361 0.02478067 -0.005886074 -0.2928851 -0.7149419 0.22192574 0.0028395588
-0.006449012 0.079299614 -0.96839446 0.31125188 5.485208 -0.16336064 -0.10311896 -0.18241729
-0.15455551 -0.18660426 0.055670038 0.09342947 -0.053207267 0.035654243 -0.11398129 0.048028253
0.24649931 -0.014232712 -0.16872022 0.016499903 -0.14246583 0.07451091 0.23480256 0.30764967
-0.2974973 0.074513696 1.1681775 0.89664596 0.28435862 0.023291208 -0.031495653 0.0022176264
3.873408 1.3545461 -0.3717984 0.47942135 0.000689678 0.01214097 0.0534432 -0.35914022
0.027894525 -0.17739312 0.26962787 -0.14163482 -0.03837483 0.037639633 -0.18894787 0.1353466
0.20595996 -0.01363285 0.021977343 0.22241263 -0.08132802 0.121473834 0.312312 -0.12205361
0.13077272 -0.024237338 0.0062329285 -0.08480964 0.17347151 0.084740125 -0.08040373 0.035879865
0.13451867 0.025616253 -0.11143385 0.030450767 0.07536433 0.16570972 0.12977703 -0.083525464
00000000: 03fa 2cbd 9c45 c43e 1d1c 8dbe e33e c53d
00000010: cb9b 593b 4195 ac3d 49e0 2c40 8417 a33f
00000020: 26e2 6140 5050 47be 90ad bb3c 6474 5dbd
00000030: da10 503d 406c 283e ddfa babc 16a6 793d
00000040: f236 01bd 26c0 3cbd eb46 5a3d ffd7 393c
00000050: 5f27 86bd bac3 97bd 49c0 21bd 8ee1 c8bc
00000060: 040d 3b3e 6efe 0abc fe38 54bc d8dc 92bd
00000070: 1912 c63d fe0c 11be bae4 24be 0659 76be
00000080: f118 75be 642d 0f3d 98f6 943d 37f3 693d
00000090: ddc8 27c0 4690 9140 470c b63f b39c a4be
000000a0: b49c 583e a3cd a5bd 6cbc 923e 0106 6c3d
000000b0: a779 b73d e874 1bbe 87e6 c2be 686f 9fbe
000000c0: 8f6c 273c c30d 01be 317b 26be 4cbe 72be
000000d0: 54c2 b3bd 06b6 b4bc cf43 713e aa30 30be
000000e0: 8d1f a0bd 1af7 e93d dc99 2d3e 5feb 90bd
000000f0: 37ea b4be 4e42 473e d174 413f ca36 853b
00000100: 868c 523c 3e55 f4bb 7ea7 b53e fd38 343f
00000110: 10f3 883f d47c 20bd 9aae 243c 2b62 e7bd
00000120: a10d f2bc 19d0 f13c b44a cfbd 0cce 62bd
00000130: e8d5 de3c 6e5c c2bd c942 d4bd ea10 483d
00000140: 5bf6 cebd 2d90 d2bc 59f0 263c 1d3a bcba
00000150: 0a24 e5bc 7b14 413b 5268 84bd 0480 09bd
00000160: c09f 733d ec5e 89bd b08d f6bd e476 b7bc
00000170: 1838 39be 9b7c 493d 37fa 2a3e 75b5 11be
00000180: df7b e03d 27ba 363e 59f3 e8bc 7041 163e
00000190: d966 a3bb 18f9 1d3d ad2d d3bc 978b e23d
000001a0: 6b0d d3bd 2293 2b3e 23b3 0e3e 1fe2 173e
000001b0: f3fc 103e 0f8d 0ebe 26cb 1bbe d87f ebbd
000001c0: 4e9a e43d 8755 10be fc51 e4bd 37ff c53d
000001d0: fa94 c13d ebbc be3b e838 01be 98cb aaba
000001e0: 75f3 ab3e bd3f f1bf 30b2 a83e ad7f 1abd
000001f0: 65ab 743d c696 073d 7fe0 b23e 8c24 af3f
00000200: 876d 2d40 faa9 febd e44a 25be 4edb 323e
00000210: 5475 cbbe 8f95 dabe 3417 0cbf e42b 5b3e
00000220: 7b53 e9bd 49aa 133e be99 1d3e c5f5 21be
00000230: 7c23 6e3e b206 5cbe b960 88be 0d91 1a3e
00000240: e504 143e 898e 86be 80a2 1c3d b754 3f3e
00000250: 454a b9be 580c 613e 4f02 f33d cd1e f5bd
00000260: 2ca7 d0bd fdad 66bd cc8d cfbd ae46 ea3d
00000270: ee8a f1bd 60b8 5ebc fc11 f6bd 94d6 2c3e
00000280: 831a 6abb 2e66 ed3d 4406 52bd cbe9 ef3c
00000290: da7d 73bd a976 3d3d 1622 053d f856 3dbd
000002a0: 2f86 b1bd 8107 233d d4a2 1b3e 28b4 1c3e
000002b0: 5bbe 67bb 212b 923d 7ef3 1dbe cfca 143e
000002c0: 4b8e b13c 17ae e2bd d500 cb3c f8df c0bb
000002d0: 09f5 95be 6f06 37bf 8040 633e e417 3a3b
000002e0: 3c52 d3bb d667 a23d b3e8 77bf 685c 9f3e
000002f0: d386 af40 0348 27be 0930 d3bd 99cb 3abe
00000300: cd43 1ebe 3015 3fbe 4406 643d f357 bf3d
00000310: ddef 59bd 2f0a 123d 066f e9bd 46b9 443d
00000320: 516a 7c3e 5230 69bc fec4 2cbe ce2a 873c
00000330: 90e2 11be 2d99 983d 1570 703e 4284 9d3e
00000340: 9151 98be a39a 983d d786 953f 978a 653f
00000350: 7497 913e 34cd be3c 9601 01bd 9955 113b
00000360: ebe5 7740 c461 ad3f 5c5c bebe b776 f53e
00000370: 82cb 343a ebea 463c 42e7 5a3d 3ae1 b7be
00000380: 0f83 e43c 8ba6 35be aa0c 8a3e b808 11be
00000390: ed2e 1dbd 042c 1a3d 8d7b 41be 4d98 0a3e
000003a0: 2be7 523e 515c 5fbc d409 b43c 23c0 633e
000003b0: 4e8f a6bd 46c7 f83d 5ce7 9f3e 3ef7 f9bd
000003c0: 49e9 053e 628d c6bc 983d cc3b adb0 adbd
000003d0: 84a2 313e 3b8c ad3d b6aa a4bd c4f6 123d
000003e0: 43bf 093e 2dd9 d13c 6e37 e4bd e373 f93c
000003f0: 9d58 9a3d cfaf 293e 45e4 043e 660f abbd

l1.bias f4 [64]
0.055390228 0.1262973 -0.03306121 -0.12082418 0.061820854 -0.09766439 0.032534484 0.10021836
-0.17276534 0.099427804 0.090114996 0.1029831 0.07785153 -0.16232568 0.11409143 0.19677772
0.17618395 0.09838207 0.12573853 -0.012155577 -0.12558912 0.05174073 0.07158625 -0.12832758
-0.176638 0.19694401 -0.16880493 -0.1693842 0.09276866 0.20870394 -0.258631 0.010867418
0.016849356 0.17858754 0.09939972 -0.0070756967 0.055179615 0.07139072 0.07616835 0.18416542
0.16547184 0.05004659 -0.008580446 0.15640862 -0.16367693 -0.11069155 0.0768247 0.048926987
0.09642033 -0.1010441 0.08015855 -0.14652443 -0.0766125 0.07881594 -0.13340506 0.024178164
0.13414532 0.09132846 0.1228376 0.02886107 0.11617124 -0.11689386 0.14127712 0.16024463
00000000: dde0 623d 1454 013e 316b 07bd ab72 f7bd
00000010: dd37 7d3d 4504 c8bd e142 053d 493f cd3d
00000020: 66e9 30be cea0 cb3d 368e b83d cee8 d23d
00000030: 9f70 9f3d b438 26be c5a8 e93d 1980 493e
00000040: 9169 343e 8a7c c93d 9ac1 003e 2f28 47bc
00000050: 6f9a 00be 16ee 533d d09b 923d 4e68 03be
00000060: 98e0 34be b1ab 493e 33db 2cbe 0d73 2dbe
00000070: 7ffd bd3d 7cb6 553e 486b 84be 410d 323c
00000080: a907 8a3c a7df 363e 1592 cb3d 3fdb e7bb
00000090: 0504 623d 4c35 923d 27fe 9b3d dc95 3c3e
000000a0: 7371 293e a7fd 4c3d 0095 0cbc 9529 203e
000000b0: ed9a 27be 40b2 e2bd 4556 9d3d aa67 483d
000000c0: 0678 c53d 36f0 cebd 2a2a a43d 800a 16be
000000d0: 04e7 9cbd 406a a13d 569b 08be 4911 c63c
000000e0: 645d 093e 6a0a bb3d 4892 fb3d 0d6e ec3c
000000f0: 30eb ed3d 0c66 efbd f3aa 103e 2b17 243e

l2.weight f4 [64, 64]
-0.29308033 -0.5654834 -0.14883867 0.100875854 0.19840647 -0.05489583 -0.31819394 0.583699
0.11773364 0.48521504 -0.62864584 0.10357612 0.078912795 0.063531324 -0.1781237 0.032716893
-0.6261182 0.5865066 0.1731802 -0.12871277 0.10939601 -0.30747452 0.9651258 0.05938624
0.054346815 -0.19105026 0.082454234 0.10668589 -0.33646023 -0.92828625 0.09480228 0.05606933
-0.03535888 -0.5393236 -0.16621056 0.7592312 0.23959534 -1.0376072 -0.4677757 -0.05617486
-0.12116706 0.20093897 0.24720456 0.6687851 0.030118778 0.028197438 0.068526804 0.169821
0.26571563 -0.015616722 -0.16247079 0.12134744 0.55304164 -0.28638142 -0.08848721 -0.24068446
-1.0120293 0.099656284 0.9559821 0.037635695 -1.2252557 -0.43378633 0.70561504 1.1631657
-0.2382214 -0.08703128 -0.7579633 0.005341217 -0.273395 0.02326958 -0.019610828 -0.12095255
0.045615822 0.30899933 -0.2525283 -0.5319096 0.008354193 0.01793935 0.04810459 0.033991065
0.037199166 0.033011653 0.20284556 -0.93445396 0.023265027 0.20285113 0.643401 0.0013238639
-0.0005916953 0.066846825 -0.01158978 0.093871936 -0.13455284 -0.19852383 -1.1323024 -0.6391639
0.21857683 -1.2224667 0.18781318 0.58630234 -0.1866179 -1.0489821 -0.036669515 -0.01932647
0.23789008 0.055318832 0.49266016 0.32253653 -0.10286076 -0.010407044 0.18965854 -0.2282207
-0.10641896 -0.094962366 0.5265906 -0.055889204 0.12106177 -0.4773321 -0.07520194 -0.06151972
-1.271777 0.083049595 -0.25859258 -0.05734498 -1.7617912 -7.6896095 0.37762403 0.10204911
-0.15804443 -0.21942963 -0.15286003 -0.04383561 0.17189687 0.078065224 -0.2203358 -0.06852866
-0.0131011605 -0.6712117 -0.10311647 0.11473674 -0.14218308 0.12268189 0.056336384 -0.11132599
0.15707108 0.09186117 0.48916543 -0.09566978 0.044974383 0.3158745 0.24749412 0.043805584
0.016620666 -0.037650194 -0.09205496 -0.095857285 0.77290386 0.5707833 0.03642336 0.19812499
-0.042538542 0.42712885 0.36348188 0.08716879 -0.26384225 0.4450102 0.43939045 0.05369615
-0.3542891 -0.2540999 -0.32943204 -0.19899501 0.05683598 -0.1195784 0.28006873 0.16774823
-0.31833953 0.10984565 -0.15743089 0.08296248 0.7118412 0.3362135 0.124243826 -0.009110106
0.5024825 0.13532956 0.28640598 -0.44048798 0.04062635 -0.5426816 -0.42682555 -0.47001946
0.05563201 0.21467929 0.85262436 -0.09243053 0.2943875 0.09834588 0.28978583 0.39442158
0.073053405 -0.52425414 0.3127185 0.1907104 0.084499665 0.020209521 -0.09209096 0.05389493
-0.08688809 0.07621935 -1.5007 0.19809175 0.116705574 0.76344395 0.90946865 0.025550902
-0.116699666 -0.49813107 -0.0017109662 0.11794996 0.044678517 -0.021981934 -3.5367944 0.40186495
-0.34115255 -0.49441555 -1.2274725 0.4994802 -0.5773966 -1.1848271 0.61211956 -0.768874
0.07835328 -0.20265354 -0.006497063 0.31506434 -0.053093493 0.03135799 -0.4651351 -0.8598782
-0.032243166 -0.07193519 -0.27907938 -0.017551556 0.13267644 -0.178313 0.07934517 -0.050269645
-0.9537997 -0.105681635 -0.75805897 0.773922 -0.21710381 0.21883363 -0.8384202 -0.16301292
00000000: a00e 96be 85c3 10bf 2a69 18be 0098 ce3d
00000010: 112b 4b3e 73da 60bd 51ea a2be 4c6d 153f
00000020: 561e f13d 1b6e f83e efee 20bf b81f d43d
00000030: 089d a13d b61c 823d 0f66 36be 2602 063d
00000040: 4849 20bf 4c25 163f 2656 313e 48cd 03be
00000050: 040b e03d 4d6d 9dbe 7c12 773f fc3e 733d
00000060: c49a 5e3d aea2 43be c4dd a83d 227e da3d
00000070: 8444 acbe 2ba4 6dbf b327 c23d f4a8 653d
00000080: 79d4 10bd 1d11 0abf 1a33 2abe fa5c 423f
00000090: 7b58 753e 50d0 84bf 4c80 efbe 9c17 66bd
000000a0: 7026 f8bd f2c2 4d3e 3123 7d3e 8035 2b3f
000000b0: a8bb f63c 50fe e63c c857 8c3d 8ee5 2d3e
000000c0: e10b 883e 48dd 7fbc be5e 26be 0285 f83d
000000d0: 2394 0d3f 96a0 92be c838 b5bd fd75 76be
000000e0: 2d8a 81bf 9818 cc3d 3ebb 743f e327 1a3d
000000f0: 2ed5 9cbf 3e19 debe 30a3 343f 9de2 943f
00000100: 50f0 73be 753d b2bd e209 42bf 6005 af3b
00000110: 6efa 8bbe d99f be3c e3a6 a0bc f8b5 f7bd
00000120: a8d7 3a3d 2935 9e3e 644b 81be 3a2b 08bf
00000130: 06e0 083c 8bf5 923c 5209 453d 373a 0b3d
00000140: 275e 183d 3a37 073d bfb6 4f3e 6038 6fbf
00000150: 4c96 be3c 35b8 4f3e eeb5 243f 8085 ad3a
00000160: 001c 1bba fde6 883d 10e3 3dbc ee3f c03d
00000170: 38c8 09be d549 4bbe 49ef 90bf 3fa0 23bf
00000180: 9bd2 5f3e ca79 9cbf 1952 403e e917 163f
00000190: c318 3fbe 0c45 86bf c632 16bd 8c52 9ebc
000001a0: 7599 733e 0096 623d f43d fc3e 8223 a53e
000001b0: aaa8 d2bd 4e82 2abc d935 423e b0b2 69be
000001c0: 2ff2 d9bd a17b c2bd a4ce 063f 14ec 64bd
000001d0: 3cef f73d df64 f4be 7a03 9abd 1afc 7bbd
000001e0: 97c9 a2bf e815 aa3d 3f66 84be 92e2 6abd
000001f0: 6082 e1bf 4811 f6c0 f057 c13e 20ff d03d
00000200: 66d6 21be 29b2 60be 5787 1cbe f88c 33bd
00000210: bc05 303e a9e0 9f3d b59f 61be c158 8cbd
00000220: 40a6 56bc 88d4 2bbf ba2e d3bd 19fb ea3d
00000230: 7198 11be a540 fb3d fbc0 663d e1fe e3bd
00000240: 3ed7 203e b621 bc3d e473 fa3e 85ee c3bd
00000250: 0f37 383d 4dba a13e 196f 7d3e 7c6d 333d
00000260: 1028 883c 1737 1abd 5087 bcbd d350 c4bd
00000270: 07dd 453f db1e 123f a930 153d 47e1 4a3e
00000280: e53c 2ebd a2b0 da3e 4c1a ba3e 8d85 b23d
00000290: 5516 87be 60d8 e33e c9f7 e03e 7ff0 5b3d
000002a0: 6265 b5be 6219 82be 51ab a8be 59c5 4bbe
000002b0: d8cc 683d 85e5 f4bd 2b65 8f3e 31c6 2b3e
000002c0: 66fd a2be c2f6 e03d 9035 21be 3ce8 a93d
000002d0: 3a3b 363f 2d24 ac3e 8c73 fe3d 8e42 15bc
000002e0: b1a2 003f d593 0a3e cea3 923e a487 e1be
000002f0: d167 263d 2eed 0abf e188 dabe 64a6 f0be
00000300: 64de 633d e3d4 5b3e 9745 5a3f 384c bdbd
00000310: f5b9 963e 9169 c93d cf5e 943e a0f1 c93e
00000320: 069d 953d 8535 06bf a41c a03e 9649 433e
00000330: 290e ad3d 708e a53c 2f9a bcbd eec0 5c3d
00000340: 62f2 b1bd e418 9c3d f016 c0bf 90d8 4a3e
00000350: 5503 ef3d 1071 433f f0d2 683f 2050 d13c
00000360: 3c00 efbd 090b ffbe 8042 e0ba c08f f13d
00000370: d200 373d 7513 b4bc d75a 62c0 3ec1 cd3e
00000380: 8cab aebe 0924 fdbe d21d 9dbf debb ff3e
00000390: 43d0 13bf 6aa8 97bf deb3 1c3f edd4 44bf
000003a0: af77 a03d 6984 4fbe 51e5 d4bb 1d50 a13e
000003b0: 9078 59bd 3c71 003d 3026 eebe fa20 5cbf
000003c0: 6911 04bd c252 93bd 7ee3 8ebe 48c8 8fbc
000003d0: 55dc 073e af97 36be b87f a23d 8be7 4dbd
000003e0: 382c 74bf 9d6f d8bd 2710 42bf c11f 463f
000003f0: 7650 5ebe ec15 603e b5a2 56bf dcec 26be

l2.bias f4 [64]
-0.16399816 0.12413921 0.2145952 0.05664517 -0.015136638 0.08467637 0.17889674 0.062491257
0.1694277 0.10839517 -0.07068249 -0.011468299 -0.09012201 -0.10889756 0.06937623 -0.043099888
0.1109798 0.150446 0.043454856 -0.048822057 -0.0214759 0.013804799 0.08633084 0.027476152
-0.19733569 0.17259525 0.03550313 -0.13334903 -0.10698764 -0.074649625 -0.16170914 0.12553675
-0.00010415497 -0.027061421 -0.20162886 0.096249186 -0.013912516 -0.03824113 0.14201161 -0.094810225
-0.1169897 0.033897545 -0.18265226 -0.081066795 -0.077415064 -0.25621554 0.01153074 -0.03704564
0.0695271 -0.0020575 0.06695237 0.101389155 0.13727961 0.122737765 -0.040093277 0.15172122
0.082923405 0.051868852 -0.099660486 -0.118246056 0.11990138 -0.29247758 0.05173723 -0.1314017
00000000: 22ef 27be b33c fe3d d8be 5b3e c404 683d
00000010: a9ff 77bc ce6a ad3d b530 373e d5f6 7f3d
00000020: 747e 2d3e 49fe dd3d fbc1 90bd 88e5 3bbc
00000030: e391 b8bd af05 dfbd 2015 8e3d 8289 30bd
00000040: 6149 e33d 840e 1a3e b8fd 313d a3f9 47bd
00000050: 3aee afbc 862d 623c 39ce b03d ab15 e13c
00000060: 5e12 4abe cfbc 303e bb6b 113d a68c 08be
00000070: 561c dbbd e7e1 98bd 1597 25be b58c 003e
00000080: c66d dab8 eaaf ddbc cc77 4ebe 4b1e c53d
00000090: 52f1 63bc bba2 1cbd 7e6b 113e dd2b c2bd
000000a0: 4c98 efbd 27d8 0a3d 3209 3bbe 5906 a6bd
000000b0: ca8b 9ebd af2e 83be 6eeb 3c3c 2bbd 17bd
000000c0: 3964 8e3d 1fd7 06bb 531e 893d 1ea5 cf3d
000000d0: 0793 0c3e f05d fb3d d938 24bd cf5c 1b3e
000000e0: bfd3 a93d 6f74 543d cc1a ccbd fd2a f2bd
000000f0: db8e f53d 9fbf 95be 6bea 533d 2b8e 06be

l3.weight f4 [3, 64]
5.0559845 3.8491106 0.051655356 -1.9772203 -0.091816105 0.1690076 -0.35214195 0.119908944
-0.30166087 -0.115549356 -1.0805572 0.20579208 0.11740879 0.034012124 0.25828606 -0.020465521
-0.66619366 -0.29635087 0.022013625 -0.96866125 -0.0934362 -0.103808835 0.17135587 0.26955244
1.2774019 -0.30288044 -1.0612352 -0.08103659 -0.09394094 -0.06278806 -13.413208 1.6833053
0.21217975 0.17873283 0.013479263 0.063529745 1.352317 -0.21623299 -0.07255945 0.64048016
1.5538172 -0.24754801 0.049131423 0.12510194 0.086949944 2.884187 0.19969903 -0.124332115
0.21463244 -0.20238793 0.2690582 -0.1279756 0.4898921 -0.3429923 1.0759902 -0.4460693
0.032740965 0.37933835 -0.08619949 0.14315629 0.30805305 19.386555 0.17888744 -0.007378173
0.07726879 1.3797513 -0.1616828 2.5520318 4.0680733 0.38999423 0.4161246 -0.12898557
0.13926372 0.16962184 0.64910495 -0.039053924 -0.06482753 -0.08484621 0.3842932 -0.010097722
-1.3318195 0.44507158 0.029210212 1.9655144 -0.4176487 -0.9431047 -0.18137635 0.2758861
3.3107793 -0.21897595 -0.015805079 0.113364406 0.12170662 -0.025467714 0.6084478 0.436044
-0.17233443 -0.1767218 -0.01588779 -0.5563356 -2.3564675 -0.02407686 0.3612193 -1.9052285
1.1882942 2.289284 -1.8184422 -0.2508363 -0.086952195 3.3006473 -0.26145178 0.16090915
0.23660536 -0.15853749 -0.23319659 0.52858955 -0.033458985 -0.045498822 0.024136163 -0.10334997
0.14844187 -1.2799805 -0.011208668 -0.19995654 0.2547318 -3.149534 -0.14991227 -0.1034944
-0.07680213 0.09124838 -0.6685627 -2.5164995 -0.031004475 0.4681189 -0.3005578 -0.031176506
0.31750464 -0.5212181 0.1864608 0.016254202 -2.9631906 -0.1371075 1.1707805 -2.7632084
-0.07087979 -0.20300148 -0.01927148 -0.12616262 -0.49679828 -0.23526609 0.1362699 0.008316919
0.11496137 0.47356793 0.0022609276 -0.0038302129 -0.07367572 -0.054126203 -0.03149207 -0.21106857
-0.023493284 0.14265914 2.6322718 0.17862177 0.056728665 0.37866306 -0.31909543 -0.5448203
-2.7874804 0.358066 -0.04500345 -3.3092382 -0.113763094 0.3655367 -0.24308118 0.14033009
0.14843285 -0.2029226 -0.028094834 -0.23009402 0.5116486 0.29665253 0.0143846935 0.2894194
0.45260403 0.09256672 0.04967837 -0.07578234 0.13974345 0.06916941 0.0008356389 0.0118799815
00000000: a0ca a140 d457 7640 9194 533d 8e15 fdbf
00000010: 150a bcbd 5410 2d3e f34b b4be d292 f53d
00000020: 4b73 9abe 24a5 ecbd b34f 8abf 29bb 523e
00000030: 0574 f03d 4c50 0b3d 123e 843e 4fa7 a7bc
00000040: ab8b 2abf 4dbb 97be eb55 b43c 2ffa 77bf
00000050: 7a5b bfbd ba99 d4bd ea77 2f3e c702 8a3e
00000060: e881 a33f 2513 9bbe 8ed6 87bf 83f6 a5bd
00000070: 1c64 c0bd 0797 80bd 809c 56c1 8c76 d73f
00000080: a645 593e bd05 373e 20d8 5c3c e21b 823d
00000090: b918 ad3f 2e6c 5dbe 0d9a 94bd 82f6 233f
000000a0: 7be3 c63f 3a7d 7dbe 083e 493d b91a 003e
000000b0: d012 b23d 8596 3840 e77d 4c3e d6a1 febd
000000c0: 9bc8 5b3e c83e 4fbe ffc1 893e 090c 03be
000000d0: 23d3 fa3e b09c afbe 0cba 893f 3263 e4be
000000e0: 641b 063d a338 c23e 5c89 b0bd 9097 123e
000000f0: 21b9 9d3e aa17 9b41 452e 373e 9ac4 f1bb
00000100: 193f 9e3d b19b b03f 2d90 25be 7d54 2340
00000110: a82d 8240 53ad c73e 490e d53e cb14 04be
00000120: 269b 0e3e 59b1 2d3e be2b 263f 02f7 1fbd
00000130: 4cc4 84bd dac3 adbd 14c2 c43e ea70 25bc
00000140: 1079 aabf 6ce0 e33e 414a ef3c fa95 fb3f
00000150: 0dd6 d5be 4f6f 71bf b9ba 39be f140 8d3e
00000160: cfe3 5340 3b3b 60be a779 81bc 992b e83d
00000170: 5241 f93d aba1 d0bc 3cc3 1b3f 2941 df3e
00000180: 7078 30be 8ff6 34be 1c27 82bc 036c 0ebf
00000190: 5dd0 16c0 d63c c5bc bcf1 b83e 87de f3bf
000001a0: 061a 983f a183 1240 b7c2 e8bf 9e6d 80be
000001b0: fe13 b2bd ce3d 5340 02dd 85be 5ec5 243e
000001c0: ad48 723e a757 22be 16cb 6ebe a551 073f
000001d0: 4a0c 09bd f95c 3abd 34b9 c53c 26a9 d3bd
000001e0: 2501 183e 67d6 a3bf 90a4 37bc 68c1 4cbe
000001f0: 356c 823e f791 49c0 9a82 19be dff4 d3bd
00000200: 6f4a 9dbd 6ee0 ba3d ed26 2bbf 540e 21c0
00000210: 19fd fdbc 48ad ef3e b6e2 99be df65 ffbc
00000220: f88f a23e 8d6e 05bf 94ef 3e3e 8827 853c
00000230: eaa4 3dc0 e965 0cbe 23dc 953f 68d8 30c0
00000240: 6c29 91bd 9fdf 4fbe 39df 9dbc c630 01be
00000250: 585c febe 98e9 70be 568a 0b3e b043 083c
00000260: de70 eb3d 7f77 f23e 122c 143b 4f04 7bbb
00000270: 4ce3 96bd 70b3 5dbd d4fd 00bd 5c22 58be
00000280: fd74 c0bc 3d15 123e 2477 2840 a0e8 363e
00000290: 515c 683d 20e0 c13e 7a60 a3be 5879 0bbf
000002a0: 1466 32c0 6d54 b73e 8a55 38bd 8fca 53c0
000002b0: a0fc e8bd a027 bb3e 46ea 78be b1b2 0f3e
000002c0: c8fe 173e f1ca 4fbe 2327 e6bc c49d 6bbe
000002d0: 67fb 023f d7e2 973e c7ad 6b3c c82e 943e
000002e0: b7bb e73e 9f93 bd3d 8c7b 4b3d c533 9bbd
000002f0: e818 0f3e b1a8 8d3d c70e 5b3a 41a4 423c

l3.bias f4 [3]
-0.042134725 0.24318717 -0.097782575
00000000: 7695 2cbd 0f06 793e 3b42 c8bd
