examples/experiments/experiment_19/critic94_4.pth (torch, 37463 bytes, 5 tensors)

l1.weight f4 [64, 72]
00000000: bd42 723e 68ce 453f 0646 463d c21a 2abd
00000010: 5813 453f d592 20bd 7e53 40be 201d 503f
00000020: b699 1dbe a307 2ebe 93e6 cd3f b92c 033e
00000030: dd2f 7c3f 0542 3c40 07b9 2140 1fe8 073f
00000040: 5f46 393e 30f5 643f 0ed3 243e d7c9 d33a
00000050: 0466 a63e 503a 6f3e 5bd5 e73d c3f1 ddbd
00000060: 9029 0f3f 76f2 683d 600a c6bc f6c5 1d3c
00000070: b00c 7d3d fbe4 3b3d dde8 04be 5236 053d
00000080: 0555 883e ae9f b5be 6eaf 8e3e 3f51 5bbd
00000090: 700d 34be 50a4 1e3f 9cf4 843d 6592 67bd
000000a0: 12dd 193d 4df7 4e3c d8b1 703e 9a6b 5d3d
000000b0: 8019 2e3d f23d d63d 4592 83bd 2466 56be
000000c0: 229e 0dc0 e641 103f 2202 60be a92b a83e
000000d0: 35c6 24be 6367 1fbe 6355 853e d453 583e
000000e0: 5d65 e6bf 9a55 7c40 63b7 2b3e 2414 8f3f
000000f0: cbd2 d63f 1cd9 b2bf da1e ce3f 20f4 8d3f
00000100: b094 26be 4b51 323f 8316 8abf 8b73 c0b9
00000110: 5f1a 683f d20d 8fbd 257f b73c 7b15 a53f
00000120: d969 ecbd 84c9 b33d e78a 963d 6864 34be
00000130: 6181 8b3e a229 a83c 26ba 0c3d c472 c7bd
00000140: 989d 2ebe 6e86 6c3d 801a a23e 3b1f 683e
00000150: 9e17 1cbf 856f 723f ded3 e9bf da28 28be
00000160: db09 273e b1ed 893b 09bd 4ebd 8f93 79be
00000170: b865 363e 66fb 0c3f e758 febd 69e0 093e
00000180: e00d c73d ecfb 3a3d cfad 003e c3b0 20bf
00000190: 50d1 1a3f 56a4 b03e 9d96 80bc 0485 91bc
000001a0: 090f 9abc ff37 e23c af88 d73c 713a c33d
000001b0: 31c8 17bd 4988 f13d 3422 b5be 71f5 54be
000001c0: 2f22 fcbc d839 f0bd 27d9 943d 4f99 9a3b
000001d0: 069d d63d fb5c b93d 61ac b9bd 77da 3abe
000001e0: ddd5 9bbe c8a9 de3c 255a cdbe 743a d240
000001f0: 5159 bac0 231c 59c0 b0e6 423e 8432 a13e
00000200: 65b4 e33d ccc5 20be f73a 9abd d045 07bf
00000210: b3c1 603f 7fd4 783e 7dbc 953f 7f87 273f
00000220: 600e d9bd 090c 4f3e f04a aabe bad5 23bf
00000230: 1fe0 11bf 2555 4ebf 43be 8f3e 3170 8f3f
00000240: ba1a b0be 5fc4 18bf 8087 ecbd 48a5 22bb
00000250: 34f1 d7bd 67f0 a4bd b014 02bf 2c74 9f3e
00000260: e529 6a3e 5b51 4a3e c330 bdbe b366 8ebe
00000270: da9f b13d 296b 57c0 b541 f1be 6883 373f
00000280: afd5 ddbd 7715 e7bd 9726 273f 4fdc 933e
00000290: 06b6 51be 0881 593e 46da ce3d 4aeb 453e
000002a0: 0101 ac3c 1f4f 953c df11 9b3d 5b10 8ebd
000002b0: 9dea c53d 85cd a13d c6cb d4bc 878f 113e
000002c0: 3851 933e 7859 dfbd 89de 4abe 76ad 9bbe
000002d0: e674 e7bd 871a 3dbe 9d94 44be e79c dbbd
000002e0: bb76 13be 7c8a b73d 6be3 c9bc d375 20be
000002f0: 246c 3ebe 954d 513e b50b 74bd 61e0 82be
00000300: e675 39be 0bd2 48bf 7fb1 823e b802 003e
00000310: e846 11bf 7b0f 3dbf 1f0e 183f 91cd 87bf
00000320: 0bd3 32c0 caec a53f ca58 0a3f e296 453f
00000330: 3ab2 4d3f 0d4e 67be 6f21 5c3f 950a fd3e
00000340: 77fe 3abe 0bda 343e 7d02 c9be 756d 3d40
00000350: 84a8 c53f 717d e5be ce24 813e b46e ac3d
00000360: 9586 aa3b 7f16 193b 42ef 053c 0d21 373c
00000370: babf 8ebb 6943 153b e9bd 92b9 eab3 80bb
00000380: bd51 f93b 6584 bfba 9670 41b9 9110 abbb
00000390: 5c2b b8ba 21ea 87bb ac87 713b e2be 183c
000003a0: 1340 993b 0cb5 06bc 632e 9cbc b0b3 15bc
000003b0: 4cd6 5ebb 4775 833c defe 8dbb 867d 4d3b
000003c0: 4b53 403c be7d cc3c b706 993c 1295 1c3c
000003d0: c68b 4cb7 d2c0 753c bb0c 81bb 9d0c acba
000003e0: 0648 083b 5875 903b a3cd 77bb e003 28bc
000003f0: 07f7 3fbb 10c0 c93a c540 e2bb 7e34 a23f
0.23658271 0.77268076 0.048406623 -0.041529424 0.7698264 -0.03920253 -0.1878185 0.8129444
-0.15390667 -0.169951 1.6085991 0.12810029 0.98510534 2.9415295 2.5269182 0.53088564
0.1809325 0.89436626 0.16096136 0.0016158175 0.32499707 0.23362088 0.11319991 -0.10837128
0.55922794 0.056871854 -0.024174869 0.009629717 0.061779678 0.04587267 -0.12979455 0.032522507
0.26627365 -0.35473388 0.27868217 -0.05354428 -0.17583251 0.6196947 0.06491968 -0.056536097
0.037564345 0.012632203 0.23505342 0.054057695 0.042504787 0.10461034 -0.06424383 -0.20937401
-2.2127767 0.56350553 -0.21875814 0.3284581 -0.16091235 -0.15566783 0.26041707 0.21125728
-1.7999684 3.9427247 0.16769175 1.1178021 1.6783079 -1.3972507 1.6103165 1.1090126
-0.16267657 0.69655293 -1.078812 -0.0003670718 0.9066524 -0.06985058 0.022399494 1.289718
-0.11543626 0.087786704 0.07350712 -0.17616427 0.27247146 0.020527665 0.034357212 -0.09738687
-0.17052305 0.05774539 0.31660843 0.22668163 -0.60973537 0.94701415 -1.8267782 -0.16421834
0.16312353 0.004209243 -0.050473247 -0.24372695 0.1781224 0.55071104 -0.124193005 0.13464512
0.09719443 0.045650408 0.12566303 -0.62769717 0.60475636 0.34500378 -0.015696818 -0.017763622
-0.018805997 0.027614592 0.026310293 0.09532631 -0.03705615 0.117935725 -0.35377657 -0.20796753
-0.030778019 -0.11729783 0.07267981 0.004717983 0.104791686 0.09050938 -0.09066082 -0.182474
-0.30436602 0.027180567 -0.40107837 6.5696354 -5.823403 -3.3923423 0.19033313 0.31483853
0.11118392 -0.15700454 -0.07530778 -0.528409 0.8779556 0.24299811 1.1698147 0.65441126
-0.10598445 0.20219435 -0.33260298 -0.63997996 -0.56982607 -0.8059867 0.28074846 1.1206113
-0.3439539 -0.5967464 -0.11549282 -0.0024817754 -0.10544053 -0.080536656 -0.50812817 0.3114332
0.22867544 0.19757597 -0.36951265 -0.27812728 0.086730674 -3.3659155 -0.47120443 0.71684885
-0.108317725 -0.11283391 0.6529326 0.2887902 -0.20479593 0.21240628 0.10100226 0.19328037
0.020996572 0.018226204 0.07571768 -0.06936713 0.096638896 0.07900528 -0.025976073 0.14214908
0.28772902 -0.10905737 -0.19811453 -0.30405778 -0.113015935 -0.1846715 -0.19197316 -0.10723286
-0.14400761 0.08961961 -0.024644574 -0.15669946 -0.1859594 0.20439751 -0.059581477 -0.25561813
-0.18111381 -0.784455 0.25526044 0.12501037 -0.5674882 -0.73851746 0.5939655 -1.0609609
-2.794131 1.2962887 0.5404173 0.77183354 0.8035008 -0.22588368 0.85988516 0.49422136
-0.18261133 0.17661302 -0.3925971 2.9598057 1.5442052 -0.44822267 0.25223392 0.084195524
0.0052040317 0.0023359356 0.008174719 0.0111773135 -0.0043563517 0.0022775775 -0.00027988784 -0.0039276974
0.007608621 -0.00146116 -0.00018447856 -0.0052204807 -0.0014051008 -0.0041477834 0.0036854548 0.009322854
0.0046768277 -0.008221876 -0.019065088 -0.009137079 -0.0034002243 0.016047133 -0.004333361 0.0031355335
0.011738609 0.024962302 0.01867996 0.0095570255 -1.2191891e-05 0.014999585 -0.003938285 -0.0013126318
0.0020794882 0.0044085197 -0.0037811778 -0.01025483 -0.0029291527 0.0015392322 -0.006904694 1.2672269

l1.bias f4 [64]
00000000: 7688 eb3c bc86 cc3e ee2a af3e 673a b1ba
00000010: 2b7c 7dba aeca 17bb 629a a13e 2789 cd3b
00000020: 721b 47bb 8282 89bd 4a96 2dbd d259 c63e
00000030: 6bc2 ba3b 6e55 073e 0d1c a1bb a9d5 32bb
00000040: 5f34 1a3e d3a6 293d ca19 a6ba 5f42 9fbd
00000050: 4b1b 173e 8a26 b33d 3b9c 48bb 204c ce3e
00000060: e561 dd3e 303c cb3a cec9 8fbd 0b43 873e
00000070: f8f2 bd3e 5fea 9f3e c96b bc3d badc 0a3f
00000080: 3fd0 38be 148b 68ba 4f82 b9bd 9e3f a73a
00000090: 789c 6f3d d470 2d3e 3fb8 783e 0941 1d3e
000000a0: c8df ff3e e3f9 c0bd ac5a b3b8 e1c4 923e
000000b0: b426 883e 2367 d33c b1b6 d6bc 8b0a b8b9
000000c0: 4ab9 a23e e8bf aabd e36f bdbd 6f86 b13e
000000d0: 379a 853e 9290 90bd 097f 003b c281 b7bc
000000e0: 31f8 43ba 74ee 023d cbc1 a03e f34e 993e
000000f0: 558f 6e3e 34f4 823e 1617 87ba d8bf e2bd
0.028751593 0.39946544 0.3421244 -0.0013521434 -0.00096696866 -0.0023161578 0.31563097 0.0062724533
-0.003038135 -0.067143455 -0.042379655 0.38740402 0.005699446 0.13216183 -0.004916674 -0.0027287996
0.1505904 0.04141886 -0.0012672481 -0.07776331 0.14756505 0.08747585 -0.0030610699 0.40292454
0.4323875 0.0015505608 -0.07020913 0.26418337 0.37099433 0.31233498 0.09200246 0.5424305
-0.1804819 -0.0008870822 -0.090580575 0.0012760048 0.05849883 0.16937572 0.24289034 0.1535684
0.4997542 -0.09422662 -8.552274e-05 0.28665832 0.26592028 0.025806015 -0.02621016 -0.0003510307
0.3178199 -0.083373845 -0.09249856 0.34672877 0.2609422 -0.070588246 0.001960697 -0.02240074
-0.0007475643 0.031965688 0.31397852 0.29943046 0.23296864 0.25576937 -0.0010306563 -0.110717475

l2.weight f4 [64, 64]
00000000: ecf3 8fbe 1b74 22bf ecad e3bd 54f7 34be
00000010: 9d36 5fbe bac8 33be 873a 423f 3975 b5bd
00000020: 80a0 00bf 6955 b33d f603 65bc 2c54 4f3f
00000030: c27d 81be 24de 2f3f c966 9c3c 8bea afbe
00000040: ea77 82be 2bf7 82be c733 80be ece1 913b
00000050: 9075 5dbe ad90 a3bd 78b2 81be 29d6 5d3e
00000060: 5d46 1a3e 4373 83be 3e6d a63d 60e7 f9be
00000070: a69c 063e 8602 11be bf9c cdbe 09d7 0f3f
00000080: 7a46 28bd 9df1 873d 6839 85bd bd73 47be
00000090: efb9 a13c 03bd 13bf 4ac7 67be 29c3 9dbe
000000a0: b4d3 dcbe 4e1a bf3d ba31 72be 931c e13e
000000b0: e67d 86be 733a babe 7d28 2b3d 496f d7be
000000c0: 166b 8ebe 0e73 e0bd 2c8f 143f 2a21 f4be
000000d0: 6efb 82be 9df6 163c 2148 e1be 3c66 263d
000000e0: 975f 8bbe 7361 2cbd 088c 1d3f f072 f33d
000000f0: 0369 4a3e 39b7 ac3d df9c dfbe 8c14 ffbd
00000100: bbd5 08be dd72 353d db19 a6ba 2aaa a6bd
00000110: 3926 67ba 78b2 70bd f2c1 05be 9a06 8d3d
00000120: fc4f 3d3d a641 7fbd 5f0d db3c 2952 813d
00000130: 6888 c13c 5927 b13d 1fb1 5fbd 64f6 993c
00000140: fc0b c9bb 9af4 d7bd 9625 cd3c ec4d 66bd
00000150: 5c90 ba3b bf85 12bd 9d43 3f3d 2bd5 edbd
00000160: 1133 01be 9210 1dbd a0a9 f5bc 2ea0 84bd
00000170: ab94 bdbd 27fb e83c 8981 0ebe 3081 fcbd
00000180: eced cabd c559 0c3d fe90 9d3d e456 efbd
00000190: a699 14be bcd9 4b3d c69f 0dbe f109 5b3d
000001a0: 42d5 cebc 8438 e93d 10f4 4fbd 7d48 8cbd
000001b0: 464b df3a ce2b ca3c dc46 a03c 2d56 3c3d
000001c0: 2938 503d 8019 24bb 82dc 5ebd 9e7b 963d
000001d0: 9740 853d 3788 f13c d217 883d 21d2 bf3d
000001e0: b0ff 4ebc 3dcb 283c a370 56bd 8433 afbd
000001f0: a537 b73d 9774 11be 8f4a 22bd 2c43 053d
00000200: f48f 5f3e 3aa4 05be 8e95 6d3e 0615 6a40
00000210: f544 f1bd 52b1 4a3c f187 53be 1953 e03b
00000220: ca60 a8bc 5081 943c 5f7e e23c 6841 973e
00000230: c019 a8bc 1d05 a7bd 149f 1a3d e51a a5bd
00000240: cd19 ccbc 4549 3cbd de0e b1bb c46e 8abd
00000250: fff0 d03c 68cc 23bd 0adf 453c 819c a6bd
00000260: dd17 02be 12ff 55bc bcd8 2dbd 9a6a 54be
00000270: 8bbf 9b3d e8dd 17bf 92c6 933e f5c5 c8bd
00000280: 4a2e fb3c 0eea 32bc e847 bbbc 2e48 3cbd
00000290: 5879 0e3d 99e3 ccbe f6e4 9d3d dc3c 1cbc
000002a0: aa7c 8a3e d205 d13d e9dd b63d a148 e03e
000002b0: b38f 16bd 5611 e33a d59a 813c 07ec 9e3c
000002c0: 7d8a b83f 1850 cabc 98ce 763e 08bd e4be
000002d0: 2f8b 06be 2dae 403c 3936 8040 b0b2 b43b
000002e0: dc68 fe3c aee0 b93c 291a f7bd ef3f 333e
000002f0: ad76 c4be 61f5 4ebf 1460 283d a804 febc
00000300: dfb9 643f f11c 993e f435 2cc0 b39d 46be
00000310: 19de a6bd c114 32be d6b9 12c0 45ee 353d
00000320: c056 8ebc 6964 c53b 8cce 30bf 4b41 d53e
00000330: 1c75 aabd f87c 95bd 6eb8 023e 8f1e 55be
00000340: 6780 3c3f d2c2 dd3c f40c e03b f0b1 b9bd
00000350: ad7a bdbd c11f 113d 44a0 663d 673c 18bf
00000360: 8ad3 a4bf ddfe e9bd 5a86 bd3d edb6 1fc0
00000370: 9f7b aac0 2043 ea3e 720a 723f 2d28 77be
00000380: 4e22 893e e2d4 f4bd d4d1 36bd 3f5d 37bd
00000390: 7ffc f6bd 485a 11c0 d081 933f 087d 9ebd
000003a0: 994b d3be 1801 aebc 83ef 63bd e9df e13e
000003b0: 9ce6 3bbe 28d0 243e 26e3 aebc e3f1 b9bd
000003c0: dd4b e2bd b08c 8cbc 742e 55be 2077 de3d
000003d0: baf9 67bf 6d21 12c0 9d17 863d f7c6 3bbd
000003e0: 955b 13be 8e7c 92bc 447e 903e 8c41 21bf
000003f0: dc30 783f ee15 463f 5277 02bd bc0b 3fbd
-0.28115785 -0.6345841 -0.11117157 -0.17672473 -0.21798177 -0.1755704 0.75870556 -0.08860249
-0.50244904 0.08756525 -0.013977995 0.8098781 -0.25291258 0.68698335 0.01909198 -0.3435863
-0.25482112 -0.255792 -0.25039503 0.004451981 -0.21626878 -0.07986579 -0.25331473 0.21663727
0.15065904 -0.25673875 0.08126305 -0.48809338 0.13145694 -0.14161119 -0.4015865 0.5618749
-0.041082837 0.06637881 -0.0650509 -0.19477744 0.01974198 -0.57710284 -0.22634616 -0.30812958
-0.43130267 0.09331189 -0.23651782 0.43967113 -0.26267928 -0.36372718 0.04178666 -0.4207709
-0.27816075 -0.10959445 0.5803096 -0.47681552 -0.2558245 0.009214071 -0.44000342 0.040624842
-0.27221367 -0.042085122 0.61541796 0.11887157 0.19766621 0.084333844 -0.4367437 -0.12455091
-0.13362782 0.044298995 -0.00126725 -0.08137925 -0.00088176463 -0.05876395 -0.13062266 0.06886025
0.046218857 -0.062318467 0.026739774 0.06314499 0.023624614 0.08650083 -0.054612275 0.018794246
-0.006135462 -0.10544701 0.025042336 -0.056226656 0.0056934785 -0.03577208 0.04669534 -0.11612924
-0.12617137 -0.03834588 -0.02998811 -0.06475864 -0.09256872 0.028440071 -0.13916601 -0.12329328
-0.09908661 0.0342653 0.07693671 -0.11686495 -0.14511737 0.049768195 -0.1383048 0.053476278
-0.025248174 0.113877326 -0.050769866 -0.068497635 0.0017035983 0.02467909 0.019565038 0.04598062
0.05083481 -0.0025039613 -0.05440951 0.07347797 0.0650646 0.029483898 0.06645168 0.09366251
-0.012634203 0.010302362 -0.052353512 -0.08554748 0.0894616 -0.14204632 -0.039621886 0.032534763
0.21832258 -0.13050929 0.23201582 3.6575332 -0.11780731 0.012371378 -0.20657326 0.0068458435
-0.020553965 0.018128067 0.027648149 0.29542089 -0.020520091 -0.08155272 0.037749365 -0.0806177
-0.024914647 -0.045968313 -0.0054033836 -0.06759408 0.02550554 -0.03998986 0.012077102 -0.081353195
-0.12704416 -0.013061302 -0.042443022 -0.2074379 0.07604893 -0.5932298 0.28862435 -0.09803382
0.03066172 -0.010920061 -0.022861436 -0.045967273 0.03478369 -0.40017393 0.077096865 -0.009535994
0.27048236 0.10206188 0.08929045 0.4380541 -0.036758136 0.0017323892 0.0158209 0.019399656
1.4417263 -0.024696395 0.24102247 -0.4467547 -0.13139032 0.011760277 4.006619 0.0055144653
0.03105586 0.022690143 -0.120655365 0.17504857 -0.38371792 -0.8084317 0.041107252 -0.03100808
0.89346117 0.29904893 -2.690793 -0.19396095 -0.081478305 -0.1739073 -2.2925925 0.044416685
-0.01737535 0.0060239327 -0.69065166 0.41651377 -0.08323118 -0.072992265 0.12765667 -0.20812438
0.73633426 0.027070437 0.0068374816 -0.09067142 -0.09251914 0.035430674 0.056305185 -0.59467167
-1.2877057 -0.114255644 0.09254141 -2.49554 -5.3275905 0.45754337 0.9454719 -0.2413642
0.26783985 -0.11954667 -0.0446337 -0.04476666 -0.120598786 -2.2711353 1.1523991 -0.077386916
-0.41268614 -0.021240756 -0.055648338 0.44116142 -0.18349689 0.1609503 -0.021348547 -0.09079339
-0.11049626 -0.017156929 -0.20818502 0.10862565 -0.9061543 -2.2832901 0.065474726 -0.045844045
-0.14390405 -0.017881658 0.28221333 -0.6299064 0.96949553 0.7737721 -0.031852074 -0.04664205

l2.bias f4 [64]
00000000: be7d e83c cedb aebd 19be 463d 0d5d 96be
00000010: 8592 cabd 2498 873d 9fcd 633e 6616 0cbe
00000020: 2210 04be 134e cbbd 28e5 ecbd 4f03 f7bc
00000030: 9723 15be f58b 8dbe 32e0 953e 0e6a 8a3e
00000040: fc77 8c3e 4361 f5bd ba9e a33d 5cdc 783d
00000050: 8251 18be 554c 763e f5ca 9e3c 1ff9 29bd
00000060: caa5 453e 0e30 e6bd 7364 f03d b9ab 413e
00000070: 49f5 943e 7c7a 05be b02a 34be 6e6a 23be
00000080: a116 633e e608 b03d 1f08 0ebf 8a11 943d
00000090: 10d4 54be a8a1 c43c 2b42 943e 9362 94be
000000a0: f331 3f3e 9e91 0c3f 497b e7bd 5544 6d3e
000000b0: 5116 953d d857 823e 6167 0ebe a6c9 803e
000000c0: 6658 9b3e e727 d4bc 1f83 a53e d0c1 803e
000000d0: f741 c2bc 9097 9c3d 18d1 b63e c4df 3dbf
000000e0: 2502 823e ca39 ec3c bd76 16be 3cba db3a
000000f0: 10fa 3cbd 1036 233d 5406 e2bc 1426 e93d
0.028380271 -0.08538018 0.048521135 -0.29367867 -0.09891228 0.066208154 0.22246407 -0.1368042
-0.12896779 -0.09927001 -0.115671456 -0.030152945 -0.14564358 -0.2764584 0.2927261 0.27034038
0.2743529 -0.11981442 0.07989259 0.060757026 -0.14874843 0.24052556 0.019383887 -0.041497346
0.19301525 -0.112396345 0.11737909 0.18913163 0.29093388 -0.13035005 -0.17594409 -0.15958568
0.22176601 0.08595447 -0.5548114 0.07229908 -0.2078402 0.024002865 0.28956732 -0.28981456
0.18671398 0.54909694 -0.11302812 0.23170598 0.07279647 0.25457644 -0.13906623 0.25153846
0.3034088 -0.025897933 0.323266 0.25147867 -0.023713095 0.07646096 0.357064 -0.74169564
0.2539226 0.02883615 -0.14693733 0.0016763876 -0.046136916 0.03984648 -0.027590908 0.11384216

l3.weight f4 [1, 64]
00000000: 28f7 15c0 e67c b1bb a9ce 8e40 46d2 eec1
00000010: f8ad ae3b dbec c63e 2198 f83e b84c d7bf
00000020: 4a44 37c1 b961 e0bb e6f9 ed3f 2f3a ee3f
00000030: d928 e6bc 4e9e 9fbf e19c d43e 2ad4 b53e
00000040: 2804 f83e 36ec b0c1 dc90 bbc1 8071 9840
00000050: 1b09 d8bf ff2c e93e 9a35 d23f 5f67 873d
00000060: 1cb7 90bf 664f 13c0 83ac 7a40 afde c13e
00000070: da12 ea3e 8b35 c040 1e11 06bc f685 98bd
00000080: 9103 ff3e 55d8 0ebf 2573 ddc1 63a3 4bbf
00000090: 8f9a 23c1 86fb 12c0 68b3 ff3e 475e bc41
000000a0: 1c7d df3e d7d4 cfbf ddc9 7640 1923 d23e
000000b0: 4867 df3f 97c5 e53e 8408 293d f2ab b43e
000000c0: 13df c03e 3548 27bf 50d1 293f 640e 5c40
000000d0: 62d2 4e40 be6e 1ebf cbab 01c0 04f3 a8c1
000000e0: d5c0 f43e 572b 5040 2a09 9b3d e714 08bf
000000f0: 005e b8bd d063 85bf 9cb4 17c0 b040 2040
-2.3432102 -0.0054165004 4.462727 -29.852673 0.0053307973 0.3885258 0.48553565 -1.6820288
-11.454172 -0.006847587 1.8591888 1.8611506 -0.02809565 -1.2470186 0.4152594 0.3551343
0.4844067 -22.115337 -23.445732 4.763855 -1.6877779 0.45542142 1.6422608 0.06611513
-1.130588 -2.301721 3.9167793 0.37865207 0.45717508 6.006536 -0.008182792 -0.07447426
0.49807408 -0.55798846 -27.681223 -0.79546183 -10.225234 -2.2966018 0.49941564 23.546034
0.43650138 -1.6236829 3.8560708 0.41042402 1.7453394 0.44877312 0.041267887 0.35287434
0.37670192 -0.65344554 0.6633501 3.4383783 3.2315907 -0.6188773 -2.0261104 -21.11866
0.4780337 3.2526453 0.07570107 -0.53156894 -0.09002304 -1.0421085 -2.3703985 2.5039482
