examples/experiments/experiment_88/critic81_4.pth (torch, 32855 bytes, 5 tensors)

l1.weight f4 [64, 54]
-0.044243097 -0.096580826 -0.11525588 0.11351981 0.133286 -0.10294692 -0.06658621 0.042306215
0.0972093 -0.014071703 -0.13526595 0.022642998 -0.0048310747 -0.022312567 0.025058243 0.09119556
-0.10708438 0.09665524 0.02434073 -0.048521183 -0.019271608 -0.10793881 -0.0026791664 0.084886946
0.08586895 0.037073005 -0.07924407 -0.098276906 0.043724388 0.115409926 0.08589641 -0.105057955
-0.039721705 0.07390681 -0.09030042 0.08354172 -0.10323223 -0.0018179717 0.09033374 -0.05409675
0.04022064 -0.11527424 -0.020117523 0.0038252093 0.13053337 -0.044387832 -0.06621037 -0.055506147
-0.10167052 -0.032413952 0.089855745 -0.084469914 0.10683443 0.06532471 -0.16501065 -0.3554076
0.35306394 -0.22294937 0.26557893 -0.055565372 0.30092493 0.2889759 -0.14340615 -0.2527698
0.44339886 -0.03159691 -0.24573113 0.5317524 -0.24892761 0.14018686 0.18257509 -0.09289566
-0.024593977 -0.5655867 -0.41544348 -0.30351982 -0.1498341 0.20821576 0.5683668 -0.43405214
-0.34976527 -0.038275003 -0.9876076 -1.4980505 0.11761666 0.014625984 0.12771536 -0.5029941
-0.22382319 -0.08231415 0.21811149 0.2749515 -0.31046766 0.40129343 0.25385243 -0.07964652
-2.059754 0.7372239 0.3572032 -0.6274435 -2.2443602 -4.0350094 -0.37352955 0.081865616
-0.32277602 1.7078573 0.45998076 0.7470134 -0.00013361579 -0.14880429 0.029248225 0.029914748
0.029339911 0.0313071 -0.09917002 -0.00012344582 -0.01910671 0.059640512 0.005964219 0.08117534
1.1216488 -0.12788616 -0.6214055 -0.09061015 0.09266632 -0.037873637 -0.019815812 -0.22261505
0.033223085 0.02691875 -0.09547843 -0.030765135 -0.12575908 -0.051055867 0.16943046 -0.08763582
-0.0067423917 -0.2805917 0.7218703 -0.14293295 0.2958602 -0.06806525 -0.08024183 -0.022508321
-0.7563716 0.35674655 -0.07217466 -0.52686733 0.7687035 0.6346936 0.3580021 0.4354119
-0.06588708 0.8916682 -0.41557196 0.570427 -7.124339 0.6444486 -3.4303286 0.4361198
0.050994102 -0.013349369 0.3924403 0.2552934 -0.3811141 -0.7398499 -0.33873984 0.010608801
0.5365592 0.16953623 -0.15982908 -0.14687137 0.14576688 0.065594725 3.7383227 -0.22532
-0.12814805 0.3730483 -0.13063397 0.11648067 0.2231134 0.2081295 -0.2187592 0.46835068
-0.13450287 -0.4087616 -0.092101045 0.022104742 0.03815528 -0.63422847 0.20555225 0.19877848
1.2758119 0.22798488 0.008979402 0.19618328 -0.082986556 -0.08821791 -0.775845 1.9858783
0.3993737 -0.36555594 1.0885597 -0.66226983 -0.6883951 -0.68818533 1.0716759 1.2668728
-0.76500696 -0.01604167 -2.0271916 -0.540698 -0.59937066 -0.8981159 -0.36657575 -0.24807857
0.24059138 -0.2773084 0.18244776 -0.23382425 0.28921744 0.1552333 -0.07683913 -0.29413116
0.008635323 0.4307859 0.056187335 0.12909257 -0.3536559 0.45804626 -0.0135494815 -0.16822653
0.29293445 0.096505515 -0.5019277 0.18684529 -0.1345831 0.23814256 0.603409 0.26832628
-1.1386093 -0.5279628 0.40819508 0.2645252 -0.4640002 -0.6242036 -0.085650615 0.57987523
-0.33251882 0.60679305 -0.3948524 -0.1555487 -0.39273024 -0.31387693 0.79309446 -0.67988247
00000000: 4038 35bd 2bcc c5bd 460b ecbd 137d e83d
00000010: 207c 083e d6d5 d2bd 5a5e 88bd 4849 2d3d
00000020: ab15 c73d 008d 66bc 2883 0abe cf7d b93c
00000030: fe4d 9ebb d8c8 b6bc f246 cd3c bdc4 ba3d
00000040: 0e4f dbbd 2ff3 c53d 3666 c73c 26be 46bd
00000050: 7edf 9dbc 060f ddbd f494 2fbb 35d9 ad3d
00000060: 0fdc af3d ddd9 173d b74a a2bd 6745 c9bd
00000070: 5818 333d 0a5c ec3d 75ea af3d a028 d7bd
00000080: 3ab3 22bd 745c 973d 6def b8bd ec17 ab3d
00000090: 6b6b d3bd 0249 eeba e500 b93d 8e94 5dbd
000000a0: 66be 243d e714 ecbd 81cd a4bc 5db0 7a3b
000000b0: 8aaa 053e 04d0 35bd 4d99 87bd 6a5a 63bd
000000c0: a238 d0bd 7ec4 04bd 4a06 b83d 90fe acbd
000000d0: 02cc da3d f6c8 853d 8df8 28be fcf7 b5be
000000e0: ccc4 b43e d74c 64be f6f9 873e 8498 63bd
000000f0: d512 9a3e a6f4 933e 10d9 12be 0b6b 81be
00000100: 2d05 e33e c36b 01bd f1a0 7bbe ed20 083f
00000110: e1e6 7ebe 258d 0f3e f7f4 3a3e 1440 bebd
00000120: 4f79 c9bc 4aca 10bf 02b5 d4be f366 9bbe
00000130: 1c6e 19be 8336 553e 7d80 113f 153c debe
00000140: 6f14 b3be 40c6 1cbd dad3 7cbf 1ec0 bfbf
00000150: 01e1 f03d d3a1 6f3c d1c7 023e 39c4 00bf
00000160: e831 65be 5294 a8bd 9e58 5f3e 71c6 8c3e
00000170: 9ef5 9ebe 5576 cd3e f2f8 813e b71d a3bd
00000180: 02d3 03c0 b5ba 3c3f 56e3 b63e 23a0 20bf
00000190: 99a3 0fc0 cc1e 81c0 443f bfbe 29a9 a73d
000001a0: e642 a5be 119b da3f 9982 eb3e 453c 3f3f
000001b0: 371b 0cb9 2760 18be f999 ef3c c60f f53c
000001c0: 415a f03c e03b 003d a719 cbbd 3c71 01b9
000001d0: ad85 9cbc 9c49 743d 7f6f c33b 423f a63d
000001e0: 3092 8f3f 97f4 02be 6e14 1fbf d091 b9bd
000001f0: d7c7 bd3d 6321 1bbd c554 a2bc 33f5 63be
00000200: ee14 083d b684 dc3c 328a c3bd 2a07 fcbc
00000210: fdc6 00be f51f 51bd 2e7f 2d3e 697a b3bd
00000220: 48ef dcbb b7a9 8fbe 7ecc 383f 045d 12be
00000230: fd7a 973e cb65 8bbd d455 a4bd 5f63 b8bc
00000240: 92a1 41bf 7ca7 b63e 4fd0 93bd c7e0 06bf
00000250: c1c9 443f 487b 223f 0d4c b73e 4fee de3e
00000260: ceef 86bd 5e44 643f d9c5 d4be 8107 123f
00000270: 96fa e3c0 95fa 243f 818a 5bc0 184b df3e
00000280: 31df 503d 50b7 5abc efed c83e d1b5 823e
00000290: 6321 c3be ce66 3dbf 4f6f adbe 89d0 2d3c
000002a0: f25b 093f e89a 2d3e 3caa 23be 7365 16be
000002b0: ea43 153e 8756 863d ae40 6f40 49ba 66be
000002c0: 3e39 03be 3000 bf3e e9c4 05be 6b8d ee3d
000002d0: d777 643e e61f 553e 6902 60be a9cb ef3e
000002e0: 1fbb 09be 3349 d1be 799f bcbd 0115 b53c
000002f0: b648 1c3d cc5c 22bf 4a7c 523e 968c 4b3e
00000300: ce4d a33f de74 693e 571e 133c 45e4 483e
00000310: dbf4 a9bd 97ab b4bd c79d 46bf 4331 fe3f
00000320: b67a cc3e 262a bbbe ed55 8b3f 848a 29bf
00000330: a93a 30bf ea2c 30bf ad2c 893f e328 a23f
00000340: 7fd7 43bf d269 83bc 82bd 01c0 2f6b 0abf
00000350: 5b70 19bf ecea 65bf d1af bbbe 4f08 7ebe
00000360: 965d 763e 5efb 8dbe 96d3 3a3e a06f 6fbe
00000370: 4f14 943e 7af5 1e3e d55d 9dbd 5c98 96be
00000380: 2b7b 0d3c f88f dc3e b124 663d d830 043e
00000390: 6312 b5be 0a85 ea3e a5fe 5dbc 9343 2cbe
000003a0: 81fb 953e afa4 c53d 557e 00bf 5f54 3f3e
000003b0: 27d0 09be a5db 733e 0379 1a3f 1062 893e
000003c0: f3bd 91bf 9228 07bf f2fe d03e d96f 873e
000003d0: 6f91 edbe cfcb 1fbf 9769 afbd b472 143f
000003e0: e83f aabe ca56 1b3f 182a cabe 2948 1fbe
000003f0: f013 c9be 7ab4 a0be 3d08 4b3f c70c 2ebf

l1.bias f4 [64]
-0.10823281 0.06693703 0.20343958 0.018858178 -0.029493742 -0.109430715 0.32079008 0.067168914
-0.07546032 -0.004592275 0.049489163 0.3603846 -0.012000321 -0.00430311 0.13144127 -0.0084702
0.017235115 -0.05561079 0.02619949 -0.0071805543 0.06590177 -0.005775972 -0.169222 -0.13103727
0.11114467 0.01826288 -0.21453539 -0.019998971 0.27070296 -0.0718432 -0.0047298158 -0.013371501
-0.003951616 -0.0013619398 -0.06665986 -0.012773144 -0.11136443 -0.006430078 -0.12316554 -0.0954892
0.06096897 0.11059839 -0.12676558 -0.0055833636 -0.2175653 0.020023715 -0.010425009 0.012580054
0.26392838 0.04041006 -0.0079807155 -0.11185881 0.04720378 0.0977381 -0.005451687 -0.03779923
-0.07021057 0.31071788 -0.008436846 -0.101443954 0.26433945 0.111556195 -0.010336303 -0.05014352
00000000: 2aa9 ddbd 4816 893d 7752 503e 777c 9a3c
00000010: dc9c f1bc 361d e0bd 993e a43e db8f 893d
00000020: f18a 9abd cb7a 96bb 26b5 4a3d 5584 b83e
00000030: ff9c 44bc 1a01 8dbb 8a98 063e 98c6 0abc
00000040: a830 8d3c 24c8 63bd 50a0 d63c db4a ebbb
00000050: 82f7 863d 5d44 bdbb 8848 2dbe a22e 06be
00000060: d19f e33d 099c 953c 2aaf 5bbe e2d4 a3bc
00000070: 9499 8a3e 8722 93bd 92fc 9abb 2414 5bbc
00000080: 8f7c 81bb 1e83 b2ba f784 88bd 7346 51bc
00000090: 0913 e4bd 67b3 d2bb 373e fcbd d78f c3bd
000000a0: 99ba 793d 6981 e23d d6ce 01be a6f4 b6bb
000000b0: 70c9 5ebe c608 a43c a8cd 2abc 921c 4e3c
000000c0: 9f21 873e 0585 253d 8cc1 02bc 3b16 e5bd
000000d0: c058 413d ea2a c83d 11a4 b2bb 5ed3 1abd
000000e0: 8fca 8fbd 6a16 9f3e b23a 0abc d9c1 cfbd
000000f0: 8057 873e 9377 e43d 9959 29bc 4b63 4dbd

l2.weight f4 [64, 64]
-0.104342505 -0.050187234 -0.2574658 0.0009804287 0.15300621 -0.12946728 -0.28151417 -0.05391707
-0.015934981 -0.7018898 -0.09974765 0.30747712 -0.19686933 -4.2357044 0.34082276 -2.6091707
-1.9863539 -0.2877439 -0.075969726 -0.7816206 -0.4236849 -1.1612195 0.8024759 -0.043368414
-0.044126377 0.1097772 -1.6207 -0.53640664 0.09985009 -0.008595605 0.05996698 0.45339534
-5.449324 -0.8263368 0.6371038 0.54382414 0.09490732 -0.36872733 -0.047524065 0.08381898
0.397564 -0.106066406 0.07939945 -0.5531109 -0.17884491 0.019821256 -1.7231275 -0.52988374
0.20398718 0.38216597 -2.1489708 0.054498464 -0.42039832 0.34338704 0.037536707 -0.0722463
0.053773496 -0.15724258 -8.851885 -0.039940126 -0.18687454 0.35923553 -0.04519602 -0.15889446
-0.03977017 -0.1741738 -0.4934696 0.047312766 -0.016295383 0.02788487 -0.46624085 -0.119356014
-0.052527856 -0.5183184 -0.03194324 0.74262375 -0.1107824 -0.37839252 0.7290469 -1.9591404
0.16283143 -0.09308623 -0.82078576 0.058624495 0.09063885 -1.057256 0.31406167 -0.033376202
-5.4320706e-05 -0.031581167 -1.0465425 -1.3703694 -1.8026338 0.05263501 0.036006477 0.19968492
-0.03362106 -0.22527646 0.46974462 -1.1105729 -0.091211304 -0.049096894 -0.011037245 0.10533826
0.14012194 -0.0020546576 -0.040887803 0.066938415 -0.111855686 -0.19509985 -0.5306121 -0.18529323
0.3729379 -0.024460599 -0.18218696 0.10479097 0.043826077 0.06180107 0.20061386 0.050874144
-0.09950191 0.9909403 -0.3140534 -0.09615467 -0.11208933 -0.55389565 -0.5646561 0.10264316
0.052226752 0.2686796 -0.22924285 0.14884007 0.14903112 -0.049237322 0.48093924 -0.027167803
-0.30981395 -0.017081195 0.11310441 0.48805076 1.0596939 0.07670118 -0.65583646 0.40530157
0.019249497 -0.2414257 -0.18419717 0.11905052 0.08258537 -0.21793413 0.56576365 0.045549065
0.06305415 0.10785646 0.40533954 0.35147518 0.43893346 0.22781958 0.06998827 0.54201865
-0.049862728 0.2883064 -0.5846785 0.38862073 0.11051662 -1.6492878 -0.116122484 0.029355787
-0.08307746 -0.03982885 -0.043696098 0.2989887 -0.04579845 -0.056260176 0.25334352 1.603997
0.14532961 -0.047779303 0.21529533 0.04181727 0.003674502 0.46958596 0.24020486 -1.8181483
0.08106008 0.4660172 0.19335712 -0.019994028 -0.30298236 0.3189333 -0.10194668 0.07909288
-0.04911673 -0.068179116 0.038034253 0.011598602 0.05223149 0.04133962 -0.13160866 -0.12275076
-0.023474088 0.01403106 -0.124961995 -0.043336514 0.08366511 -0.046576917 -0.020630926 -0.059693735
-0.013384137 0.020134881 -0.015280858 0.01890329 -0.11856008 -0.12094498 0.1012817 0.094221786
-0.064524695 -0.04461532 0.051094674 -0.012215103 0.08938312 0.010278485 -0.041129235 -0.12634711
-0.07024679 0.05736556 0.036667887 -0.028342985 0.016452655 -0.094759636 -0.101846784 0.08063419
0.04383879 0.082045004 0.118512526 -0.080257595 0.06064387 -0.10289876 -0.034053415 -0.080055095
-0.14360282 0.09050302 -0.11486961 -0.032574236 0.09054749 0.048826978 -0.11103469 -0.0925653
-0.11756339 -0.12696998 0.007718548 -0.073661715 -0.124593765 0.08507761 0.010946322 0.019177137
00000000: 86b1 d5bd 2191 4dbd 8fd2 83be ba81 803a
00000010: a9ad 1c3e 1293 04be a022 90be 25d8 5cbd
00000020: 148a 82bc 0daf 33bf 7f48 ccbd a46d 9d3e
00000030: 1d98 49be e48a 87c0 5280 ae3e a7fc 26c0
00000040: d840 febf 2b53 93be 0496 9bbd 4a18 48bf
00000050: 3aed d8be d7a2 94bf 106f 4d3f 14a3 31bd
00000060: dcbd 34bd ded2 e03d 1973 cfbf f251 09bf
00000070: 347e cc3d 95d4 0cbc f09f 753d 6f23 e83e
00000080: dd60 aec0 cf8a 53bf 3c19 233f 0f38 0b3f
00000090: c55e c23d d4c9 bcbe 98a8 42bd 49a9 ab3d
000000a0: 828d cb3e 5839 d9bd 2e9c a23d ad98 0dbf
000000b0: 1f23 37be 3060 a23c 718f dcbf 76a6 07bf
000000c0: 04e2 503e 42ab c33e bd88 09c0 c839 5f3d
000000d0: 733e d7be 6dd0 af3e 17c0 193d def5 93bd
000000e0: 9941 5c3d 3304 21be 52a1 0dc1 4298 23bd
000000f0: 0a5c 3fbe b8ed b73e 761f 39bd 3bb5 22be
00000100: 0ce6 22bd 9e5a 32be 0ca8 fcbe 08cb 413d
00000110: e57d 85bc d06e e43c 1fb7 eebe ed70 f4bd
00000120: 7327 57bd 84b0 04bf ead6 02bd 971c 3e3f
00000130: e2e1 e2bd aabc c1be d1a2 3a3f 1dc5 fabf
00000140: 48bd 263e fea3 bebd 041f 52bf 3d20 703d
00000150: dda0 b93d 2a54 87bf b1cc a03e 7cb5 08bd
00000160: 6ad6 63b8 415b 01bd 1bf5 85bf 4468 afbf
00000170: b4bc e6bf cf97 573d 877b 133d 347a 4c3e
00000180: 3db6 09bd dfae 66be 5e82 f03e 4127 8ebf
00000190: fecc babd d319 49bd 90d5 34bc 96bb d73d
000001a0: 207c 0f3e 6fa7 06bb f879 27bd 0217 893d
000001b0: 9814 e5bd 41c8 47be 32d6 07bf 82bd 3dbe
000001c0: b7f1 be3e 9861 c8bc 388f 3abe a69c d63d
000001d0: f982 333d 1e23 7d3d b86d 4d3e 6861 503d
000001e0: a8c7 cbbd 43ae 7d3f 9bcb a0be bdec c4bd
000001f0: 178f e5bd 1bcc 0dbf 4d8d 10bf 9436 d23d
00000200: b8eb 553d 5f90 893e a3be 6abe 8869 183e
00000210: 9d9b 183e 13ad 49bd ab3d f63e 038f debc
00000220: ef9f 9ebe dded 8bbc 49a3 e73d cae1 f93e
00000230: 0da4 873f 8215 9d3d e6e4 27bf b083 cf3e
00000240: 1fb1 9d3c 4c38 77be 2f9e 3cbe c2d0 f33d
00000250: 8522 a93d 202a 5fbe e3d5 103f a891 3a3d
00000260: 8922 813d d9e3 dc3d aa88 cf3e 8ef4 b33e
00000270: e3bb e03e 8949 693e 0356 8f3d bcc1 0a3f
00000280: dc3c 4cbd e59c 933e 7dad 15bf 4cf9 c63e
00000290: 8a56 e23d dd1b d3bf a0d1 edbd 8c7b f03c
000002a0: 8424 aabd 9423 23bd aefa 32bd 0c15 993e
000002b0: 2897 3bbd 1271 66bd 3eb6 813e c64f cd3f
000002c0: 49d1 143e 3bb4 43bd 6176 5c3e 9648 2b3d
000002d0: eacf 703b 926d f03e 43f8 753e 15b9 e8bf
000002e0: d402 a63d ce99 ee3e 69ff 453e 84ca a3bc
000002f0: 8120 9bbe 3a4b a33e 6cc9 d0bd 73fb a13d
00000300: a02e 49bd 7ea1 8bbd cec9 1b3d 1008 3e3c
00000310: b0f0 553d bc53 293d 6cc4 06be c064 fbbd
00000320: bb4c c0bc 88e2 653c 13ec ffbd a181 31bd
00000330: 9d58 ab3d 70c7 3ebd 3002 a9bc 6b81 74bd
00000340: 2449 5bbc e8f1 a43c 905c 7abc 13db 9a3c
00000350: a1cf f2bd 00b2 f7bd c86c cf3d 5af7 c03d
00000360: 8625 84bd 8ebe 36bd a648 513d db21 48bc
00000370: 7f0e b73d 1767 283c 2177 28bd 2361 01be
00000380: 8ddd 8fbd 26f8 6a3d 1131 163d 8c2f e8bc
00000390: b8c7 863c 5711 c2bd 0c95 d0bd 8a23 a53d
000003a0: 4e90 333d 3607 a83d b2b6 f23d 185e a4bd
000003b0: b565 783d 96bc d2bd 987b 0bbd edf3 a3bd
000003c0: 9e0c 13be a659 b93d c240 ebbd 906c 05bd
000003d0: f670 b93d ccfe 473d 2866 e3bd e092 bdbd
000003e0: 13c5 f0bd 6b04 02be e0eb fc3b f4db 96bd
000003f0: 042b ffbd 2c3d ae3d 3458 333c 5f19 9d3c

l2.bias f4 [64]
0.18387155 0.121127255 -0.047127742 -0.13152595 0.62951654 0.16030845 -0.4258779 0.12987152
-0.39642444 -0.06971193 -1.039867 -0.16381973 -1.0732399 -0.023196312 0.26149368 -0.08229022
0.072251044 -0.09551136 -0.33496493 0.39022645 0.36290318 0.36223176 -0.32091674 0.0772872
-0.5909323 0.02764293 0.09808433 0.05004868 -0.057227682 0.26763868 0.20599912 -0.07332773
0.2570509 0.14228854 0.10558146 -0.903943 -0.4537434 0.24133146 0.29484522 -0.24250029
0.0882039 0.38573188 0.25731397 -0.4451669 0.2861924 0.21606284 0.13777682 0.05814629
0.07047254 0.28531134 -0.07831581 -0.24050593 0.20113856 0.12218081 -0.279926 -0.2950602
0.3377379 0.016426105 -0.117719635 0.019434588 0.27322838 0.3129812 -0.12388935 0.2614002
00000000: d348 3c3e 9111 f83d 0509 41bd bdae 06be
00000010: ff27 213f e627 243e ab0c dabe 0afd 043e
00000020: 25f8 cabe 21c5 8ebd 5d1a 85bf 5cc0 27be
00000030: ed5f 89bf 3106 bebc 80e2 853e c687 a8bd
00000040: 5bf8 933d 769b c3bd 8680 abbe c3cb c73e
00000050: 72ce b93e 7176 b93e 334f a4be c048 9e3d
00000060: 5747 17bf 6d73 e23c 70e0 c83d d8ff 4c3d
00000070: 9367 6abd f007 893e 6ff1 523e d92c 96bd
00000080: 2d9c 833e 16b4 113e 183b d83d cf68 67bf
00000090: 0e51 e8be 981f 773e f4f5 963e ff51 78be
000000a0: 3fa4 b43d a67e c53e a8be 833e eaec e3be
000000b0: cf87 923e 943f 5d3e 5e15 0d3e ce2a 6e3d
000000c0: e853 903d 5414 923e 0a64 a0bd 3047 76be
000000d0: 44f7 4d3e ef39 fa3d 7652 8fbe 2112 97be
000000e0: fbeb ac3e 0a90 863c fe16 f1bd 4935 9f3c
000000f0: 97e4 8b3e 123f a03e b3b9 fdbd 3fd6 853e

l3.weight f4 [1, 64]
0.9965844 -4.02362 -1.5272535 0.056529913 0.93714947 1.5544566 -0.9310998 1.3262765
-1.3822222 1.445682 -18.934263 -1.0441983 -21.11562 -4.790384 0.557969 -4.1173673
22.910095 3.3163617 -0.5585542 0.68956053 0.32329005 2.3427846 -1.7928383 -1.7531948
25.179697 2.0472422 22.61348 4.194312 2.36881 0.2950849 0.25156188 -0.6741496
0.28019994 -1.345697 1.415535 -34.406425 1.6476897 -1.5323391 0.40429446 -0.85973394
23.525133 0.7358172 0.26588205 -0.49262828 0.63019264 2.2849677 0.22926034 -1.3355023
19.623783 0.38079512 1.915749 -1.0640291 17.531376 0.17648457 -22.651955 -32.155975
0.41731605 -2.2150881 0.0032243538 -1.3325534 0.4739257 0.40099815 0.043024477 0.29469523
00000000: 2820 7f3f 7fc1 80c0 0b7d c3bf e98b 673d
00000010: 07e9 6f3f 6ff8 c63f 8e5c 6ebf 6ec3 a93f
00000020: a8ec b0bf 1c0c b93f 5f79 97c1 4aa8 85bf
00000030: caec a8c1 d34a 99c0 0ed7 0e3f 79c1 83c0
00000040: e047 b741 453f 5440 68fd 0ebf 0a87 303f
00000050: 4686 a53e 2ff0 1540 ba7b e5bf b068 e0bf
00000060: 0570 c941 0406 0340 68e8 b441 ce37 8640
00000070: 959a 1740 5e15 973e b8cc 803e 1195 2cbf
00000080: 5e76 8f3e cd3f acbf 4030 b53f 2ea0 09c2
00000090: 7fe7 d23f b023 c4bf afff ce3e 8617 5cbf
000000a0: 7933 bc41 845e 3c3f b121 883e c639 fcbe
000000b0: 4e54 213f e93c 1240 39c3 6a3e bdf1 aabf
000000c0: 82fd 9c41 94f7 c23e 4337 f53f 1b32 88bf
000000d0: 4240 8c41 5fb8 343e 3437 b5c1 b89f 00c2
000000e0: 73aa d53e 01c4 0dc0 ae4f 533b 1c91 aabf
000000f0: 64a6 f23e a14f cd3e 6f3a 303d 4be2 963e
