examples/experiments/experiment_97/actor34_2.pth (torch, 28759 bytes, 6 tensors)

l1.weight f4 [64, 36]
00000000: 11f5 f7be 7438 2a3d bcef bb3d ed55 6d3d
00000010: 4774 34ba c80b 57be 675f e5be 6e0f 62bf
00000020: d6ea 5ec0 1ebc 85bc d6ea cebd b7ec 1e3d
00000030: 43ca b13c 3fde 52bd b9bf 0cbd cf32 50be
00000040: a899 373e 452d 2cbe 803d 9cbd 8e87 acbd
00000050: 693a 9fbc a1e7 9d3d 8e34 91bd 0392 7bbd
00000060: 7054 e53d e4c3 9b3d 191b 0a3e 8f79 64bd
00000070: 0c9e 023e 2a1d 25be 126c 3fbe 6ef2 763d
00000080: b0e4 3c3c fd93 cc3d 4c50 abbc 596c 59bd
00000090: 7f9d dcbe c9e7 15be 792f 21bd 5649 32bd
000000a0: 7514 2d3d 2eba 923c 2120 0c40 99cb e93e
000000b0: 4360 44c0 81db 32bf 5600 f53d 9ec1 58be
000000c0: 81d6 c5be ab7a c8bd ef14 a63c fba5 04be
000000d0: 9f0b a4ba 06b6 25bd be4e 1d3e c843 5dbd
000000e0: 80c0 c6bd d6b6 4fbd 93dd 3abd 7edf 1dbe
000000f0: f977 a43d 848b 893d 5e14 263e 3b8e 033e
00000100: 888b 3dbe ccca 8fbb 7e05 6a3e 1b61 9bbd
00000110: 0cc0 c03d b3e5 d23e a717 60bd 98a7 1a3c
00000120: 45e7 8dbd 51f7 86be 6592 9e3d 9e8d 3c3d
00000130: 180e ad3d 9fd1 563c 5e34 ad40 052d f53f
00000140: b4be a53f 0ca4 a2bd 163a 743c 024a 05bd
00000150: fbfa dbbd 7ed7 6dbd f322 99bd 8407 e1bd
00000160: 9140 c0bd 7d07 f9bc 6c05 85bc 32ea 13be
00000170: a8c7 0b3c a1e3 bf3d 49bb 9cbd caf7 60bd
00000180: 1c57 60bd ad29 713c 7aeb fa3d a02a 8cbb
00000190: 968d 183c d1fe 54bd c52e 3e3d 3ae1 403d
000001a0: e79a 6b3d 8398 823d 4232 e4bd 1ed6 e7bb
000001b0: 6f1d 5bbe 0d10 a53c 051e 7e3e 3180 86bc
000001c0: ad2a 623c 61c9 fb3d 8c41 c03f f3ad 9fc0
000001d0: 185b 843d d9ce 90be bcc4 fd3c 1999 cfbc
000001e0: 2db3 f4bd cc92 093e 4695 803d f61a a83d
000001f0: 9aa4 80be 3c7d debd d49e 96be 3054 f8bd
00000200: c1d6 aa3d db4a 433e fa7d 263d 7bf5 0c3e
00000210: ca04 d33d 928a a0be cd78 0cbe 0793 153c
00000220: a4ae d73d 34dd 77be ecbb 353e a09c 2ebd
00000230: 03d5 1c3e 2530 f23d 63fc 0c3e 4e82 74bc
00000240: 7d20 a5be 91bf 4a3d dc0e 0a3d 89d1 273d
00000250: d8aa 1fbe 2fb2 adbd 36b7 0b40 2ff1 4f40
00000260: eefa d9be da1d cbbd 3c02 403e 20ba 1e3e
00000270: d847 43be d539 58be 166e 8abb c37d 713d
00000280: fdf2 533d 30dc aa3c f879 913e 2134 b5bd
00000290: 82d9 173e b144 20be ec2b adbd 4883 c43d
000002a0: 0750 1c3c d10d dc3d d3e1 403c 104c 4c3e
000002b0: 6f72 993d 9787 b5bd 60e3 473e 0961 e13d
000002c0: 5307 f2bc e15f 2a3e b684 24be 24b2 7bbe
000002d0: cfda 85bd 7bb1 043f 6259 6f3e edc4 be3b
000002e0: 8bce 95bd df2c 01bc 20f2 8440 fac8 b3c0
000002f0: 9bee 3ebf 208a 313e 99b1 283d 169e fc3c
00000300: 377d 3d3e 04ae 19bd c570 3c3d 6c0a 88bc
00000310: 1ec2 6f3e 568b 953d 5a3b 49bd 40bc 2abd
00000320: 84d5 d7bc c778 4abe cd4b 06bd ccbf 1a3d
00000330: ecc4 44bd 0546 dd3c 23f3 c53d b025 24be
00000340: 2e2f 8a3d 6f9d b23b fa32 6cbe 1f81 743d
00000350: 5864 623c b1cc 45bd cebb 323e e160 10be
00000360: e0e4 49bb ebc9 08be 3a31 fdbd 9ab4 723b
00000370: fd49 bfbd fb97 073e ceff a23d 7f65 113e
00000380: 99c1 d53d 799d ecbd 017f 04be 507a b5bd
00000390: e5a2 1c3e 05d6 f9bd 7214 0a3e 3206 57bd
000003a0: 1eec cdbd e4d9 d53d 72ab e33d 01f6 efbd
000003b0: 84cf 1abd 527d ba3d d353 0c3e 169c c4bd
000003c0: 7be0 0d3d f64e f83c 0d0f b5bd 0965 0cbe
000003d0: ffd2 253d b745 013e f05d 163e 50e5 183d
000003e0: 1589 ecbd 0ab5 61bb dea3 83bd 2643 16be
000003f0: 97d8 cc3f 7075 39bd 5b04 1f3e da4b 853d
-0.48429158 0.041557744 0.09176585 0.057943273 -0.0006883782 -0.21000588 -0.4479935 -0.88304794
-3.4830832 -0.016325053 -0.10103385 0.038799968 0.021702891 -0.05148148 -0.03436253 -0.20331882
0.17929709 -0.16814144 -0.07628918 -0.084242925 -0.019437032 0.07710195 -0.07090102 -0.061418545
0.11197746 0.076057225 0.134869 -0.05577999 0.12755603 -0.16124406 -0.1869357 0.060289793
0.011529133 0.09989164 -0.020912312 -0.053081844 -0.4308891 -0.146392 -0.039351914 -0.04352697
0.042255837 0.017911043 2.189461 0.45663145 -3.0683753 -0.69866186 0.11962955 -0.21167609
-0.38640216 -0.09789022 0.020273654 -0.12953942 -0.001251567 -0.040456794 0.15362069 -0.05401972
-0.09704685 -0.050711475 -0.045621466 -0.15417287 0.080306955 0.067160636 0.16218707 0.12847225
-0.18510258 -0.004388189 0.22853658 -0.07586881 0.0941163 0.41190872 -0.054710057 0.0094393715
-0.06928877 -0.26360562 0.07742766 0.046033494 0.08449954 0.013111501 5.4126425 1.9154364
1.2948823 -0.07941446 0.014906427 -0.032541282 -0.1074123 -0.058066837 -0.07477369 -0.109877616
-0.09387315 -0.030399079 -0.016237937 -0.14444807 0.0085314885 0.09369589 -0.07652909 -0.05492381
-0.054770574 0.014719409 0.12251945 -0.0042775422 0.0093111005 -0.052000824 0.04643132 0.047089793
0.057520773 0.063767456 -0.111423984 -0.0070750853 -0.21397947 0.020149255 0.24816139 -0.016418548
0.01380412 0.12294269 1.5020003 -4.989984 0.06462687 -0.28282812 0.0309776 -0.025341557
-0.119482376 0.13434905 0.06278472 0.082082674 -0.2512558 -0.1086373 -0.2941805 -0.121254325
0.08341742 0.19071524 0.040647484 0.13765518 0.10303648 -0.3135572 -0.13717957 0.009129292
0.10531357 -0.24205476 0.17747468 -0.042629838 0.15315633 0.11825589 0.13768153 -0.014923645
-0.3225135 0.0494991 0.033705577 0.040971313 -0.15592515 -0.084812514 2.1830573 3.2490957
-0.42574257 -0.09917803 0.18750852 0.15500689 -0.19070375 -0.21115811 -0.004224549 0.058957826
0.051745404 0.020856947 0.28413367 -0.088478334 0.14829066 -0.15651204 -0.08455643 0.095953524
0.009540564 0.10744823 0.011772591 0.1995089 0.074925296 -0.08863752 0.1952033 0.11004836
-0.029544508 0.16638137 -0.1606625 -0.24579674 -0.06535875 0.51833314 0.2337394 0.005821815
-0.073147856 -0.007884233 4.1545563 -5.6182833 -0.74582833 0.17337847 0.041184995 0.0308371
0.18504797 -0.03751947 0.046005983 -0.016606532 0.23413894 0.07301967 -0.049128868 -0.041683435
-0.02634693 -0.19772635 -0.032787133 0.037780568 -0.04803936 0.027010927 0.09665515 -0.16030002
0.0674728 0.0054508965 -0.23066321 0.059693452 0.013817869 -0.048290912 0.17454454 -0.14099456
-0.0030806586 -0.13358276 -0.12362905 0.0037033916 -0.09340284 0.1324157 0.07958947 0.14198874
0.104373164 -0.11553473 -0.12939073 -0.0886122 0.15296514 -0.12199024 0.13484362 -0.052496143
-0.100548014 0.1044195 0.11116685 -0.117168434 -0.03779556 0.09105934 0.13703851 -0.096000835
0.03463791 0.030311089 -0.08840761 -0.13710417 0.040484425 0.1262425 0.14684272 0.037328064
-0.11549584 -0.0034440183 -0.064277396 -0.14674053 1.6003598 -0.045278013 0.15529005 0.06508608

l1.bias f4 [64]
00000000: 4af0 493d e97e 433d b416 693d 55b0 683d
00000010: f692 8a3d 09b0 e63d 771b aabd 1f39 c63d
00000020: 879f 77bd 7f2d dc3d fb33 aa3d 9f80 203e
00000030: 5181 993d b6b4 2dbe 53be c3bd f98f 6f3d
00000040: 7a8e c43d 4049 d1bd 9743 c93d 3e53 203e
00000050: 4404 bf3d 418c 343e 186b ac3d f160 d93d
00000060: 9fa2 c93d 218e d93d a370 26be ac35 3d3e
00000070: 8096 403e 3be8 1ebe bb79 f0bd 26ef b9bd
00000080: f9c9 cd3d ef72 e03d bda8 a1be 470b cd3d
00000090: 10fc 873d 9a04 06bd ced9 823d f33e f73d
000000a0: 521b 203e 6e31 8a3d 83fc 973d 1530 da3d
000000b0: 558d 06be 2c0a 0bbe ef33 dd3d 473d 16be
000000c0: d111 a43d fbdb bd3d 491c 57be 6fe5 573d
000000d0: 0cea 233d 3164 bf3d 70ac 243e c7cd 553d
000000e0: 73d1 583d ab84 073c 9d50 2c3e 38f4 b43d
000000f0: cf02 fb3d 9c3f ef3d 52e2 103e 0996 aa3d
0.049301423 0.047728453 0.056906417 0.05680879 0.06766312 0.11264045 -0.0830602 0.09678864
-0.06045487 0.10750865 0.08310696 0.15674065 0.07495368 -0.16963467 -0.09557786 0.058486912
0.09597488 -0.102190495 0.09827345 0.15656754 0.093269855 0.17631628 0.08418864 0.10614193
0.09845471 0.10622812 -0.16253905 0.18477505 0.18807411 -0.15518276 -0.11741968 -0.09078817
0.10048289 0.10959422 -0.3157405 0.100119166 0.06639874 -0.032719232 0.06389199 0.120725535
0.15635422 0.06747709 0.0742121 0.10653702 -0.13139851 -0.13578099 0.10800921 -0.14671813
0.08011211 0.092704736 -0.21006884 0.05270904 0.040018126 0.09345282 0.16081405 0.052198198
0.05293412 0.008271377 0.16827627 0.088356435 0.12256395 0.116820544 0.14148834 0.08329398

l2.weight f4 [64, 64]
00000000: 19e3 47bd 6b05 9ebc 25b6 7ebd 10ea a1bd
00000010: 9845 473b 5dee ae3d 2caa 40bd 523b 91bd
00000020: aea7 b43d e30e 49bd 7f61 8a3a 3e50 27bd
00000030: df3d dc3c 003e 753a 5290 91bd 4616 213d
00000040: c6fa c4bc c092 babd 4fd9 38bd 0250 eb3a
00000050: eb72 72bd 5128 203d bf8c d5bc e795 5b3d
00000060: f827 a93c cb1c 853d c2de e8bd 0c43 59bd
00000070: 7b8a c5bc fc41 edbd c013 9fbb b5e7 bfbd
00000080: 87c2 8c3d 70fa 8b3d 954f f2bc ffdf 85bd
00000090: 5f02 b73c a837 c53d 638c b63d 2dad 00be
000000a0: 65af 4d3c 04bc aa3d 1eb7 123d 8a11 11bd
000000b0: 180b a1bd 862b 9c3d 9727 9fbd 58f5 9f3c
000000c0: bde5 c43c 99dd 02bc 4b2c bcbd 3351 58bd
000000d0: 1efa a7bd 7360 82bd 3d8d 99bd f066 c83d
000000e0: 893e bb3c dc72 b63d 0e55 cbbd 8968 25bc
000000f0: 848a c9bd d976 b2bd 154d dc3d 2184 bfbc
00000100: 3aef 39be 5a66 99be d04c 3d3e a874 053f
00000110: 4d82 113c d070 463f 1e17 f5bb 4ec6 813e
00000120: 2f78 cc3f 4954 68bd 85f0 93bd d5ee abbb
00000130: 5f55 6cbe 4e2c e83d 282b c73d 5297 3bbd
00000140: 8f76 79be a2d5 413c b2dd 193e 9541 ae3d
00000150: a9df c6bd fedc 033d f539 bc3d 42fa 8b3d
00000160: 8373 1e3e 3b6d dd3d 18bb c2bd 4037 8fbe
00000170: 9d99 3cbd a842 213d f08b 3d3c a65e 093d
00000180: 37b2 203e bf86 f03e b7f7 7940 7b34 3abe
00000190: adc8 e43c 025f 63be 4f58 4dbe cc44 853c
000001a0: 195e ef3e 58c1 cb3d c798 a1bd f22d bebd
000001b0: 0899 debd 3835 013d 78a5 043e 85ad 643c
000001c0: 97e6 963d f707 873d 914d 6740 b096 9f3a
000001d0: ad85 73be 05d5 b7bc e8cc 803c 340b f83d
000001e0: 3584 af3d acd6 543c 8995 96bd 3b30 9f3d
000001f0: 054a 083e e15b 263e a901 36be 9fe3 47be
00000200: b925 84bd 63c3 5bbe 3c24 3a3e 34a8 4d3d
00000210: 87f0 cb3c 73c8 58bc c4bb 113d 2eae b83e
00000220: e7ce ffbe 227d 763d 69b6 b63e fb7d 92bd
00000230: 9094 c83d 6857 ea3c 38d5 f7bc 1c40 33bd
00000240: 192a 4bbd d0c8 b2bd c81f 2b3e ecdf 97bd
00000250: 441b ab3d 643c aa3d f797 e3b9 87f1 4abd
00000260: b89a 3a3e b6a1 73bd a00f b93b 65f3 01bd
00000270: b339 463d 54b9 123d 4456 54bd 4153 88be
00000280: 3d7b 1fbe 6e7a cb3b aad6 adbe 9ece c9bd
00000290: 877c f8bd eb02 293e 2d4c 2c3e 1d8b 85bd
000002a0: 845a f1bc 03ae 14be 4817 cfbd 8aa3 613e
000002b0: 2ccb dabd e0f8 8cbc d3ee 263e 84c8 68bd
000002c0: 984d 5c3d f1b9 9abd a7c1 ac3f 870c e23d
000002d0: bcdf 97bc 6842 523c f1eb 013e 0383 503e
000002e0: c605 9e3d cb81 a3bb 7a42 c5bc e984 b83e
000002f0: 70eb e7bd 4aff 453c f3d9 b7bc 0cc5 45bb
00000300: 3274 163e b5e8 9d3e fbef 883e f467 19be
00000310: bd45 1f3e 8902 233f f727 43bd 290d 3a3c
00000320: d4ae e6bd 2339 97be 8324 6a3d b2c5 afbd
00000330: c435 b63e bc0b 9e3d eabd 85bd 9ba9 d1be
00000340: a2df aabe 738c 9d3c fc46 0d3e e916 dabc
00000350: 9fe3 7c3d d05a 32b9 c135 c43d 62a7 013e
00000360: 0342 d33d 1769 d13e f4fb 933d 7ee9 d0be
00000370: c696 413d 6c41 df3d 9026 d9bd 65dd 313d
00000380: dac2 cc3d edd9 af3e 4a49 5e40 4287 52bb
00000390: a074 ac3e 949c c03e d645 97bd 87ba 753d
000003a0: b62b d6bd f52d 033f bc5a db3e 284a f7bd
000003b0: 07d4 d23d 14c5 d73d 9730 9b3e 75c8 e53d
000003c0: 62cb a13e 8f7b 223e 94f6 7fbf e714 1b3e
000003d0: 139e 9b3e 35e9 073c 9fa5 e0bd a4b8 843e
000003e0: 01a2 ce3e 3e0e d83d 7365 b3be 62ff 7d3d
000003f0: 8658 aabc c03c 113d f086 acbe b0f7 9fbb
-0.04880056 -0.019289693 -0.062185425 -0.07905972 0.0030406471 0.08541558 -0.04703729 -0.070913926
0.08821045 -0.049086463 0.001055762 -0.04084801 0.026884971 0.0009355247 -0.07107605 0.039327882
-0.02404536 -0.091100216 -0.045129117 0.0017952921 -0.059191626 0.03910095 -0.02606809 0.053609755
0.020648941 0.064996324 -0.11370613 -0.053042457 -0.024113884 -0.11584851 -0.0048546493 -0.093703665
0.06873041 0.068348765 -0.029578963 -0.065368645 0.022339998 0.09629756 0.089134954 -0.12566061
0.012554024 0.083366424 0.035819165 -0.035417117 -0.07863444 0.07625489 -0.07771223 0.019526169
0.024035329 -0.007987403 -0.09188136 -0.052811813 -0.08202003 -0.063660525 -0.07497642 0.09785259
0.022856968 0.089086264 -0.09928332 -0.010095724 -0.09840873 -0.08714075 0.1075689 -0.023378434
-0.18157664 -0.299609 0.18486333 0.5213113 0.008881164 0.7751589 -0.0074795624 0.25346607
1.5974177 -0.056721006 -0.0722361 -0.005246977 -0.23079441 0.113365754 0.09725028 -0.045798607
-0.24361633 0.011830719 0.15025976 0.085086025 -0.097106285 0.032193176 0.09190742 0.06834842
0.15473752 0.1081185 -0.095083416 -0.2797184 -0.046044935 0.03937021 0.011569008 0.03353753
0.15692984 0.46977803 3.9057443 -0.18184082 0.02792772 -0.22204211 -0.20053218 0.016268156
0.46751478 0.09948987 -0.07890468 -0.09286107 -0.10869032 0.031544894 0.12953746 0.013957386
0.073682 0.06593316 3.6141093 0.0012175646 -0.23781462 -0.022440443 0.015722707 0.12111512
0.08570138 0.012990635 -0.0735274 0.07772871 0.13309486 0.16245987 -0.17774071 -0.19520424
-0.064525075 -0.21461253 0.18177885 0.05020924 0.024894966 -0.013231385 0.035579458 0.3607039
-0.4996254 0.06017793 0.35686043 -0.07152935 0.09793961 0.028606132 -0.030253038 -0.04376231
-0.049600694 -0.08729708 0.16711342 -0.074157566 0.0835481 0.083123 -0.00043410037 -0.049546745
0.18223083 -0.05948039 0.0056476146 -0.03172626 0.04839487 0.035821274 -0.05184008 -0.26626018
-0.15574355 0.006209663 -0.33952838 -0.09853862 -0.12133127 0.1650502 0.16825934 -0.065206744
-0.029462107 -0.14519505 -0.101118624 0.22035041 -0.10683283 -0.017208517 0.16302042 -0.05683185
0.053784937 -0.07554997 1.3496598 0.11037546 -0.018539302 0.012833215 0.12687661 0.20362477
0.07715945 -0.0049898378 -0.02407955 0.36038902 -0.11324203 0.012084791 -0.022442793 -0.0030177264
0.14692762 0.30841604 0.2674559 -0.14981061 0.15553947 0.63675743 -0.047645535 0.011355677
-0.112638146 -0.2953578 0.057163727 -0.08582629 0.35587895 0.07717082 -0.06530364 -0.4094971
-0.33373743 0.01923201 0.1379661 -0.026622253 0.061740514 -0.00017009233 0.09580565 0.12661508
0.10315325 0.4090049 0.072257906 -0.4080314 0.04726293 0.1090115 -0.10603058 0.04342403
0.099981025 0.34345952 3.4732232 -0.0032124077 0.33682728 0.3761946 -0.07386367 0.05999234
-0.10457556 0.51242 0.42842662 -0.12074691 0.10294347 0.105356365 0.3031051 0.11219875
0.3160048 0.15867446 -0.99985623 0.15144692 0.3039404 0.008295347 -0.1096909 0.2592212
0.40357974 0.105495915 -0.35038337 0.06201113 -0.020794164 0.035458326 -0.336967 -0.0048818216

l2.bias f4 [64]
00000000: b7c4 01be 31b3 043e 1ef6 a3bd 5545 753d
00000010: d929 dcbd 7243 173e a0f0 5ebd 347b fcbb
00000020: 61a3 403e 643d ddbd 12d9 073c 6f4d 0dbe
00000030: fd64 e63c ca8a 613e 7d2c 693e 287b 17bd
00000040: 7495 473e cdf4 713d 027b 523d 84ed 953d
00000050: 35dd e13d 229f 243d d9b1 ad3d db02 b53c
00000060: beb2 403e a063 51bc 29fd ae3c 19ce 593e
00000070: 0bf8 1b3c 4f55 063e 2685 f1bd 3c14 e8bd
00000080: c9f1 41bd c978 423e f97e eb3d 1500 64bc
00000090: 5271 103d 061a f2bd 6485 113e f38e 83be
000000a0: f237 1a3e 6a37 6c3e 8956 fe3d dc68 d9bd
000000b0: d3df cc3b ac47 353e 94dc 803c cc07 3f3d
000000c0: 5ee6 a9bd e2cf c6bd edcb 363d 2591 42bd
000000d0: 62a9 113e 5f75 ffbd ac2d b23b d01b b2bd
000000e0: eba4 99bd 6f90 c6bd 8622 97bd d4cc dcbc
000000f0: dd75 9ebd 2b55 f7bd 0665 acbc b5d1 2bbd
-0.12672697 0.12958981 -0.080059275 0.059880573 -0.10750169 0.14771822 -0.054428697 -0.0077051166
0.18812324 -0.10802725 0.0082915 -0.1379907 0.028124327 0.220256 0.22770877 -0.036982685
0.19490606 0.05907135 0.05138684 0.07320693 0.1102852 0.040190823 0.084811874 0.022096088
0.18818185 -0.0127801 0.02136095 0.21270026 0.009519587 0.1311848 -0.11792974 -0.113319844
-0.047349725 0.18991388 0.114988275 -0.013916035 0.03526432 -0.1182137 0.1421104 -0.25695
0.15060404 0.23068014 0.12418849 -0.106157035 0.006252268 0.17703122 0.01573018 0.046638295
-0.08295892 -0.09707619 0.044628073 -0.0475017 0.1422477 -0.12473559 0.0054375734 -0.08696711
-0.07502159 -0.09695517 -0.07379632 -0.026953138 -0.077373244 -0.120767914 -0.021044265 -0.04194804

l3.weight f4 [3, 64]
00000000: 447e 0c3d 9033 933e 2a82 be3d c1d1 8d3e
00000010: 3d4c cbbe 275c 66be 0e39 0cc1 1746 96be
00000020: 8412 f5bd ab51 78bd b5c3 143d b0ad 043d
00000030: 38ec 96be 3361 08be 3fd8 85be ec7b 243e
00000040: 572e 71be 81e9 873e 17ce 643e e867 04be
00000050: 9c30 09be 4b66 503e 13a1 853e 0266 8bbe
00000060: f4b0 bcbe 0105 463e 2aec b1bc 8cd0 19bd
00000070: f7b6 29be 02b7 ad3d 9525 953d 4940 13bb
00000080: 4784 313e efec 5f3e 8696 91be ddaa 273e
00000090: 09e7 713e c0e3 d0bc 219e 5d3e 740b d840
000000a0: f168 833e 050d abbe 5706 46be 7eab e2bd
000000b0: 351b 02be 6cb9 80be 3244 36be 1ce4 39bd
000000c0: aa97 5fbc c067 be3c 2be6 aa3d 758e ae3e
000000d0: e00c 5a3e 3a1a 4e40 a423 58be 2d28 07be
000000e0: 6895 e8bd 01c4 8cbd acb4 643d 6768 b73e
000000f0: 6db0 583e 8672 65bc 0856 b73d 44d7 3e3e
00000100: e78f 7ebd d89e 80bd 39e0 063e 5398 273e
00000110: 6adc 89c0 5417 c3bd 9d8d 533f 2aa8 17be
00000120: f6c8 8f3e 00bf 3a3b 505d 0a3d ee30 6f3e
00000130: 64cd 723e 601d 5c3e 5e49 693e 394d 193e
00000140: de11 d03d 0b64 3c3e 959b ba3d ea78 dabe
00000150: ae48 5c3e 2c72 fd3c 4ffc 303e 7449 1d3e
00000160: a2e9 c93e 8f83 333e 15d4 c4bd 1cfe 7c3e
00000170: ede9 febe 6827 ba3d ec1e ccbd 6b45 d4bd
00000180: ac52 263e 485b c03e 6688 d13e 0462 bcbd
00000190: e06e 0cbf 64d8 46bd 1dda 6d3e 4d5b 10bf
000001a0: b5c4 683e 82a9 39be e269 b9bd 844e 23bd
000001b0: faa5 a6bc 836c b03e b58e 38be 4198 8bbe
000001c0: d2c8 883d ea07 e3bd ddca 95be 04c3 223e
000001d0: fced f73d 7848 893f cbc2 4dbe 2963 a3be
000001e0: bfbf ce3d 7d61 97be 771c b73d 7300 563e
000001f0: 3dcd e2bd 13e5 edbd b228 3d3c 7d41 783c
00000200: 850f c2bd ec93 653e a0c6 c3bd 12b6 40be
00000210: 7545 3fbd b59f 21bf feb3 9a3e 516d ccc0
00000220: 97f7 4b3e 71a5 a0be 71ec febd 3ee8 e73d
00000230: 33d1 813e 7db8 803e 26ec b23e 3eb5 f2be
00000240: 2739 bd3e 6ee6 efbd a060 f6bd 228a 6dbd
00000250: ba9f 9f3e 8f90 39be 35bd aebd eaa3 cabe
00000260: 0411 9abe 4c2f b640 46ce 48bd 759b 9d3e
00000270: 30da a13e b208 4c3e 7d45 653d 2ff4 c53d
00000280: ec77 88be d02c 28be 5acd 8dbe 92f5 9a3d
00000290: 45bb 8e3e acb1 fd3d a6ae 4e3e 1c83 8c3e
000002a0: a9a8 17be 31fa a93e bc3a acbe ac6a d63d
000002b0: 2af6 b7be 9e09 d43d dc56 f33e 1a7c 68be
000002c0: 4e42 d0be 8014 49bd b877 933e 9d7a d2bd
000002d0: 3a54 8c3e 658b 113e b65a 3bbe d917 62bd
000002e0: bb2b 80bd 2235 65bd 80f8 b7be ba85 1d3e
000002f0: 22db 6d3d 1871 9f3d 37a4 ad3d a078 7fbe
0.034300104 0.28750277 0.093021706 0.27699092 -0.39706603 -0.22496091 -8.763929 -0.2935035
-0.11966422 -0.06062476 0.036319453 0.032392204 -0.29477096 -0.13318329 -0.26141545 0.16062897
-0.23552833 0.26545337 0.22344242 -0.12930262 -0.1339745 0.20351522 0.26099452 -0.27226263
-0.36853755 0.19337846 -0.021719057 -0.0375524 -0.16573702 0.084821716 0.07282559 -0.0022468737
0.17335616 0.21867727 -0.28435153 0.16373773 0.23623289 -0.025499225 0.21642353 6.751398
0.25666 -0.3340837 -0.19338356 -0.11067866 -0.12705691 -0.25141466 -0.17799452 -0.045383558
-0.013646999 0.023242831 0.08344682 0.3409306 0.21293974 3.2203507 -0.21107346 -0.1319892
-0.11356622 -0.06873322 0.055836365 0.3582184 0.21161051 -0.014004355 0.08951956 0.18636805
-0.062148955 -0.06280297 0.13171472 0.16366701 -4.308156 -0.09525934 0.8263796 -0.14810243
0.2808301 0.0028495193 0.033780396 0.23358509 0.23711163 0.2149558 0.22781894 0.14970864
0.10159658 0.18397538 0.09111706 -0.42670375 0.215121 0.03093823 0.17283748 0.15360051
0.3943606 0.17530654 -0.09610764 0.2470631 -0.49787846 0.090895474 -0.099668354 -0.10364803
0.16242474 0.37569642 0.40924376 -0.091983825 -0.5485668 -0.04854621 0.23227735 -0.56389314
0.22731288 -0.18131068 -0.09053399 -0.0398698 -0.020342816 0.34457788 -0.18023188 -0.27264598
0.066789284 -0.11085494 -0.29256335 0.15894705 0.12105939 1.0725241 -0.20093839 -0.3191159
0.100951664 -0.29566565 0.08940976 0.20898609 -0.11074302 -0.11615958 0.011545347 0.015152332
-0.09475616 0.22419709 -0.09559369 -0.18819454 -0.0466971 -0.6313432 0.30215448 -6.3883443
0.19918667 -0.31376222 -0.12447441 0.113235936 0.2535492 0.25140753 0.34945792 -0.47403902
0.36957666 -0.11713873 -0.120301485 -0.05799306 0.3117655 -0.18121551 -0.08532182 -0.39578182
-0.30091107 5.6932735 -0.049024843 0.30782667 0.31611776 0.19925192 0.055974472 0.09665715
-0.26653993 -0.16423345 -0.27695733 0.0756637 0.2787725 0.12387404 0.2018381 0.2744378
-0.14810432 0.33198693 -0.3363856 0.10469565 -0.35929996 0.10353397 0.47527206 -0.22703591
-0.40675586 -0.049091816 0.28802276 -0.10277293 0.2740801 0.14213331 -0.18296322 -0.055198524
-0.06258341 -0.055958875 -0.35931778 0.15383044 0.05807031 0.07785243 0.08478587 -0.24948359

l3.bias f4 [3]
00000000: aa8b 953d c7ba cebd 809e b43d
0.073020294 -0.10094219 0.08819294
