examples/experiments/experiment_97/actor34_3.pth (torch, 28759 bytes, 6 tensors)

l1.weight f4 [64, 36]
000000 d6 c4 13 be 7d 32 c2 3b 08 db 01 be e8 57 a2 3d
       -0.14430556 0.005926429 -0.1268121 0.07926923
000010 40 97 cf bc 5b 50 d8 bd f0 e2 8b bc 65 af 18 3e
       -0.025340676 -0.105622016 -0.017075986 0.14910658
000020 74 f1 c1 bc 14 d3 8e 3a 8a a5 f7 3d 90 49 36 bc
       -0.023674704 0.0010896646 0.12092121 -0.011125937
000030 ed 91 25 be b1 bd c9 3d a5 2f f2 bd 62 3a 63 3d
       -0.16168948 0.09850634 -0.11825494 0.0554756
000040 93 2e 62 bd 0b 68 31 3d 81 64 8d bd 4e 3d dd 3c
       -0.055220198 0.043312114 -0.06903935 0.027006771
000050 ee cf e8 bd 46 d8 10 3e 19 c8 89 3c 96 05 06 3c
       -0.113677844 0.14145002 0.016819047 0.008180043
000060 2b 5f 71 bd 84 4a 18 be b7 b9 fd 3d 18 ab 2c bb
       -0.05892865 -0.14872175 0.12388938 -0.0026347097
000070 f8 3c b4 3d b5 2f ae 3d ad a3 4f 3c dd 2e 0e 3c
       0.08800691 0.08505193 0.012673301 0.008678165
000080 71 2e a3 bc 94 0a 98 bb bd 6c f5 bd ce 4d 22 be
       -0.019919606 -0.004639933 -0.11983631 -0.15849993
000090 10 84 75 3d 86 69 4b 3e eb f5 2f 3c 7d 76 10 3d
       0.059940398 0.19864473 0.010739784 0.03526925
0000a0 47 bc c1 3d b2 02 7c bc ea 33 f7 3e 75 41 8c 40
       0.09459739 -0.015381502 0.48281795 4.3829904
0000b0 15 9e af 3f 13 07 6b be ee 92 3a bd 1c be 0e 3d
       1.3720118 -0.22951917 -0.04555028 0.03484927
0000c0 e7 17 d2 be 01 a2 a1 3b 29 c1 b9 b9 7e 86 4c be
       -0.4103386 0.0049326424 -0.00035429865 -0.1997318
0000d0 24 cc 5d be 26 ad 79 3d 3d d3 c7 3c d9 a0 f6 3d
       -0.21659905 0.060956143 0.024392718 0.12042398
0000e0 eb 0b 16 3e a1 61 00 3e 05 6e 96 bc b4 fb 38 bd
       0.14652984 0.12537242 -0.018363008 -0.045161918
0000f0 53 c4 97 3d 20 2c 7b 3e 19 e6 89 3c ce 46 56 3e
       0.07410493 0.24528551 0.016833352 0.20925447
000100 8e 63 fd bc 85 3b 53 bd 10 0d 97 3e 04 85 d7 3c
       -0.03093126 -0.051570434 0.29502153 0.026308544
000110 c0 05 5f 3d 37 d0 96 3d c1 f4 fb bc db f4 b5 bd
       0.054448843 0.073639326 -0.030756356 -0.08884593
000120 4e 65 c0 bd 6b 44 47 bd e8 d0 e6 3d 40 26 e0 3c
       -0.09394322 -0.048649233 0.112703145 0.027361989
000130 00 25 e2 3d ab ce 62 ba 3e 66 f8 3d 2e 25 a5 bd
       0.110422134 -0.0008652012 0.12128876 -0.08063732
000140 f0 db 1b bd 08 07 09 3e 1a 5c 19 be 6b bc 07 3c
       -0.038051546 0.13381588 -0.1497654 0.008284668
000150 4e 84 85 bd de 75 f3 3d f0 2a 17 3e 46 50 8c bd
       -0.06519376 0.11887716 0.14762473 -0.068512484
000160 06 35 68 bd 96 e5 1c 3e b8 90 ee 3d 56 a5 c1 bb
       -0.056691192 0.15321955 0.11648697 -0.005909602
000170 56 6d f5 3d d8 7d b8 bd a8 b2 dd 3d 76 c2 14 3d
       0.11983745 -0.09008378 0.108250916 0.036318265
000180 cb 76 8c 3d 80 3e 95 bc b6 90 00 3d 6b 77 1d 3c
       0.068585955 -0.018218279 0.031388007 0.009610991
000190 a3 ba 1a 3e e0 78 ad 3c 3b b7 29 3e 10 da a7 3d
       0.15110259 0.021175802 0.16573803 0.08195889
0001a0 eb 2b 68 bd 53 c1 d6 3d 26 a8 b5 bd b8 18 10 be
       -0.05668251 0.104860924 -0.088699624 -0.1407193
0001b0 bd a4 8c bd 62 22 48 be 44 c7 5c 3e 6a 0e 36 3e
       -0.06867359 -0.19544366 0.21560389 0.17778936
0001c0 ee 68 91 3c a0 6a db bd 57 d6 9d 3f aa d1 5d be
       0.01775023 -0.107136965 1.2331036 -0.21662012
0001d0 a2 12 01 c0 1f 4a ad 3d aa 54 0d 3e 1d 52 81 3e
       -2.0167623 0.08461403 0.13801828 0.2525796
0001e0 06 68 3a bd 9d 94 0e be b6 b6 5f be 89 f3 f0 3d
       -0.04550936 -0.13923879 -0.21847042 0.11765201
0001f0 74 20 d9 bd 58 09 83 be 41 92 5e 3e 68 9a 85 3e
       -0.10601893 -0.25593066 0.21735479 0.26094365
000200 70 83 8b 3e 35 cb b0 bc c8 33 80 3e fb 7b da 3d
       0.27248716 -0.021581272 0.25039506 0.10668179
000210 ef 34 2e be 42 a3 f9 3c 5f fc 98 bd 90 42 95 be
       -0.1701238 0.030473355 -0.07470011 -0.29152346
000220 5a 04 87 bc d8 64 3e bd cf b4 66 be 05 be c1 bd
       -0.016481567 -0.04648289 -0.2252991 -0.094600715
000230 8d b4 b7 bd f1 68 16 bd 07 68 58 be 38 1b 61 3e
       -0.08969984 -0.036721174 -0.21133433 0.2198304
000240 f4 c3 4b 3e 75 e3 fc be 31 76 62 3e 4b f2 eb 3c
       0.19898969 -0.49392286 0.22115399 0.028802058
000250 40 20 a2 bc 1f c1 80 3d b5 6e 16 40 3a 87 c6 bf
       -0.019790769 0.06286835 2.350507 -1.5510018
000260 12 bb a1 be 6d f2 cd 3e b7 de fe 3d 7c 4c 45 3e
       -0.31588036 0.4022402 0.12444823 0.19267458
000270 93 cc dc 3c 03 90 6c be 20 7b f2 bd 75 66 d1 bd
       0.026953017 -0.23101811 -0.118398905 -0.1022462
000280 10 10 a8 3d 5b 51 06 3d 72 40 95 3d dc f1 74 3e
       0.08206189 0.03279243 0.072876826 0.23920387
000290 f3 23 cc bd 92 10 0c 3e 83 00 2e 3e b5 88 43 3b
       -0.09967794 0.13678196 0.16992383 0.0029836122
0002a0 f2 1e a6 bd 51 16 16 3e 2a d1 00 be 31 50 c6 bd
       -0.08111371 0.1465695 -0.1257979 -0.09683264
0002b0 56 44 d9 3d 22 d9 45 bc 06 8b ed bc 92 eb c9 bd
       0.10608737 -0.012075694 -0.028996956 -0.098593846
0002c0 98 55 2d be 92 e5 4c bd 80 a8 32 3d 05 f5 8d 3e
       -0.16927183 -0.050023623 0.043617725 0.27725998
0002d0 85 5d 2f 3e a7 be 87 be ad 19 0d 3e 0a 8e 1e be
       0.17125519 -0.26512644 0.13779326 -0.15483871
0002e0 b9 b4 31 bd 81 71 76 bd bc 70 7e 3e 55 e4 85 40
       -0.04338524 -0.06016684 0.24847692 4.1841226
0002f0 b3 0d 9a bf af e5 04 be b7 8a 42 3d e7 6a 06 3d
       -1.2035431 -0.12978242 0.04749557 0.032816794
000300 05 fb a5 3d 40 e2 24 be f1 b5 71 3b 57 a6 c8 bd
       0.08104519 -0.16101933 0.0036882127 -0.09797352
000310 d4 9c 16 bc 77 45 8c 3d 96 db e8 3c 16 44 a0 bc
       -0.009192664 0.06849187 0.02842502 -0.019563716
000320 57 7a ff 3c 46 09 54 bd b2 8f 15 bd f6 b4 4a 3d
       0.031186266 -0.051766656 -0.03651399 0.049488984
000330 3b 8e fa 3d c5 8c e0 3d 60 37 7e 3d 25 c4 d5 3d
       0.122341596 0.1096435 0.06206453 0.10437802
000340 d7 d1 8a 3d 64 4e 29 3d 27 ed 22 3c 7a 7b bd 3c
       0.06778305 0.041334525 0.009944237 0.023130167
000350 b7 85 4c 3e 61 fd 16 3e c7 1f 82 3b 78 52 90 3c
       0.19972883 0.14745094 0.0039710733 0.01761745
000360 24 6b b7 3d 53 e6 94 3e 72 a1 f1 bc 2f e0 8d 3d
       0.08955982 0.29081973 -0.029495928 0.06927525
000370 fa 79 05 be 12 79 ff 3d fb b9 4d bf 26 fa 3f c0
       -0.13034812 0.12474264 -0.8036191 -2.9996428
000380 07 80 d5 3d 17 aa 8d bd 2a f2 a5 bd 42 52 6b bd
       0.1042481 -0.06917208 -0.0810283 -0.057451494
000390 9e 65 8a be a1 2d 86 bd ff fb 03 be df 4d cf bd
       -0.27030653 -0.06551672 -0.12889098 -0.101222746
0003a0 49 a9 f7 bd 64 c6 13 be 13 8b c5 bc 1d 4c 29 be
       -0.120928355 -0.14431149 -0.024114167 -0.16532941
0003b0 c3 b6 7e bc be c5 0f bd 3c bc 80 3e bf 2a 84 3c
       -0.0155465035 -0.03510069 0.2514361 0.016133664
0003c0 b4 50 66 3c 3d a1 63 bd f1 dd 8c 3d c6 df 09 3e
       0.014057327 -0.05557369 0.068782695 0.13464269
0003d0 e9 b2 be 3d 3f 81 9d bd 99 2e 69 3e a3 f9 c2 bd
       0.09311468 -0.07690667 0.22771682 -0.09520271
0003e0 f6 39 84 bc 25 e5 65 3e 8d 29 14 3e e0 f1 84 be
       -0.01614092 0.22450693 0.14468975 -0.25965786
0003f0 df 7e 1b bd 87 0c 2e be 4d db 9c 3e 13 0d 08 bd
       -0.03796279 -0.16996966 0.30636063 -0.033215594

l1.bias f4 [64]
000000 c5 b7 bc bd 76 ff 35 3d b7 36 0d be 4d d8 90 3d
       -0.09214739 0.04443308 -0.13790403 0.07072506
000010 e7 95 e6 3d 09 52 2c 3d 44 77 9c 3d de f2 e2 3d
       0.1125906 0.042070422 0.076399356 0.110814795
000020 f1 11 a8 3d a4 0d 11 be d6 aa 47 3d c8 97 f6 bd
       0.08206547 -0.1416536 0.048746906 -0.12040669
000030 bd b5 da 3d 18 f4 68 3d 16 40 28 be c2 a1 1c 3e
       0.10679195 0.05687341 -0.16430697 0.1529608
000040 35 aa 6e 3c 4f 1b b4 3d c3 76 a5 3d 98 d9 d3 bd
       0.014566948 0.08794271 0.080792926 -0.10344237
000050 e8 80 d0 bd e1 08 60 3d 98 5a 0f be bc 00 50 3d
       -0.10180837 0.054695968 -0.13999403 0.05078195
000060 c1 bf ac 3d f4 4d eb 3d 0e 0f 80 3d 36 85 07 be
       0.08435012 0.11489478 0.062528715 -0.1323441
000070 b3 ae f6 3d 93 3c 0a be 6a 24 76 3c 86 2c 8b 3d
       0.1204504 -0.1349967 0.01502333 0.067956015
000080 53 8d 94 3d e6 2d 67 3d cb cf 16 be e4 eb 9c 3d
       0.07253518 0.056440257 -0.14727704 0.0766218
000090 a1 2b 15 3e 61 c1 b2 3d d9 5c ab 3d 11 07 d4 3d
       0.14567424 0.0872829 0.08367319 0.1035291
0000a0 b9 26 da 3d f2 0f ab 3d 03 a9 b3 3d 0b 0a 86 3d
       0.10651917 0.08352651 0.08772471 0.06544884
0000b0 7e a7 20 3d 56 32 fd 3d d3 75 ea bd c2 b1 20 bd
       0.039222233 0.123631164 -0.114482544 -0.039232023
0000c0 2a 8d 18 3e a3 0f 47 3d c6 f8 ae bd f8 ce ae 3d
       0.148976 0.048598897 -0.085435435 0.0853557
0000d0 30 39 5a bc 26 b6 19 be af 01 b3 3d 05 83 c9 3d
       -0.013319299 -0.1501089 0.087405555 0.09839443
0000e0 73 e7 47 3c 7e ef dc 3d ef f5 42 be 8b df e6 3d
       0.012201178 0.10787867 -0.19039129 0.11273106
0000f0 46 0b e9 3d f2 f9 53 3d 6a b3 bc 3d 69 34 74 3d
       0.11379103 0.05175204 0.09213908 0.059620295

l2.weight f4 [64, 64]
000000 b4 e3 ed bd 69 44 83 bd a0 17 9c bb e9 4b 63 bd
       -0.116156965 -0.064095326 -0.0047635585 -0.055492315
000010 d4 31 a6 bd 64 68 19 be f3 0e b7 3b 49 6e 35 3c
       -0.08114973 -0.14981228 0.005586499 0.011073657
000020 2b e7 73 3d d4 3f 27 3d ad 4f 29 be a0 ab dc bd
       0.05954663 0.040832356 -0.165343 -0.10774922
000030 e9 6f 16 be cd 7b 03 3d 30 68 6b bc 4f 1d 68 3e
       -0.14691128 0.032100488 -0.014368102 0.2266743
000040 03 cd da 3d 29 b3 b6 3d 15 04 64 be d8 d9 ae 3c
       0.10683634 0.08920891 -0.22267182 0.02134411
000050 d8 b3 dc bc e9 ec 7a bd 22 fb 9f 3d 6a 2a 64 3d
       -0.026941225 -0.06126109 0.07811572 0.05570451
000060 7f 7f e2 bd 58 cd 1d be 82 cb ef 3e 20 07 5a bc
       -0.11059474 -0.15410364 0.46834952 -0.013307363
000070 17 39 30 3e b0 34 13 bc 3c 7a 43 bc 89 14 46 3e
       0.17209278 -0.00898473 -0.011930998 0.19343771
000080 4a 72 53 3c 60 be b1 be 7c c9 b8 bd f8 02 92 be
       0.012905667 -0.34715557 -0.09022805 -0.2851789
000090 96 62 c9 bd 84 1a 94 3e 96 ba 30 be a1 31 d2 bd
       -0.09833257 0.2892648 -0.17258677 -0.10263372
0000a0 81 ae 39 be 0d 57 a7 bc 5a c1 d3 3d 96 04 f4 3c
       -0.18132974 -0.020427251 0.10339613 0.029787343
0000b0 02 69 bd 3e 23 c3 dd bd 00 14 83 bb e8 d7 cc bc
       0.36994177 -0.10828235 -0.004000187 -0.025005296
0000c0 1c 1c 6c be 5c bd e1 bc d0 17 aa bc 40 b6 0b 3e
       -0.23057598 -0.027556114 -0.020763308 0.13643742
0000d0 99 39 a2 bd 9a 1d 80 3d 5f f8 a8 3e 80 94 6f 3c
       -0.07921142 0.06255646 0.33001992 0.0146228075
0000e0 4f a4 5c 3d a5 c4 04 3d 1b bf 3e bd a0 3b 05 3e
       0.053867634 0.032414097 -0.04656897 0.13011026
0000f0 30 ae 50 3e 67 55 0f be 32 68 6d 3e db f4 6d bd
       0.20378947 -0.13997422 0.23184279 -0.05809484
000100 d3 d0 4c 3d bb fe dc 3e c0 8d 27 3b a0 1c d7 3d
       0.050003838 0.43163094 0.0025566667 0.10503507
000110 6f 52 37 bd f0 dd ba 3e 27 37 cb bd c4 27 8d 3e
       -0.04475635 0.3649745 -0.09922629 0.275694
000120 0a 0b 88 bd 4a 1f d7 3d 7e 96 b9 bd ce 50 b2 bd
       -0.066427305 0.10504015 -0.09061907 -0.087068185
000130 0e d7 0f 3e ae a9 38 3e 40 29 e4 bd a4 d4 a2 3e
       0.1404688 0.18033478 -0.1114068 0.31802857
000140 b0 a4 cf 3e 93 92 c1 3e fb f3 f9 3d aa 38 ee bd
       0.40555334 0.3780714 0.12204739 -0.116319016
000150 94 37 0f bd 3e 2c f2 3c 94 42 8b bd 86 de f2 3e
       -0.034965113 0.029562112 -0.06799808 0.47435397
000160 2a cf 2f 3d 52 c7 95 3e 3e e5 ff 3e a0 b8 c8 bd
       0.042922176 0.29253632 0.49979585 -0.098008394
000170 c4 f2 24 3e 1c 2b 11 3d 57 32 f2 3d ae 3e de 3e
       0.16108233 0.035441503 0.11826008 0.43407196
000180 0a 69 9d 3e a9 9d e7 3d 6e fd b4 bd 6c b2 f1 be
       0.307442 0.11309368 -0.088374004 -0.47206438
000190 8c fe 9c 3d 9f fd b1 bc 9d 00 33 be aa e6 15 be
       0.076657385 -0.021727381 -0.17480703 -0.14638773
0001a0 b2 ac 49 be e0 a6 6a be 60 c2 61 3e 05 34 c4 bd
       -0.19694784 -0.2291522 0.22046804 -0.095802344
0001b0 d2 70 69 3e b3 7d 0a 3e 5d a7 c5 bd 2f 81 3d 3d
       0.22796944 0.13524513 -0.09651063 0.046265777
0001c0 15 03 9d 3d 3f ad c9 3e 47 41 99 3c 03 2b 74 3e
       0.076666035 0.3938999 0.018707884 0.23844533
0001d0 10 65 9b 3e cc f1 79 bd 31 9f a8 be 60 98 63 3d
       0.30350542 -0.06102161 -0.32933953 0.055565238
0001e0 44 4d 3e 3d 95 c7 66 be 09 98 b5 be f8 a8 74 3e
       0.046460405 -0.22537072 -0.35467556 0.23892581
0001f0 c3 7d 96 3e ef 29 16 3e 3c 66 0e be 74 d5 e4 3d
       0.29392824 0.14664434 -0.13906187 0.111735255
000200 77 49 af 3d 0b 31 3b 3e 8e 5a ef bd ce d2 84 3e
       0.08558934 0.18280427 -0.11687194 0.2594208
000210 29 02 42 bd 30 80 83 3e 0a 74 cb 3c 00 9e 8a 3e
       -0.04736534 0.25683737 0.024835605 0.2707367
000220 e8 82 3d be 80 55 4b bd b8 76 84 be 1c dc 1f bd
       -0.18506968 -0.049642086 -0.25871825 -0.039028272
000230 98 b5 99 3e 34 1e 8e 3e e8 e7 e2 3d e1 d2 ae 3e
       0.30021358 0.27757418 0.11079389 0.34145263
000240 81 46 8d 3e f8 dd a1 3d 0e ca a5 3e 48 0c 34 bd
       0.27592853 0.07903665 0.32380718 -0.043957025
000250 60 a2 17 3d 35 7c 34 be 00 52 0a 3d 28 f9 6b 3e
       0.037020087 -0.17625506 0.033769608 0.23044264
000260 a6 fa 92 3e e6 2d e0 3e fa 01 be 3e 80 ad a3 bd
       0.28706855 0.43785018 0.37110883 -0.07992077
000270 91 9e df 3b 4a f1 9f 3d 21 8c 8a 3e e9 56 95 3e
       0.0068243225 0.07809694 0.27060035 0.2916787
000280 25 4a aa 3e be bd d8 3c e8 08 c6 3c d2 82 bb be
       0.33259693 0.026457664 0.024174169 -0.36623245
000290 84 f8 22 3c ba 2b 56 bc de 43 80 be 63 f8 ee bd
       0.009946946 -0.013071949 -0.2505178 -0.1166847
0002a0 4e e0 6f be 1e 0e 25 be cb 17 39 3d 92 aa 4c be
       -0.23425409 -0.16118667 0.045188706 -0.19986942
0002b0 37 ba 08 3e 69 49 a8 3d 52 71 ae 3c 76 6d 8f bd
       0.13352285 0.08217127 0.02129427 -0.070033
0002c0 60 23 5f 3e 3c 5f bb 3e 9c c0 39 3d 15 e5 20 3e
       0.21790838 0.36596096 0.045349702 0.15712388
0002d0 d5 cc 19 3e 20 c2 cd bc 30 ca 0b bf ca 6d 98 bd
       0.15019543 -0.02511698 -0.5460539 -0.074428156
0002e0 05 e1 67 3d 0e 9f 81 be 5a a7 2f be 2b 3f b7 3e
       0.05661108 -0.25316662 -0.17153683 0.3579038
0002f0 84 4b f7 3d ca ac 32 3e d7 47 88 bb 8d 91 1d be
       0.1207495 0.17448726 -0.0041589546 -0.15387554
000300 72 ff e7 bd 92 b4 c9 be 60 7f 37 3d 09 72 98 3d
       -0.11328019 -0.39395577 0.04479921 0.074436255
000310 0f 90 2a 3d 44 75 6c bc c6 3e c9 3e 19 5f 9a 3e
       0.04164129 -0.014432255 0.39305705 0.3015068
000320 35 2c 86 3e 14 8d fa bd 68 12 ad be 20 f5 20 3c
       0.26205602 -0.1223394 -0.33803105 0.009824067
000330 0c 88 c2 bd 44 db d6 3d d8 22 fc bc 18 23 97 3e
       -0.09498605 0.1049104 -0.030778334 0.29518962
000340 0b 8d c2 3e d4 df b0 be 3a 6c fc 3d 80 85 7d 3c
       0.37998232 -0.34545767 0.1232533 0.015473723
000350 50 02 79 3c 4d 49 3b 3c 34 7f 3c 3d 6d 7c d8 bd
       0.015198305 0.0114310505 0.046019748 -0.10570607
000360 d7 29 94 3e fd b5 ba 3e 1f 93 01 3f c0 37 68 bd
       0.2893817 0.3646697 0.50615114 -0.056693792
000370 70 e0 e3 bd ee 3b cc 3d 47 76 80 bd 8c 44 59 3d
       -0.111267924 0.09972368 -0.062725596 0.053043887
000380 ff 0d 1e 3e a2 81 a6 be a8 5d a2 3c 19 86 d7 bd
       0.15435027 -0.32520777 0.01982005 -0.10523624
000390 d3 1d aa bd 84 c3 be 3e c2 34 81 3e 0f 53 20 3e
       -0.0830647 0.37258542 0.25235564 0.15656684
0003a0 01 56 17 be 19 ba b8 3d bf a9 2d be 0c 4e 0d 3e
       -0.14778902 0.0901987 -0.16959284 0.13799304
0003b0 1c 71 12 3f a9 5d 64 bd c0 fd f4 3d 71 23 31 3e
       0.5720384 -0.055753384 0.119624615 0.17298676
0003c0 14 f7 03 3d 00 82 33 bc 8a e8 bc bd 51 ff ce 3e
       0.032218054 -0.010956287 -0.09224041 0.40429166
0003d0 b6 d5 96 3d a6 49 ce 3d 07 2a 01 3c 92 f6 02 bd
       0.07364981 0.10072641 0.007883555 -0.03197343
0003e0 c6 75 48 3e 6c 02 9c 3c 5c eb 27 be e5 48 b5 3e
       0.19576177 0.019044124 -0.16398376 0.35407177
0003f0 17 f5 64 be 12 56 14 3e c1 90 b7 3e d0 c7 3f bd
       -0.2235912 0.14485958 0.35852626 -0.046821415

l2.bias f4 [64]
000000 89 e0 a6 bd 9b 85 42 bd dc e7 bb bc 53 69 32 3e
       -0.081482954 -0.047490697 -0.022937708 0.1742299
000010 64 c9 de bc b3 ba 85 3d 7d 40 c1 3c b9 a9 f8 bc
       -0.02719564 0.06529751 0.02359032 -0.030354368
000020 48 77 ec 3d 95 75 b5 bc a3 98 18 3e 24 0d ff 3d
       0.115461886 -0.022150794 0.14901976 0.12453678
000030 b8 13 68 3e 0c 27 db bd b0 38 36 bd c9 40 6d 3d
       0.22663772 -0.10700807 -0.044487655 0.057923112
000040 f3 f9 fe 3d 1e 2f bd 3d 7b 82 c8 3d f9 fd 4c 3e
       0.12450018 0.092375025 0.09790512 0.20018758
000050 8a af a0 3d b8 61 7e 3d b5 d3 c4 3d 13 4f 94 bd
       0.078459814 0.06210491 0.096106924 -0.07241645
000060 30 f6 66 3c d8 fe e1 3d 2b 78 92 bc c6 30 d2 3d
       0.014096782 0.11034936 -0.017879566 0.10263209
000070 82 a4 c6 3d 5e ae 4a 3e 63 60 4b 3c 96 20 f6 3d
       0.09699346 0.19793078 0.012413117 0.12017934
000080 e7 cb da 3d 5e ac ba 3d 9e 5b c0 3d 08 71 f2 bd
       0.106834225 0.09114908 0.093924746 -0.11837965
000090 a1 3c 17 3e 50 aa a6 3d 90 13 14 bd 44 de 2c 3e
       0.14769222 0.08137953 -0.03615147 0.16881663
0000a0 6f 14 7f 3d 2a 7c 97 bc 00 cf b3 3d f7 8f a1 bc
       0.062275346 -0.018491823 0.087797165 -0.019721968
0000b0 b2 74 f4 bd ac 0d 15 3d c8 f4 bf 3d d3 8c 02 3e
       -0.1193632 0.03638999 0.0937286 0.12749033
0000c0 a2 a7 6b be a2 f1 b5 bd c0 11 9c bd 82 ec c3 3d
       -0.23013166 -0.088839784 -0.07620573 0.09566595
0000d0 b7 aa 33 3d 2a 36 77 3d 9c 9c d9 3d c2 3e d5 3d
       0.04386398 0.06035439 0.10625574 0.10412361
0000e0 c2 c3 51 3e e6 f4 0f be f8 54 44 3c e3 68 72 bd
       0.20484832 -0.14058265 0.011983149 -0.05918206
0000f0 23 8d eb 3d 1e 46 64 3e 31 ed 25 bc 4e 38 06 3e
       0.11501529 0.22292373 -0.010127352 0.13107416

l3.weight f4 [3, 64]
000000 07 c1 2c c0 30 41 ec bd 56 1c 48 bd df 5d 90 be
       -2.6992815 -0.11535871 -0.04885515 -0.28196618
000010 8d 23 b1 3d 75 44 eb bd ec 4e 63 3e b1 7b 11 be
       0.08649359 -0.114876665 0.22198075 -0.14207341
000020 76 fe 07 3e 42 19 80 3d 15 93 13 be 33 0d 6d bf
       0.13280663 0.062548175 -0.14411576 -0.92598265
000030 45 30 18 be 62 79 f9 bd 80 46 c9 bb 88 da d3 be
       -0.14862163 -0.12181355 -0.0061424375 -0.41377664
000040 78 27 fa 3d 5c 22 8f 3e 85 b8 06 3e 1e 95 bc 3e
       0.12214559 0.27955902 0.13156326 0.36832517
000050 0d 8c 5c bd 77 7f 9f 3e 35 11 a6 be d8 a7 54 bf
       -0.0538445 0.31151935 -0.32435003 -0.8306861
000060 98 4f 02 3e 02 cf 48 be 24 53 94 40 fa 5d c9 3e
       0.12725675 -0.19610217 4.635149 0.3932951
000070 28 b2 db be 44 ad 46 bd b2 d6 37 3e 81 8f b6 3e
       -0.4290936 -0.048505083 0.17952994 0.3565636
000080 d6 c9 63 3e e1 6e 0f 3d 4c 40 a5 bd 0e d4 ec bf
       0.22244963 0.03501785 -0.08068904 -1.8502214
000090 98 2e 5d 3e ea 65 b4 be 1a 26 f2 bd 33 be 82 be
       0.21599805 -0.35234004 -0.118236735 -0.25535735
0000a0 5f 8b b1 3c 0d ef 27 3e 97 93 8f 3e fc f1 d4 3e
       0.021672903 0.16399784 0.2804229 0.4159087
0000b0 9c 13 22 3d b5 09 1b be c3 9e ca 3d 8f d4 95 bd
       0.039569482 -0.15140422 0.09893563 -0.07315933
0000c0 0c 30 f4 3d 0e 83 c3 bd f4 a5 56 3d bc c4 82 3e
       0.11923227 -0.09546481 0.05240436 0.2554072
0000d0 77 24 d6 bd 2b 1c e1 be e9 48 8f be 0f ab bb 3e
       -0.10456174 -0.43966803 -0.27985314 0.36653945
0000e0 40 8a 01 bc fa 87 c8 c0 e3 c8 35 3d 47 18 1d 3f
       -0.0079064965 -6.2665987 0.044381034 0.6136517
0000f0 bb a7 a0 3d 0d 5c 75 be 85 a6 87 3e 80 31 67 3f
       0.07844492 -0.23960896 0.26494232 0.90309906
000100 0d 03 5c bd ea 8d a2 3e 50 e6 0c 3e fe f2 b0 be
       -0.053713847 0.31748897 0.13759732 -0.34560388
000110 68 41 6e 3e d8 c5 9f 3e e3 48 98 3e 81 a3 1a c0
       0.23267138 0.3120563 0.29743108 -2.4162295
000120 9c 68 11 be a7 2f 49 3e c8 4c ab 3e 76 4e a0 bb
       -0.14200062 0.19647084 0.33457017 -0.004892166
000130 d0 93 86 be 9c fb 66 bd c2 fd a8 3d cd 7c 56 bd
       -0.26284647 -0.056392297 0.082515255 -0.052365113
000140 aa 0b 96 bd 28 cd 48 3e b4 f0 f1 bd 72 c1 b8 be
       -0.073264435 0.19609511 -0.118134886 -0.36085087
000150 7b 72 8d bd 76 df 3f bd a8 60 4f be 9a 67 aa bd
       -0.06906601 -0.04684397 -0.20251715 -0.08320542
000160 a1 98 f1 3c a2 96 62 be f8 f2 85 3b aa 52 c1 3d
       0.029491724 -0.22127774 0.004087802 0.09439595
000170 59 e5 86 3e cc 3b ba be 20 2a 51 3e f0 09 57 bd
       0.26346853 -0.36373746 0.20426226 -0.05249971
000180 5a b5 40 3e d4 c8 43 bd ee bb d4 3d bb e3 45 be
       0.1881918 -0.047798946 0.10387407 -0.19325154
000190 88 4d 34 3e 23 7c ff bd 70 e4 5e bd 07 57 7b 3d
       0.17607701 -0.12474849 -0.054417074 0.061362293
0001a0 f1 3a 70 3e 16 d0 bb 3c 37 d7 e1 3d 5d c5 d4 c0
       0.23459984 0.022926372 0.11027377 -6.649092
0001b0 f8 5b c5 bd 41 f5 d5 3e fe 8a 62 be 95 c3 a6 bd
       -0.09636682 0.41788676 -0.22123334 -0.08142773
0001c0 e4 37 85 40 3e 00 fc bd 80 56 49 3d 2f a7 a5 3d
       4.1630726 -0.12304734 0.04915476 0.08088528
0001d0 26 db 4a 3d bf 53 1f 3e 7b 96 80 bc bb 93 88 3e
       0.049525402 0.1555929 -0.015696755 0.2667521
0001e0 36 1e cf be 05 47 70 3d a7 d3 d1 3c 7e 4f 3a 3f
       -0.40452737 0.05866148 0.025613619 0.72777545
0001f0 9c c1 e3 bd 02 dc be be 3a 96 e6 3d 58 f4 f0 3d
       -0.111209124 -0.37277228 0.11259122 0.11765355
000200 c1 4e 0e be 19 ac a6 be f2 5c af be fb e2 93 be
       -0.1389723 -0.32553175 -0.342506 -0.2888411
000210 5b 41 71 be fa 07 e0 3d 1d 11 9a 3d 9c dc f8 bc
       -0.23560087 0.109390214 0.07522795 -0.030378632
000220 37 89 f2 3e 67 6b 8b 3e 74 0a 5a be e8 30 1a 40
       0.47370312 0.2723038 -0.2129305 2.409235
000230 4d ce e5 bd 42 28 e2 3d 00 4a a1 bb 2d 5c 8b 3e
       -0.112209894 0.11042835 -0.0049221516 0.27218762
000240 52 02 e2 be 1c 60 42 bf 55 89 a2 3e f6 3b 98 3d
       -0.44142395 -0.759279 0.317454 0.07433312
000250 7f 33 b9 3e 37 92 8e be 91 df 19 be 6b 49 f1 40
       0.361721 -0.27845928 -0.1502669 7.540212
000260 75 9b 60 3e 89 5a f6 3e 04 2d 02 3f dc 37 1f be
       0.21934302 0.48115948 0.5084994 -0.15548652
000270 6c c7 04 be a5 52 44 be fd 06 85 be ad a7 e7 3e
       -0.12966698 -0.19172151 -0.25981894 0.45245114
000280 e1 2f 43 3d 38 1e da bd 22 b5 99 be 47 1b 3e c0
       0.047653083 -0.10650295 -0.30021006 -2.9704149
000290 bb ba 1c bc 30 78 95 3e 8e 5d cc 3d 50 01 ec 3e
       -0.009566004 0.29193258 0.09978782 0.4609475
0002a0 a2 c7 58 bd 25 49 94 3e 25 e4 95 3d a3 25 46 be
       -0.05292476 0.28962055 0.07318906 -0.19350295
0002b0 74 1a 7a bd 2a 37 53 3e ff 9a 66 3e 54 d0 a5 3e
       -0.061060384 0.20626512 0.22520064 0.32385504
0002c0 95 98 18 3e c0 2b 34 3d 20 61 ec bc 0f 7b 1d 3e
       0.14901955 0.043987036 -0.028854907 0.15378974
0002d0 78 54 49 3d 4a 2d 4c be b8 dc e0 3e 0a 8a bc bc
       0.04915282 -0.19939151 0.43918395 -0.02301504
0002e0 ea c7 18 be e2 a7 71 3e e7 90 73 be 13 77 33 c0
       -0.14920011 0.23599198 -0.23785745 -2.8041427
0002f0 35 54 d5 3e 8b b0 8c be e3 33 cb bd b5 2d c9 3e
       0.41665807 -0.27478442 -0.09922006 0.39292684

l3.bias f4 [3]
000000 97 47 a0 3d 25 ee 2c be fe 22 e6 bd
       0.07826155 -0.1688772 -0.11237143
