examples/experiments/experiment_97/critic44_2.pth (torch, 42071 bytes, 5 tensors)

l1.weight f4 [64, 90]
0	0x3d3092cf	0.043108758
1	0x3dc46bdf	0.09590887
2	0xbdf9c7bc	-0.121962994
3	0xbd3db865	-0.04631843
4	0xbd9ee468	-0.07758409
5	0x3d1a6eb9	0.03770325
6	0x3ff4c1ff	1.9121703
7	0xbed9f615	-0.42570558
8	0x3d1026ad	0.035193134
9	0xbee94e66	-0.45567626
10	0x3e2f7419	0.17134131
11	0x3da99f3b	0.08282324
12	0xbe0a978b	-0.13534372
13	0xbd26ebc5	-0.04075219
14	0x3e3367ab	0.17520015
15	0xbe4a5b04	-0.19761282
16	0xbe353238	-0.17694938
17	0xbe573fbe	-0.2102041
18	0x3e6de650	0.23232388
19	0x3e907f53	0.2822214
20	0xbc2a2e6c	-0.010387044
21	0x3e9f15c3	0.3107129
22	0x3e1e2d18	0.1544689
23	0x3ca733bb	0.02041041
24	0xbd954385	-0.07288269
25	0xbb5d5a88	-0.0033775885
26	0xbe1b7480	-0.1518116
27	0x3d890416	0.066902325
28	0x3d65b1c8	0.05607775
29	0x3e8422dd	0.2580785
30	0x3e156df6	0.14592728
31	0xbe59c1f7	-0.21265398
32	0xbec51ef7	-0.38500187
33	0xbc8ad51b	-0.01694732
34	0xbcf98bcf	-0.030462174
35	0x3d671cbb	0.056423884
36	0x3e65190e	0.22372839
37	0x3e0d628b	0.13807122
38	0xbe023326	-0.12714824
39	0xbbe7a248	-0.007068906
40	0xbedc436e	-0.43020195
41	0xbe2e4dd7	-0.17021881
42	0xbe3f3c10	-0.18675256
43	0x3dc0cc23	0.09413936
44	0xbeee83c9	-0.4658492
45	0xbeac0b26	-0.33602256
46	0xbbf01509	-0.0073267263
47	0xbe7afe06	-0.24510965
48	0xbbe49c58	-0.0069766454
49	0xbda0c322	-0.07849719
50	0xbeb9bc56	-0.362765
51	0xbeb8bf27	-0.36083338
52	0x3ebca9e6	0.36848372
53	0xbd01f74d	-0.031729985
54	0x3da42445	0.0801473
55	0xbde9ac74	-0.11409846
56	0xbdf9b78b	-0.12193211
57	0xbede8710	-0.4346242
58	0xbe5d3a8f	-0.2160437
59	0x3e1441ce	0.14478227
60	0x3cdd2100	0.026993275
61	0x3f2e6c70	0.6813421
62	0x3eae101c	0.33996665
63	0xbf81437b	-1.0098718
64	0x3fea9eeb	1.8329748
65	0xbf069228	-0.52566767
66	0xbfd5b489	-1.669572
67	0xbfdb6f16	-1.7143276
68	0x40191b85	2.3923047
69	0x3f28dc74	0.65961385
70	0x3fb83926	1.439244
71	0x3f946185	1.1592261
72	0xbea16ab2	-0.31526715
73	0xbf677d97	-0.9042601
74	0x3fe534e5	1.7906767
75	0x3ff6ed0d	1.9291092
76	0x3e8c1bcf	0.27364966
77	0x3f783e89	0.9697042
78	0xbecc1a54	-0.39863837
79	0xbf458a6a	-0.7716433
80	0x407b1db2	3.9236875
81	0x406dace4	3.7136774
82	0xc015b582	-2.3392034
83	0xbf332034	-0.69971013
84	0xbee6da10	-0.45088243
85	0x3d75dccb	0.060025018
86	0x3f832665	1.0246092
87	0x3f399c8d	0.725045
88	0x3fe340d7	1.7754163
89	0xbf9ce5d5	-1.2257639
90	0x3c656316	0.014000675
91	0x3bb4f496	0.005522321
92	0x38d714d6	0.0001025588
93	0x3b889fad	0.0041694255
94	0xbbcfb58f	-0.006338782
95	0xbc04e39e	-0.008110909
96	0xbc389341	-0.011265577
97	0xbc5dcd0b	-0.013537656
98	0x3beb602d	0.007183096
99	0xbc1e5e8f	-0.009666099
100	0x3c0002a3	0.007813129
101	0x3ae3e2f9	0.0017386369
102	0x3b2b059a	0.0026095868
103	0xbc513a56	-0.012770256
104	0xbb0aef03	-0.002119959
105	0xbbbeb9b6	-0.0058204783
106	0xbb4149f8	-0.0029493552
107	0xbb2b750f	-0.0026162302
108	0x3ab830e8	0.0014052661
109	0xbb438d70	-0.0029838942
110	0x3aac2e1d	0.0013136301
111	0xbbf6ca81	-0.0075314646
112	0xbb1569b4	-0.00227986
113	0xbbfee31c	-0.0077785384
114	0x39af98da	0.00033492484
115	0xbba839ab	-0.0051338277
116	0xbbcc8d79	-0.006242451
117	0x3c27c7f2	0.010240542
118	0x39fb243f	0.00047901456
119	0xbc1b99a1	-0.009497077
120	0x3f1569ba	0.5836445
121	0x3e14dd3c	0.14537519
122	0x3f9e42a8	1.2364092
123	0xbc45aa4a	-0.012064526
124	0xbb2a10c1	-0.0025949928
125	0x3c2325a4	0.009957705
126	0xbc03243e	-0.008004246
127	0xbc3e077b	-0.011598463
128	0xbb244df6	-0.0025070882
129	0xbc1b8263	-0.009491536
130	0x3c0dd53e	0.008656798
131	0x3c179d79	0.009253853
132	0xbc02c960	-0.007982582
133	0xbb8d2872	-0.0043078
134	0x3ab84c98	0.0014060913
135	0x3b9cadd3	0.0047814636
136	0xbb9f152e	-0.0048548197
137	0x3ba60ef1	0.005067699
138	0x3b0dd449	0.0021641424
139	0xbc2515ba	-0.010075981
140	0xbbfbab0f	-0.007680304
141	0xbc82f899	-0.015987681
142	0xbc7fc3b2	-0.015610622
143	0xbbb30e83	-0.0054643764
144	0x3c240cc3	0.010012808
145	0xbbfa394e	-0.007636226
146	0x3c17adf6	0.009257784
147	0x3c2e9abe	0.010657011
148	0xbbd3200d	-0.0064430297
149	0x3c2f3a5e	0.010695068
150	0xc0bc5b20	-5.8861237
151	0xbfb3b312	-1.4039023
152	0xc1467f62	-12.406099
153	0x3c0a9fd8	0.008460961
154	0x3cfaa2e9	0.03059526
155	0x3abecfbd	0.001455776
156	0x3cc11d98	0.023573682
157	0x3d69f959	0.057122562
158	0xbd472a44	-0.048624292
159	0x3d332ede	0.043745868
160	0xbd1cb217	-0.038255777
161	0xbd485c45	-0.04891612
162	0x3d16acf3	0.03678603
163	0x3b889af5	0.004168863
164	0xbc1317eb	-0.00897787
165	0xbd3e10df	-0.04640281
166	0x3d4b635b	0.0496553
167	0xbc9affcf	-0.018920807
168	0xbd50d0bb	-0.05098031
169	0x3d514a24	0.051096097
170	0xbc92ec5f	-0.017934976
171	0xbc066805	-0.008203511
172	0x3da92617	0.08259218
173	0x3d439a9f	0.04775488
174	0xbd6b9b49	-0.05752114
175	0xbceca62e	-0.028887834
176	0xbd9721da	-0.073795035
177	0xbd88cc6b	-0.06679615
178	0x3d4a229c	0.049349412
179	0xbcf0f98e	-0.029415872
180	0xbe2a0a81	-0.1660557
181	0x3dc60ab2	0.09670009
182	0xbd7e7bc6	-0.06212976
183	0x3c153446	0.009106701
184	0x3cb80789	0.02246453
185	0xbc86166c	-0.016368113
186	0x3eb1e4e9	0.34744957
187	0xbf8fce9f	-1.1234931
188	0xbe87d031	-0.26526025
189	0xbdbf2e3d	-0.09334991
190	0x3ed2b967	0.41157076
191	0xbe9fa828	-0.3118298
192	0xbeaac8a1	-0.33356193
193	0xbf7500ff	-0.95704645
194	0x3e449ca0	0.19200373
195	0x3f3ea3b2	0.7446853
196	0x3e7b965d	0.24569078
197	0xbcbf6c87	-0.02336718
198	0xbf3049e2	-0.68862736
199	0xbe36755c	-0.17818207
200	0xbd13d6bb	-0.036093455
201	0xbde337f2	-0.11094655
202	0xbe883fdf	-0.2661123
203	0x3e8c43b0	0.2739539
204	0xbe7ff604	-0.24996191
205	0x3f6d0b27	0.9259514
206	0x3f080467	0.5313172
207	0xbd284f10	-0.041091025
208	0x3f01897a	0.506004
209	0x3e0097a8	0.12557852
210	0xbdafcf77	-0.08584493
211	0xbd9191c4	-0.07107881
212	0xbc5b7f24	-0.013397012
213	0xbd5d2a17	-0.053995218
214	0xbe199f6e	-0.15002224
215	0xbd81ffba	-0.06347604
216	0x3e5d2713	0.21596937
217	0x385b8d4d	5.2345265e-05
218	0x3d0e4d45	0.03474166
219	0xbc04451c	-0.008073118
220	0x3dd682ed	0.10474191
221	0xbe1b7c0d	-0.1518404
222	0x3d46745d	0.048450816
223	0x3dc50d31	0.09621657
224	0x3d083f87	0.03326371
225	0xbd789d59	-0.060696933
226	0x3dffba98	0.12486762
227	0xbd200e75	-0.039076287
228	0xbe074e54	-0.13213474
229	0x3d14337d	0.036181916
230	0xbd96119c	-0.073275775
231	0xbd75c73d	-0.06000446
232	0x3cbaa891	0.022785457
233	0x3de7f0f7	0.11325257
234	0xbc9c0d5a	-0.019049335
235	0xbd83bcde	-0.06432508
236	0x3d8a0aa6	0.06740312
237	0x3d2e643a	0.042576052
238	0x3d2ec6b9	0.042669985
239	0xbdc1aa6f	-0.09456336
240	0x3efc078f	0.49224517
241	0x3ec1d6b6	0.37859124
242	0x3d633cea	0.055478014
243	0xbe6c8d13	-0.2310069
244	0xbece49de	-0.4029073
245	0xbdfe4850	-0.12416136
246	0xbfd417fc	-1.656982
247	0xbfceba13	-1.6150535
248	0x3e03896c	0.12845391
249	0x3e1d1f58	0.15343988
250	0xbe6c494e	-0.23074839
251	0x3f26ff93	0.65233725
252	0xbe126e1d	-0.14299817
253	0x3da6e8ff	0.08149909
254	0x3da4eef4	0.08053389
255	0x3fae46d7	1.3615369

l1.bias f4 [64]
0	0x3e3deb9d	0.1854691
1	0x3c8352c7	0.016030682
2	0xbd949900	-0.07255745
3	0x3e303650	0.17208219
4	0xba1f94e7	-0.0006087557
5	0x3ad4f7be	0.0016248149
6	0x3e639160	0.22223425
7	0xbe05a53a	-0.1305131
8	0xb99ea767	-0.00030260833
9	0x3dc4bde7	0.096065335
10	0x3d28e4c4	0.041233793
11	0x3d92214b	0.071352564
12	0xbde33cf8	-0.11095613
13	0xbcfced83	-0.030874973
14	0x3d5d1b23	0.053980958
15	0x3e26b2c5	0.16279133
16	0xbde22a8c	-0.110432714
17	0x3e419bce	0.18907091
18	0xbbcfbc02	-0.006339551
19	0x3e160d87	0.14653598
20	0xbd829d6b	-0.06377681
21	0xbc42c300	-0.011887312
22	0x3e62e3d7	0.22157227
23	0x3ce629c9	0.028096097
24	0xba9a5d6b	-0.0011777108
25	0x3d814b62	0.06313206
26	0x3d977fa7	0.073973946
27	0x3e4bd326	0.19904765
28	0x3e3a1fe6	0.18176231
29	0xbe788186	-0.2426816
30	0xbb72c65d	-0.0037044503
31	0x3a8d228d	0.0010767743
32	0x3e2d2e9b	0.1691231
33	0x3e577270	0.21039748
34	0x3ea868da	0.32892495
35	0xbc969a0d	-0.018384004
36	0x3dbb32cd	0.09140549
37	0xbb26a76e	-0.0025429386
38	0x3ed1c254	0.40968573
39	0xbac6dca1	-0.0015171954
40	0x3cabdd7c	0.020979635
41	0xbd94ca61	-0.07265163
42	0x3c275c5c	0.010214891
43	0xbb7bab0a	-0.0038401508
44	0x3dc6a7e3	0.096999906
45	0x3de4bb4e	0.11168538
46	0x3e36622a	0.17810884
47	0xbe0c06b3	-0.1367443
48	0x3da1e04d	0.0790411
49	0x3e40bb67	0.18821488
50	0x39f99dca	0.00047610543
51	0xbd6ec2a4	-0.058291093
52	0xbd124609	-0.035711322
53	0x3e5e2b78	0.2169627
54	0x3a487e53	0.00076482183
55	0x3afe0016	0.0019378688
56	0x39525c0e	0.00020061454
57	0x3e6d8088	0.23193562
58	0xba54dfec	-0.0008120525
59	0x38c1a55b	9.233757e-05
60	0x3dba493b	0.09095999
61	0xba1946a9	-0.0005847016
62	0x3b5b2e79	0.0033444448
63	0xbc2979b8	-0.010343961

l2.weight f4 [64, 64]
0	0x3ed40373	0.41408882
1	0xbff850dc	-1.9399676
2	0x3dd9c861	0.10633922
3	0x3e21ed3c	0.15813154
4	0xc00fdd7e	-2.2478938
5	0xbf4bdbb8	-0.7963214
6	0x3d4ff294	0.05076845
7	0xbe7c3d1c	-0.24632686
8	0xbd9f9536	-0.077921316
9	0xbe6f5c78	-0.23375118
10	0xbe5313c6	-0.20613012
11	0x3c1f9591	0.009740249
12	0x3cfc2230	0.03077802
13	0xbef3e9c5	-0.4763929
14	0x3ec992f6	0.39369935
15	0x3d23dac6	0.04000356
16	0x3e8445d3	0.25834522
17	0x3dff3ca3	0.124627374
18	0xbe25c6ba	-0.1618909
19	0xbebf4783	-0.37359247
20	0xbe9e7d43	-0.30954942
21	0xbe3639ee	-0.17795536
22	0x3e73df4d	0.23815651
23	0xbe8828ac	-0.2659353
24	0xbfcb6a48	-1.589181
25	0xbf340358	-0.703176
26	0x3e8960a4	0.26831543
27	0xbdc0e8bc	-0.094193906
28	0x3e12c690	0.14333558
29	0xc06116e6	-3.5170226
30	0xc01cb519	-2.4485533
31	0xbfbfccae	-1.4984338
32	0x3f4f9675	0.81088954
33	0x3f039b3c	0.51408744
34	0xbc1988f2	-0.009371029
35	0xbf1198b1	-0.56873614
36	0xbf0dffce	-0.5546845
37	0xbd363b17	-0.044489946
38	0xbdb6c38f	-0.089240186
39	0xbe43da5e	-0.19126269
40	0xbc7be99d	-0.015375522
41	0x3de1ec62	0.110314146
42	0xbefa2ae4	-0.48860848
43	0xbf61efb1	-0.88256365
44	0x3e90ff13	0.28319606
45	0xbecb697f	-0.39728925
46	0xbe2ebe1e	-0.17064711
47	0xbfb78848	-1.4338465
48	0xbe890d2f	-0.2676787
49	0xbe041c43	-0.12901406
50	0xbfb6d754	-1.4284463
51	0x3cc5bbd7	0.02413742
52	0xbef55514	-0.47916472
53	0xbe20ee93	-0.15716009
54	0xbee150c2	-0.44006926
55	0xbf3011f6	-0.68777406
56	0xc02d10f7	-2.7041605
57	0xbe46f9b0	-0.19431186
58	0xbecdf393	-0.40224895
59	0xbfc040d3	-1.5019783
60	0xbe25c869	-0.16189732
61	0xc01b843c	-2.429946
62	0x3eb75da6	0.35813636
63	0x3e9efad3	0.3105074
64	0x3d33d59a	0.04390488
65	0x3e98fe83	0.29881677
66	0x3e009a83	0.12558942
67	0x3e68d7dc	0.22738594
68	0xbee5709d	-0.4481248
69	0xbf4a3fc6	-0.7900356
70	0x3e279b4d	0.16367836
71	0x3c76ad07	0.015055901
72	0x3eeda490	0.46414614
73	0x3e7ea43d	0.2486734
74	0xbeeb38b3	-0.45941696
75	0x3d74f2f8	0.059802026
76	0x3db3e033	0.08782997
77	0xbe0c9c43	-0.13731484
78	0x3e905bb4	0.28194964
79	0x3d23cd41	0.039990667
80	0x3f895913	1.0730308
81	0x3e0ee2be	0.13953683
82	0xbf341ab8	-0.7035327
83	0x3e1a15d6	0.15047392
84	0x3ec6b8d6	0.38812894
85	0x3e874607	0.26420614
86	0x3ea917d4	0.33025992
87	0xbdf75730	-0.120771766
88	0x3e36f2d3	0.17866068
89	0x3f54d5c0	0.83138657
90	0x3ef318cc	0.47479856
91	0x3d1ca3f1	0.038242284
92	0x3e023137	0.12714086
93	0xbf6512e2	-0.8948194
94	0xbe78adb1	-0.24285008
95	0xbe1ed642	-0.1551142
96	0x3e910b84	0.28329098
97	0x3e499ac3	0.19687943
98	0x3d9673a6	0.07346277
99	0x3f252f2c	0.64525104
100	0x3e5c7061	0.21527244
101	0xbf5da050	-0.8657274
102	0x3e163918	0.14670217
103	0xbf4b7626	-0.79477155
104	0x3e14a3c2	0.14515594
105	0xbd8a1f08	-0.067442
106	0x3dda030b	0.10645112
107	0xbf71064d	-0.9415024
108	0x3e944726	0.28960532
109	0x3e665fbf	0.22497462
110	0x3e1960bd	0.14978309
111	0x3e973b98	0.29537654
112	0x3eb84e43	0.3599721
113	0x3dfa4030	0.12219274
114	0xbe1ff437	-0.15620504
115	0x3e06f031	0.13177563
116	0x3e294046	0.16528425
117	0xbc6f4f74	-0.014606345
118	0xbed6147f	-0.41812512
119	0xbf3807b1	-0.71886736
120	0xbedda423	-0.4328929
121	0x3da68926	0.08131628
122	0xbe5eade5	-0.21746023
123	0xbeeaae30	-0.4583602
124	0x3d1011a4	0.035173073
125	0x3d8c0de0	0.06838584
126	0x3ee13b3d	0.43990508
127	0x3e8ac667	0.27104494
128	0x3d9f3dca	0.07775457
129	0x3c65a59c	0.014016535
130	0xbdb9a368	-0.090643704
131	0x3db7cc0b	0.08974465
132	0x3b826665	0.0039794915
133	0xbd635531	-0.055501167
134	0xbe0386b0	-0.12844348
135	0x3d5ab55b	0.05339561
136	0x3d4cf929	0.050042305
137	0xbd0af702	-0.03392697
138	0xbda5813d	-0.08081291
139	0xbe0781e6	-0.13233146
140	0xbd3f185c	-0.04665409
141	0x3d5d138b	0.053973716
142	0xbe14f8f1	-0.14548089
143	0x3d8a7e0e	0.06762324
144	0x3dc2db8a	0.0951453
145	0x3d4dedbd	0.050275553
146	0xbcd109ef	-0.025517432
147	0xbdf0fc18	-0.11766833
148	0xbd876fac	-0.066130966
149	0x3c85e241	0.016343238
150	0xbcf778c9	-0.030208962
151	0xbdc92af2	-0.09822644
152	0xbdaf656c	-0.085642666
153	0xbd0c6914	-0.034279898
154	0xbddc9709	-0.10770995
155	0xbd115c9d	-0.035488714
156	0xbcb07c18	-0.021543548
157	0x3db3dfab	0.08782896
158	0xbdf4efe8	-0.11959821
159	0xbca154c5	-0.019693742
160	0x3c83f995	0.01611022
161	0xbcfd48ec	-0.03091856
162	0xbd1fca81	-0.039011482
163	0xbd3cd788	-0.046103984
164	0xbd619ed2	-0.055083103
165	0xbd0e1fab	-0.03469817
166	0xbcb77d4e	-0.022398617
167	0x3cb55722	0.022136275
168	0xbdd3eac2	-0.10347511
169	0x3db1b0dc	0.086763114
170	0x3cd80d26	0.026373457
171	0xbd9f58f8	-0.07780641
172	0xbe00edde	-0.12590739
173	0x3d2d88fa	0.04236696
174	0xbd985077	-0.074372225
175	0x3dff559c	0.124675006
176	0x3cf1c2a6	0.02951176
177	0xbda782f2	-0.08179273
178	0xbd97f084	-0.074189216
179	0x39b89000	0.00035202503
180	0xbd9c5ac6	-0.07634501
181	0x3dba8910	0.09108174
182	0xbd890037	-0.06689494
183	0x3d1d10ca	0.03834609
184	0xbddca226	-0.10773115
185	0x3d9c8bbd	0.076438405
186	0xbdeb27f6	-0.11482231
187	0x3d5b60fd	0.053559292
188	0x3da1b0ec	0.07895073
189	0x3d292aed	0.041300703
190	0xbc78fdda	-0.015197242
191	0xbd9feacd	-0.078084566
192	0x3dd92da8	0.10604411
193	0xbdf50d1a	-0.119653895
194	0x3e6ab509	0.22920622
195	0xbe35daee	-0.17759296
196	0x3da58228	0.08081466
197	0xbed5184e	-0.41620106
198	0x3e9568ba	0.29181463
199	0xbe4d3e25	-0.20043238
200	0xbed9f6fd	-0.4257125
201	0xbe7865cf	-0.24257587
202	0xbdac42b1	-0.08411158
203	0x3dc2ad7a	0.09505744
204	0x3dd2b322	0.10288073
205	0xbd268136	-0.04065057
206	0xbe5ac6e2	-0.2136493
207	0x3ca8d689	0.02061011
208	0xbf76d2bd	-0.9641531
209	0xbe362fa4	-0.17791611
210	0x3f954e28	1.1664476
211	0xbe60cd53	-0.21953325
212	0x3e1e2a73	0.1544588
213	0x3e7197cd	0.23593064
214	0x3e80f92b	0.251901
215	0xbdc3cdf6	-0.09560768
216	0xbe08c08b	-0.133547
217	0xbfaf0cf3	-1.3675827
218	0xbe88c6d0	-0.26714182
219	0xbcf82a60	-0.030293643
220	0x3e7567d8	0.23965394
221	0x3e739a15	0.23789246
222	0xbe1d1c0b	-0.15342729
223	0x3edff2b1	0.43739846
224	0xbe8c71ce	-0.27430576
225	0x3e2c2a96	0.1681312
226	0x3e205e91	0.15661074
227	0x3d5036be	0.050833456
228	0x3e2827a5	0.16421373
229	0x3f820b41	1.0159684
230	0xbd8f0583	-0.06983473
231	0xbc774384	-0.015091781
232	0xbe1b7e8d	-0.15184994
233	0x3d88ac3a	0.066734746
234	0xbebdbbd1	-0.37057355
235	0xbec4ce28	-0.38438535
236	0x3d8c5c3b	0.06853529
237	0xbf34417f	-0.7041244
238	0x3e7996f1	0.24373986
239	0xc06b0577	-3.6722085
240	0xbe8e74e6	-0.2782356
241	0xbe3a27b3	-0.18179207
242	0x3f1f2f96	0.62181985
243	0x3eef7fdd	0.4677724
244	0xbe648a50	-0.22318387
245	0x3daf15d7	0.085490875
246	0xbdf69ea0	-0.12041974
247	0xbd5f31fc	-0.05449103
248	0x3e580b7e	0.21098134
249	0x3d14cde3	0.03632916
250	0x3f8ab89e	1.0837591
251	0xbea2cbca	-0.31796104
252	0xbd07ebe8	-0.033183962
253	0xbed497e1	-0.41522124
254	0xbe720f44	-0.23638636
255	0x3ef8386f	0.48480555

l2.bias f4 [64]
0	0x3e40eb4f	0.18839763
1	0x3e767985	0.24069794
2	0xbe0f3088	-0.13983357
3	0xbd01ce11	-0.03169066
4	0xbd26f74f	-0.040763196
5	0xbc9c3e9f	-0.019072829
6	0xbebda2c7	-0.37038252
7	0xbae9ad60	-0.0017828159
8	0x3e42c12d	0.19019003
9	0xbdc77563	-0.097391866
10	0x3e0a69d6	0.13516936
11	0x3c6b300d	0.014354718
12	0xbe51c5fe	-0.20485684
13	0x3e755e06	0.23961648
14	0xbd84166b	-0.064495884
15	0x3e6f031f	0.23341034
16	0x3e75cbd6	0.24003538
17	0xbd2278c6	-0.03966596
18	0x3df9fe4e	0.12206708
19	0xbccdf114	-0.02513937
20	0x3e631a3a	0.22177973
21	0xbbb74047	-0.0055923793
22	0x3e87cfb6	0.26525658
23	0xbe2d4433	-0.16920547
24	0xbe0b0021	-0.13574268
25	0x3d72303e	0.05912804
26	0xbe114803	-0.14187627
27	0xbd94fc98	-0.07274741
28	0x3e5b3e42	0.21410468
29	0x3c810417	0.01574902
30	0x3e6a7ac5	0.22898395
31	0xbcc524a0	-0.024065316
32	0x3e904020	0.28173923
33	0xbe4f7299	-0.2025856
34	0x3d1969b0	0.037454307
35	0x3cc7924c	0.024361752
36	0x3e628848	0.221223
37	0x3d54a1dc	0.051912174
38	0xbdb6868a	-0.0891238
39	0xbcc0c0f6	-0.023529511
40	0xbd3415b8	-0.043966025
41	0x3e339ac2	0.17539504
42	0x3e0c1c8d	0.13682766
43	0x3e33b310	0.17548776
44	0x3e034f4e	0.12823221
45	0xbeefcfe7	-0.46838304
46	0xbe9e6c60	-0.3094206
47	0x3e3fc48b	0.18727319
48	0xbd9f0195	-0.077639736
49	0x3d210e7d	0.039320458
50	0x3d780279	0.060549233
51	0xbf3b9ac5	-0.73283035
52	0x3e3748ea	0.17898908
53	0x3ea56d12	0.32309777
54	0x3e557a2e	0.20847389
55	0x3e67b77a	0.22628585
56	0x3dc871cc	0.0978733
57	0xbdabac39	-0.08382458
58	0x3e329247	0.17438613
59	0x3dd8b4d5	0.10581366
60	0xbd882c66	-0.06649093
61	0xbd86f4a9	-0.06589634
62	0x3e3e36d2	0.185756
63	0xbd883244	-0.066502124

l3.weight f4 [1, 64]
0	0x407e8450	3.9768257
1	0x3eafbb9e	0.34322828
2	0x3d2bf743	0.041983854
3	0x4006a63b	2.103896
4	0xbdb85a3d	-0.090015866
5	0x408550d9	4.166119
6	0xbffb8de7	-1.965268
7	0x3fa9b031	1.3256894
8	0x3e952eab	0.29137167
9	0xc0120dc5	-2.2820904
10	0x3f1abd64	0.6044524
11	0xbfc159bf	-1.5105513
12	0xbfbc9da4	-1.4735608
13	0x3ea5f46a	0.32413036
14	0x4048814b	3.1328914
15	0x3ea9877f	0.33111188
16	0x3eaf10e3	0.3419257
17	0xbfe3a0d6	-1.7783458
18	0x3e94e5a0	0.2908144
19	0xc032df8e	-2.7948947
20	0x3e8e8d0b	0.27841982
21	0xbfa4a28b	-1.2862104
22	0x3ebe43de	0.37161154
23	0xbfcc4ae8	-1.596036
24	0xbfb90eaf	-1.4457606
25	0xbf943d9e	-1.1581304
26	0x3c2506a6	0.010072386
27	0xbc8d981d	-0.017284447
28	0x3ec538a0	0.38519764
29	0x40a124f3	5.0357604
30	0x3e8766c7	0.264456
31	0xbf9c628b	-1.2217573
32	0xc00969e5	-2.1470883
33	0x414eab21	12.9167795
34	0xbfc24d54	-1.5179849
35	0x405e1556	3.4700522
36	0x3ef703c0	0.4824505
37	0xc05b7f45	-3.429643
38	0x407b731d	3.928901
39	0x3ffd8ee5	1.9809233
40	0xbf933b65	-1.1502501
41	0x3eafe408	0.34353662
42	0x3ea5a30d	0.3235096
43	0xbfb6b9ce	-1.4275453
44	0xc028d9ab	-2.6382854
45	0xc19ecc7a	-19.849842
46	0xc1c6b340	-24.837524
47	0x3e7890d8	0.24274004
48	0xbd1a7702	-0.03771115
49	0x4024a67c	2.5726614
50	0xc0b6962c	-5.7058315
51	0xc1a86ce0	-21.053162
52	0x3ea6d32a	0.3258298
53	0x3ee7122c	0.45131052
54	0x3ec0ed42	0.37681013
55	0x3f8c1f85	1.0947119
56	0xc1a4aa47	-20.583143
57	0xbf9d26b1	-1.2277433
58	0x3f348392	0.7051326
59	0xbf84d859	-1.0378524
60	0xbfbf8cb9	-1.496482
61	0xbfb9e561	-1.4523126
62	0x3ec0939d	0.3761262
63	0xbff4abd9	-1.9114944
