examples/experiments/experiment_97/critic25_4.pth (torch, 42071 bytes, 5 tensors)

l1.weight f4 [64, 90]
000000 1b 44 1c 3e d4 16 1b 3e e0 f3 03 3e df b4 88 3e
       0.15260355 0.15145427 0.12886 0.26700494
000010 40 ef 96 3e cf ba 98 3d ba 69 eb bc 3a 25 7c 3e
       0.29479408 0.07457506 -0.028736938 0.24623576
000020 f1 d5 06 be d9 de a2 be a3 25 bf 3d 49 f8 dd bc
       -0.1316755 -0.31810644 0.093333505 -0.02709593
000030 31 0f f7 3e c3 af 3c bf e8 a3 f5 3e 90 8d 3c 3d
       0.48253778 -0.7370569 0.47976613 0.046033442
000040 17 83 40 bc f0 e5 60 3e 4d d2 98 3e ef 3c fe 3c
       -0.011750004 0.21962714 0.29847947 0.031034915
000050 8f 2d 04 3e 79 4f cc 3d 9a 2a 54 3e 10 e9 28 3d
       0.12908004 0.09976096 0.20719376 0.04123789
000060 08 63 9b be 65 86 c8 bd 9a ba e1 3c 7f 79 ef be
       -0.30348992 -0.09791259 0.027554799 -0.46772382
000070 18 16 12 bf 84 55 00 3e 20 ba f3 be 70 07 2c 3e
       -0.5706496 0.12532622 -0.4760294 0.16799712
000080 38 29 88 be aa 31 3d 3d 14 9e 04 bd 0e 34 4b 3e
       -0.26593947 0.04618994 -0.032377318 0.19844076
000090 e9 8a 25 3e ff ad 00 be ab 50 fd 3d 4c 95 21 bb
       0.16166271 -0.12566374 0.12368902 -0.0024655638
0000a0 bd f9 32 3e a7 8e 8c 3e a1 53 74 3d 6c 5a 08 bf
       0.1747808 0.27452585 0.059650067 -0.5326297
0000b0 c3 d4 da 3e 95 f9 27 be e7 11 07 3e c6 26 88 bc
       0.4274045 -0.16403802 0.13190423 -0.016620051
0000c0 32 a0 60 be 98 b8 09 be c1 6a 3a 3e 9d d6 48 bc
       -0.2193611 -0.13449323 0.18204786 -0.012258199
0000d0 96 03 3f bf dc 58 23 be 2c ad 04 be 46 26 0b be
       -0.74614847 -0.15951866 -0.12956685 -0.13588819
0000e0 e7 ce 0b 3e 2c bc 72 3e b0 3b dd be 8b 2f b4 3d
       0.13653146 0.23704594 -0.432096 0.087981306
0000f0 65 ee b9 3f 66 dc e7 3e 2c d0 1e 3f 26 cd 39 3f
       1.4525877 0.45285338 0.62036395 0.72578657
000100 e2 53 6b 3f 1d 89 45 bf 5a 47 7d 3e 8c 12 a7 3e
       0.9192487 -0.77162343 0.2473425 0.32631338
000110 23 1d ae 3f 36 12 24 3f da 41 99 bf 0d 71 fd 3e
       1.3602642 0.6409029 -1.1973221 0.49500313
000120 48 ed ff be 48 35 c3 3f bf 60 fc bf 40 12 a1 3f
       -0.4998572 1.5250635 -1.9717025 1.2583694
000130 34 3a d0 bd ca 3e b3 3e 3a c4 bf 3e cc 4a ea be
       -0.10167351 0.35008842 0.37454396 -0.4576019
000140 76 8a ab bf c3 9e a3 3f b8 dd 4a 3d 8d a3 d2 3e
       -1.340163 1.2782825 0.049527854 0.41140404
000150 f8 49 5c bf 64 43 59 3e f2 8c 46 bf 52 c8 c3 3e
       -0.8605037 0.21217114 -0.77558815 0.3823877
000160 50 10 e1 3f 10 d9 ca be cb 9b 85 3e 7b a7 e7 be
       1.7583103 -0.3961873 0.26095423 -0.45244965
000170 63 d4 2d bd a2 7f b9 3d a3 e3 89 3e e2 0b 97 bc
       -0.042438876 0.09057547 0.26931486 -0.018438283
000180 99 b5 8f 3e f2 45 62 be 62 86 55 3e 6f b8 b0 bd
       0.28068236 -0.22096995 0.20852044 -0.08628928
000190 09 8b b9 3e 3c 78 23 be 5b 1a 06 bf 0b 20 15 3d
       0.36238888 -0.15963835 -0.52383965 0.03640751
0001a0 07 0b a3 bc 0a 8e 0a 3f b2 e1 cc bd 29 42 5f 3e
       -0.01990272 0.54122984 -0.100039855 0.21802582
0001b0 5b 0d 0b 3e 3b 4b 30 3e 10 6a 2a be 64 db 7e be
       0.13579313 0.17216198 -0.16642022 -0.24888378
0001c0 90 5e 36 3f fe 3c 34 3d 1b cc 9a be a5 66 0c bf
       0.7123804 0.04400348 -0.30233845 -0.54844123
0001d0 f2 8d be be 7c aa a4 bd 87 96 eb bd 5b 88 80 3e
       -0.3721767 -0.0804033 -0.1150332 0.2510403
0001e0 f8 e8 86 bd 02 80 bd bb 6b 02 60 bd 08 3f 2f 3d
       -0.06587404 -0.005783082 -0.054689806 0.04278472
0001f0 b4 7c e3 3c d0 13 38 bd de ee 0c bb eb 6e 20 bd
       0.027769424 -0.04494077 -0.002150468 -0.03916828
000200 eb 56 a4 bb 45 8b 51 ba bb b8 84 3d 92 58 06 bd
       -0.0050152442 -0.000799347 0.06480547 -0.03279931
000210 fe 41 c0 3c d1 5a 45 bd 02 30 7f 3d f2 c5 ec 3c
       0.023468968 -0.048182312 0.062301643 0.028902981
000220 7e 15 0d 3d 2e 70 40 3d f9 64 cc 3a cb c4 95 3d
       0.034444325 0.046981983 0.0015594057 0.07312926
000230 98 3e 8e bc 7f ab 15 3d 65 af 4a 3e af fe fd 3c
       -0.017363831 0.036540505 0.1979347 0.031005232
000240 61 5f d1 3c 70 12 98 bd 14 62 b7 bc 89 50 2b 3d
       0.025558176 -0.07425392 -0.022385634 0.04182485
000250 d9 f5 5d 3c 13 54 c0 3d a7 7e e2 3e 6c 18 80 bd
       0.013547384 0.09391036 0.44237253 -0.06254658
000260 a6 a8 32 be fa f3 0c bf 0a 94 4c be 50 00 3f 3d
       -0.17447147 -0.5505978 -0.19978347 0.046631157
000270 61 9f bb bc eb d2 14 3f 01 eb aa 3e f5 80 17 3d
       -0.022903146 0.58134335 0.3338242 0.036988217
000280 45 34 fd be 7c 97 32 3e f9 b1 77 bd a3 c7 59 3d
       -0.4945394 0.17440599 -0.060472462 0.053168904
000290 80 e6 b0 be 3a a7 f2 ba 08 86 8a bd 41 29 17 be
       -0.34550858 -0.0018512972 -0.06763846 -0.14761831
0002a0 8d 67 12 3e 67 89 fd be 8e 51 29 be dd 9f ef bd
       0.14297314 -0.49518892 -0.16535017 -0.117004134
0002b0 1a ff 4e bf 1d 9d d0 3d 8a 26 e0 be 36 3a 03 3f
       -0.80858004 0.10186217 -0.43779403 0.512607
0002c0 9a 25 9e 3e 7f db 4d 3e 69 53 d2 be fb 7a 03 bd
       0.30888063 0.20103262 -0.41079262 -0.032099705
0002d0 77 08 e1 3b a2 b7 3f 3b 9d d3 d2 ba d5 4c 94 3b
       0.006867464 0.002925374 -0.0016084794 0.0045257607
0002e0 c9 4f cd ba 5e a9 b0 3a 35 7b 09 bc 09 eb 40 bb
       -0.0015664037 0.001347821 -0.008391191 -0.0029436967
0002f0 40 27 23 3b 61 d0 49 bb 78 c4 ce ba c0 95 12 bb
       0.002489522 -0.003079437 -0.0015775105 -0.002236709
000300 93 77 86 3b 0b 40 37 bb 1c e1 ad 3b b5 01 7c 3a
       0.00410361 -0.0027961757 0.005306376 0.00096132915
000310 3a 06 48 bb db 41 8d bb 2e a1 a2 3a 07 69 7f b9
       -0.003052129 -0.004310829 0.0012407654 -0.00024357821
000320 75 3d aa ba 34 ed 30 bb a7 f3 98 3b f2 23 cf 3b
       -0.0012988286 -0.0026996853 0.0046677175 0.0063214237
000330 e6 3d a1 3b 60 5b 08 b9 29 81 9c ba a8 28 44 bc
       0.004920709 -0.0001300401 -0.0011940348 -0.011972584
000340 3c 90 31 3a 6d 13 93 ba 70 ed 96 3b d7 ea 95 3b
       0.0006773507 -0.0011220999 0.0046059415 0.004575114
000350 af e3 34 b8 f1 e6 d9 3a 06 7a 8d bb 2b 96 25 3b
       -4.312739e-05 0.0016624612 -0.004317525 0.002526651
000360 55 ef 76 bb 40 1e d2 3b ef 25 4d 3b 15 32 97 3b
       -0.0037679274 0.0064122975 0.0031303128 0.0046141245
000370 49 cf 45 bb 1a eb 00 bb 88 d2 f3 3a 33 9d b3 bb
       -0.0030183366 -0.0019671381 0.0018602172 -0.005481386
000380 4b 5d 8f 3a 01 21 09 ba c8 34 8d 3a 06 72 08 3a
       0.0010937838 -0.0005231053 0.0010773176 0.0005204979
000390 cf 8d 98 3c e5 fc 0c 3f 17 28 70 3e b6 5f 19 3c
       0.018622307 0.55073386 0.23452793 0.009361198
0003a0 25 52 86 3b 62 89 64 3a 16 f2 2d bb 0d c0 dd 3b
       0.004099148 0.00087179814 -0.0026542 0.006767279
0003b0 7e 6c eb b9 15 78 15 3c a7 c3 23 3b ea f2 19 bb
       -0.00044903526 0.009122868 0.0024988444 -0.0023490735
0003c0 dc de 95 bc 5b 2f ae bb e2 b7 66 3c bf b0 c6 3b
       -0.018294744 -0.005315704 0.014081927 0.0060635502
0003d0 92 f2 95 bc d5 9f be bb 62 b8 0a bc db 10 0c bc
       -0.018304143 -0.0058173933 -0.008466812 -0.0085489405
0003e0 23 55 77 ba c6 2b 90 bb 62 5a 28 3c 0c fe 46 3c
       -0.00094349886 -0.0043997495 0.010275455 0.01214553
0003f0 c9 71 ad ba 34 b6 55 3b 71 3a bf bc 60 76 ca 3b
       -0.0013232763 0.0032609822 -0.023343297 0.006178662

l1.bias f4 [64]
000000 7a 86 21 3d aa ad c9 3c 90 86 4f 39 a2 9e 8f 3d
       0.039434887 0.024618942 0.00019791187 0.07012679
000010 f0 03 b2 3a f3 85 40 bc 16 b7 9d 3c 8e 90 ac 3d
       0.0013581496 -0.011750686 0.019252341 0.08426009
000020 c7 b9 bf 3b 8b 46 f5 3c 41 a9 63 bb 88 8b 88 3d
       0.005851004 0.029940864 -0.0034738334 0.066672385
000030 fb 4e 4f 3d 91 bb 6c bc a9 32 cd 3d 7d c2 03 3b
       0.05061243 -0.014449016 0.10019428 0.0020104938
000040 76 5d 3b 3d 6a 56 2d bb 4e 55 45 ba 4e 3d 10 bb
       0.04574343 -0.0026449212 -0.0007527665 -0.0022009197
000050 99 ef 2a 3e 40 b5 1b 3d 66 55 06 3d d9 3f 77 3d
       0.16692962 0.03801465 0.032796286 0.060363624
000060 f4 e1 ed 3c 29 3f 7b bb 14 e9 c8 bb b3 05 4b bb
       0.029038407 -0.0038337207 -0.0061313007 -0.0030978739
000070 a5 12 b6 3d e7 34 d6 3d ae e5 a3 3d 98 35 33 bb
       0.08890275 0.10459309 0.08002792 -0.0027345177
000080 2c ab 0c bd 5d 00 19 3e e5 48 a3 3d e0 28 5f be
       -0.03434293 0.14941545 0.07972888 -0.21792936
000090 d2 9d c3 bd 1e c8 ee ba 58 db 2b bd fd 11 1b bb
       -0.09551586 -0.0018217599 -0.04195723 -0.0023661845
0000a0 b7 7c 9a 3d 5f 49 2d bc 16 15 8e 3d eb 37 27 3d
       0.07543319 -0.010576575 0.069376156 0.040824812
0000b0 eb 81 86 bd ea 0f 32 3e 06 ce 01 3e 85 09 16 bc
       -0.06567749 0.17388883 0.12676248 -0.009157543
0000c0 b5 9f 19 3e 39 01 52 3a 66 a8 ad 3c af 42 da bc
       0.1500233 0.00080110464 0.021198463 -0.026643125
0000d0 02 27 dd 3c 2c ae 35 3c 59 ff a2 bd eb 32 d6 3d
       0.02699614 0.011088889 -0.0795886 0.104589306
0000e0 a4 6f 9b 3d a4 5c d7 3d bf da 9c 3d ed e4 75 bb
       0.07589653 0.10515717 0.0765891 -0.0037520484
0000f0 e3 50 7b 3c eb 40 ee 3d 0f 30 1f 3e a9 e0 be bd
       0.015339109 0.11633476 0.15545677 -0.09320194

l2.weight f4 [64, 64]
000000 e1 b0 49 be b9 41 9d 3f 9a 48 20 bf b1 a5 92 3e
       -0.1969638 1.2285682 -0.6261078 0.28642038
000010 db e5 69 3d fe f4 73 3e 1c ea 3b be dd 5c 5e 3e
       0.057103973 0.23823926 -0.18351024 0.21715112
000020 a5 39 d9 3d e5 56 53 3e c7 e0 af be b6 bb 78 3e
       0.10606698 0.20638616 -0.3435118 0.24290356
000030 0c 9d cc 3e 2b b6 a8 be 82 1a 8b 3e bd 01 25 be
       0.39963567 -0.32951483 0.2716866 -0.16113944
000040 11 2f e9 3e e9 cb 96 be cf cf 6b 3e 87 c6 d2 be
       0.4554372 -0.29452446 0.23028491 -0.4116709
000050 1b 2f bb 3e 6e 98 8c 3f dc e8 c9 3e 3b 73 24 bf
       0.36559376 1.0984018 0.3943547 -0.6423833
000060 17 92 b4 3d 9c 54 50 be db 47 11 bf 90 b5 2d be
       0.08816927 -0.20344776 -0.5675027 -0.16963792
000070 56 e1 11 be fa 11 14 3f b4 cb d8 be f8 71 96 bd
       -0.14246115 0.5783993 -0.42342913 -0.073459566
000080 d5 ae f8 bd 44 3c 8b 3e 9d 3a ab be a3 77 95 3f
       -0.121427216 0.27194417 -0.33443156 1.1677135
000090 51 0f a8 bd 0b 68 04 bf da 55 72 be d0 e5 d2 be
       -0.082060464 -0.51721257 -0.23665562 -0.41190958
0000a0 b8 80 3d be 41 14 8b be 30 f3 bd be 7a c4 c6 3d
       -0.18506134 -0.2716389 -0.370996 0.09705444
0000b0 c2 48 b2 bd f3 3e 2b 3f 5a ef b4 be cb 4e a6 be
       -0.08705284 0.6689293 -0.3533886 -0.3248199
0000c0 35 d3 d3 3e ed ee e0 bb de 81 f7 bd 43 6b 4a 3e
       0.41372076 -0.0068644197 -0.12085317 0.1976748
0000d0 1a cd 07 3d ce d6 2e 3f 9b 5b af be cc 65 98 be
       0.033154584 0.68296516 -0.34249577 -0.29765165
0000e0 b6 8c f3 3e 11 41 a5 be 22 52 75 3e 08 52 d6 be
       0.4756829 -0.32276204 0.23957112 -0.4185946
0000f0 9d 5d 89 bc 5c d1 fc bd 19 c8 a7 3e 12 1f 84 bd
       -0.016768271 -0.1234462 0.3276985 -0.06451239
000100 2d e6 82 3e 45 99 cd 3e 82 c1 e1 be 73 cb 93 3e
       0.25566235 0.40155998 -0.44092947 0.28866157
000110 ef e2 22 be 13 2f e4 be 1c 05 82 3e 2f b2 85 3e
       -0.15906881 -0.44567165 0.25394523 0.26112506
000120 c3 42 9e bb 4e 65 93 3d 0a f2 29 be f4 b8 dc 3d
       -0.004829736 0.07197057 -0.16596237 0.107774645
000130 fe 80 d1 3c 7a 9f ad 3e 42 ea 93 3e 53 ef 38 be
       0.025574204 0.33910733 0.28889662 -0.18060045
000140 47 4d eb 3e 26 dc 20 3b e7 47 09 bf 4f 52 3e bf
       0.45957395 0.0024545281 -0.5362534 -0.7434434
000150 ed 4f 14 3e 43 dd 60 b9 6c 7f aa 3e bc d0 c2 3d
       0.14483614 -0.00021444731 0.3330034 0.09512469
000160 12 55 85 3e 8c 61 8a be 2e 8a 84 be 69 53 94 bc
       0.26041466 -0.27027547 -0.25886673 -0.01810618
000170 57 bc 6f 3e aa 5a 55 3e 55 05 b4 bc 7a 1f 95 bd
       0.2341169 0.20835367 -0.021975199 -0.07281394
000180 88 48 dd 3c a9 4b 7e 3e 69 fa 95 3e 02 3e f6 be
       0.027012125 0.2483355 0.2929261 -0.48094183
000190 96 94 e3 3d b9 f3 6e be 09 81 83 3e 05 56 51 bf
       0.11112325 -0.2333516 0.25684384 -0.8177188
0001a0 11 43 15 3d 0f 46 8b 3e 4f cb 9b 3e 11 4d 0b 3e
       0.036440913 0.27201888 0.3042855 0.13603617
0001b0 fa 9d c7 bd 0c fd 57 3e 85 c1 83 3e e4 d0 13 be
       -0.097469285 0.21092623 0.2573358 -0.14435154
0001c0 04 0a 94 3e 1d 73 cd ba c5 49 c1 3e 0c c6 15 be
       0.2891389 -0.0015674565 0.37751594 -0.1462633
0001d0 6d f2 aa 3e dc b0 8f 3c bc 76 85 bd 1a ce 86 3e
       0.3338808 0.017540388 -0.065167874 0.26329118
0001e0 01 df 22 3e 76 16 69 3e 46 20 8b 3d a9 9b 11 be
       0.15905382 0.22762474 0.06793265 -0.14219536
0001f0 d3 37 19 3e 63 9b 79 3e 07 8e 8d 3e 98 ec 5f bd
       0.14962701 0.24375682 0.2764742 -0.054668993
000200 da 18 ad 3d a6 7f 2f 3e 99 a2 d9 be 48 6b 43 3e
       0.08452006 0.17138538 -0.42506865 0.19083893
000210 b6 0e 59 be cf e4 04 bf 7e fb 8a 3e be b7 43 3e
       -0.21197018 -0.51911634 0.27144998 0.19113061
000220 cf 85 02 3e 04 84 18 3e dc 44 8d be 9f 39 1a 3d
       0.12746356 0.1489411 -0.27591598 0.037652608
000230 c1 e4 0c 3e 0f 93 bf 3e 94 01 e3 3d b6 9b 8c bd
       0.13759138 0.37416884 0.110842854 -0.06865637
000240 be db 97 3e f6 b3 d2 3d 3b b9 07 bf 9a 7a 2a bf
       0.29659837 0.10288231 -0.53017014 -0.66593325
000250 2b 33 db 3d c1 8c 22 3e 49 57 22 3e e4 0f d5 3d
       0.10703119 0.15874006 0.15853609 0.104034215
000260 fb f6 3b 3e dc cc a4 be 8b af c1 be 0c b0 3f 3e
       0.18355934 -0.32187545 -0.3782924 0.187195
000270 25 18 99 3e 6e d9 a3 3e d3 14 16 3d 0f 59 25 be
       0.29901233 0.32001823 0.036640953 -0.16147254
000280 52 8a 17 3d 1a 99 74 3e b1 8f c1 3d 6d b1 14 bf
       0.036997147 0.23886529 0.09451235 -0.5808323
000290 9d 40 64 bc 4c ac 84 be 5d 7c 8f 3e 4b 1e 6a bf
       -0.013931421 -0.25912702 0.2802457 -0.91452473
0002a0 24 0b 35 3e b6 ef 88 3e a5 0e 65 3e ba a0 39 3e
       0.17680031 0.26745385 0.22368868 0.18127719
0002b0 60 96 f0 3d 41 16 41 3e f2 90 93 3e ef 05 b6 bd
       0.11747432 0.18856145 0.28821522 -0.088878505
0002c0 24 1d 67 3e 89 c4 b9 bd fa 06 66 3e d7 e6 3c 3d
       0.2256971 -0.09070689 0.22463599 0.046118584
0002d0 e2 91 b6 3e a0 47 8a 3d b3 72 4b be 0a c3 95 3e
       0.35658175 0.06751943 -0.19867973 0.29250365
0002e0 cb 1e c8 3e 33 01 a4 3d 52 57 61 3e 17 f8 17 be
       0.39085993 0.08008041 0.22005966 -0.14840733
0002f0 a8 97 18 bc 63 45 2b 3e 9e c7 60 3e a0 88 c9 3b
       -0.009313501 0.16725688 0.21951148 0.00615032
000300 a4 3c 2a 3d 03 2d 54 bf 24 60 47 3e 9f 64 c7 3d
       0.041561738 -0.8288118 0.19470268 0.09735989
000310 ce 2f 12 3d 29 5a a7 bd e3 28 07 bf c5 2d 0f 3e
       0.03569012 -0.081714936 -0.52796763 0.13982303
000320 49 cd 82 be d7 55 2c bc 45 56 43 bd 59 89 f5 3d
       -0.25547245 -0.010518513 -0.047689695 0.119890876
000330 33 35 9e be 2b f6 7b 3c f1 3a 68 3e 94 8d 8b 3e
       -0.30899963 0.015378515 0.22678734 0.27256453
000340 e4 8b b3 bd e9 9a bd 3d 92 42 08 bd fe c7 4a bd
       -0.087669164 0.092580624 -0.03326661 -0.049507134
000350 a6 7d d3 3e 2b df 5c be e0 ef 6e 3e f7 bd 62 3e
       0.413068 -0.21569507 0.23333693 0.22142778
000360 6a 2b 1e bf 93 62 21 be 48 5c 2b 3e be 17 a7 3d
       -0.61784995 -0.1576026 0.16734421 0.08158825
000370 d4 6c 3a bc 57 b2 7f 3e 72 ae 92 be 7a bd bb bd
       -0.011378486 0.24970375 -0.28648716 -0.09166999
000380 2e 00 c7 be 22 26 f1 be 95 be ae 3d 95 d8 16 c0
       -0.38867325 -0.47099406 0.085324444 -2.356969
000390 47 03 cf 3c fe 54 96 3b 0a a7 3d be 3b 94 c1 3e
       0.025270117 0.0045877686 -0.18520752 0.37808403
0003a0 39 99 36 3e 36 6e de be 6e 14 cf 3e a2 24 fc be
       0.17831887 -0.4344346 0.40445274 -0.492467
0003b0 c8 a0 aa bc 07 2a 05 3c a9 e1 a2 3c 57 a4 9b bd
       -0.02082862 0.008127696 0.019882994 -0.07599705
0003c0 9f 49 d9 3e e4 3f 5d be c2 16 12 bd a1 e2 04 be
       0.4243898 -0.21606404 -0.035666235 -0.12977077
0003d0 67 5f 0b be 39 4d 29 bf 8c cd 16 be ed c9 eb be
       -0.13610612 -0.6613346 -0.14726847 -0.46052495
0003e0 e2 70 93 bf ba 3b 4a 3e 96 a9 e7 3e ca 0f ae bd
       -1.1518824 0.19749346 0.4524657 -0.08499105
0003f0 d8 32 b6 be 74 bf 88 3e aa 02 66 be 48 d8 5f bd
       -0.35585666 0.26708567 -0.22461954 -0.05464962

l2.bias f4 [64]
000000 a8 39 23 be bd 21 90 3e 7a c4 88 3e 81 5a 00 3e
       -0.15939963 0.2815074 0.267124 0.12534525
000010 ed f9 02 3d 6c f3 83 3e 8e 10 66 3e ec d1 d3 bd
       0.03197663 0.25771654 0.22467253 -0.10342774
000020 b9 6c 9d 3e eb 07 0a 3d 88 4b 86 3e a4 e5 a5 3d
       0.3074701 0.033698957 0.262295 0.08100441
000030 f2 b4 24 3e 07 99 73 3d 5a 92 69 bd a0 24 84 bd
       0.1608465 0.05947211 -0.057024337 -0.06452298
000040 09 de 88 bb df b5 2e 3e be 45 93 bc 13 f6 04 3e
       -0.0041768593 0.17061566 -0.017977592 0.12984495
000050 25 7d ba 3d f4 70 67 3d 20 20 52 3e 1b ba 71 3d
       0.09105901 0.056504205 0.20520067 0.059015375
000060 f0 23 31 3e 1b 85 7a 3d 56 51 ab bd 2b 54 46 bc
       0.17298865 0.061162096 -0.08365123 -0.012105028
000070 70 77 09 be bd 4e c2 3d f3 02 85 3e 89 fe 02 bc
       -0.13424468 0.094876744 0.25978813 -0.007995256
000080 36 5a 90 3e 55 19 dc 3d f6 a0 c3 bd 32 79 f9 bd
       0.28193825 0.10747019 -0.09552185 -0.12181319
000090 f4 4d 89 3d 69 69 41 3e fd c7 0a 3e ab 34 8a bd
       0.067043215 0.18887867 0.13552852 -0.06748327
0000a0 d0 7e 69 3e dc db 71 bd 22 4a 29 be 08 eb 5f 3e
       0.22802281 -0.059047565 -0.16532186 0.21867001
0000b0 d0 85 b8 3c 58 61 13 3e 2d b0 05 ba 6e 6c 71 3e
       0.022524744 0.14392602 -0.00050997996 0.23576519
0000c0 c5 69 18 3e aa d7 40 3e f7 71 4b 3e e9 47 b9 3d
       0.14884098 0.1883227 0.19867693 0.09046919
0000d0 5e 18 2f 3e a9 95 32 bd 20 51 5f 3d fe dc 9e 3c
       0.17099139 -0.04359976 0.054520726 0.019392487
0000e0 1c 12 76 3c 6c 43 61 3e 7a 59 6b 3d 53 6c 5c 3e
       0.015018966 0.21998376 0.05745838 0.21525697
0000f0 53 1e 87 3d de 9f 9e 3e 81 ab 84 3c 9f a7 db 3d
       0.06597581 0.30981344 0.01619506 0.107253306

l3.weight f4 [1, 64]
000000 b2 25 23 c0 54 d1 9e 3e c3 3f a2 3e f8 3c 00 c0
       -2.5491757 0.3101908 0.3168927 -2.0037212
000010 25 bd 65 c0 94 c1 bc 3e 8f a0 94 3e e5 01 c7 3b
       -3.5896695 0.36866438 0.29028746 0.006073224
000020 63 b1 a8 3e a4 67 e8 bf 0c b1 9f 3e 7f df 2a c0
       0.32947835 -1.8156629 0.31189764 -2.669891
000030 6b 77 b6 3e 00 1d 09 c0 0c 8c fd bf 7d f6 d2 bf
       0.35637984 -2.142395 -1.9808364 -1.6481472
000040 3e 10 2d c0 99 f4 a9 3e 69 3e 03 40 36 0a d3 3e
       -2.7041163 0.33194426 2.0506842 0.41218728
000050 a2 83 d4 bf d2 1c e8 bf ed 2d 8f 3e 83 11 12 c0
       -1.6602671 -1.8133795 0.27964726 -2.2823188
000060 59 20 c4 3e 4d b2 77 40 89 4b 13 c0 93 fd 8e 40
       0.3830593 3.8702576 -2.3014853 4.468454
000070 ac 25 0d 41 d1 b7 d0 bf 54 35 94 3e 98 d5 19 c0
       8.821697 -1.6306096 0.28946936 -2.4036617
000080 8b a6 ac 3e c3 9e 5e c0 ab 30 86 bd 13 2f dd bf
       0.33720812 -3.47844 -0.065522514 -1.7279991
000090 8c 91 e5 bf 0d 43 be 3e b5 82 5b 40 bd 95 fe bf
       -1.7935042 0.3716053 3.4298527 -1.9889446
0000a0 ce c3 a1 3e 8a 10 d8 bf 14 a6 56 3d 3e 45 86 3e
       0.315947 -1.6880047 0.05240448 0.26224703
0000b0 a5 e5 38 40 17 a0 05 c0 90 4f c6 bf f0 4e b8 3e
       2.8890164 -2.087896 -1.549303 0.35997725
0000c0 e7 8e cd 3e eb c1 bb 3e 16 5a aa 3e c8 09 c2 bf
       0.40148088 0.36671385 0.33271855 -1.5159235
0000d0 d7 b3 99 3e 63 5e e8 bf 3f a1 d2 bf 2d 8a f9 bf
       0.3002002 -1.8153805 -1.6455458 -1.9495293
0000e0 0a a6 da bf d3 29 b1 3e 78 f9 e4 bf e1 5c 84 3e
       -1.7081921 0.34602222 -1.7888632 0.2585211
0000f0 49 57 ed bf 07 7a 9d 3e b3 31 fb 3f 7a df d9 bf
       -1.8542262 0.30757162 1.9624542 -1.7021325
