examples/experiments/experiment_104/critic7_3.pth (torch, 28247 bytes, 5 tensors)

l1.weight f4 [64, 36]
0	0x3c144049	0.00904853
1	0xbc45ad1b	-0.012065197
2	0xb955a5f1	-0.00020375081
3	0x3b85840a	0.004074578
4	0xbc44375d	-0.01197609
5	0xba0e812a	-0.0005436117
6	0xbb1057f4	-0.002202508
7	0xbb7870a1	-0.003790893
8	0x3b160be7	0.0022895278
9	0xbb1f3a6f	-0.0024296304
10	0x3ba33f36	0.0049819006
11	0xbb34cecf	-0.0027589088
12	0xbe30e817	-0.17276035
13	0x3d2506ca	0.040289678
14	0xbe38ae26	-0.18035182
15	0x3d71ce51	0.05903465
16	0xbd5ef952	-0.05443699
17	0xbd91bbda	-0.07115908
18	0x3dfdbc30	0.123894095
19	0xbe0ad1c8	-0.13556588
20	0x3eebeacb	0.4607757
21	0xbde33429	-0.11093933
22	0xbd308ac2	-0.04310108
23	0x3d3d5102	0.046219833
24	0x3fd73aeb	1.6814855
25	0xbec27dfa	-0.37986737
26	0x3fd59c5e	1.6688344
27	0xbf08679d	-0.532831
28	0x3f01ec1f	0.5075092
29	0x3f407c00	0.7518921
30	0xbfa4b20b	-1.2866834
31	0x3fb2ffbf	1.3984298
32	0xc0972645	-4.7234216
33	0x3f828346	1.0196311
34	0x3f086a64	0.5328734
35	0xbf00e77c	-0.5035322
36	0xbe1024be	-0.14076516
37	0x3cc8e985	0.024525413
38	0xbdf0323d	-0.11728332
39	0xbeb469dc	-0.35237014
40	0x3d023afa	0.031794526
41	0x3df37cd3	0.11889043
42	0xbd599856	-0.053123794
43	0x3d685b2b	0.05672757
44	0x3d7549b1	0.05988473
45	0x3e6e422c	0.2326743
46	0x3c82b04c	0.015953206
47	0xbcbac18d	-0.02279737
48	0xbe421d27	-0.18956433
49	0xbc0995f0	-0.008397564
50	0xbd9a5749	-0.075361796
51	0x3dc7bfda	0.0975339
52	0x3d8ad5fa	0.06779094
53	0xbe98941f	-0.29800507
54	0x3db6bdfc	0.089229554
55	0xbd02c80d	-0.031929065
56	0xbe014661	-0.12624504
57	0x3e9bd3e2	0.3043509
58	0xbe1ae2c1	-0.15125562
59	0x3d24564f	0.040121373
60	0x3e620f0c	0.22076052
61	0xbe974116	-0.29541844
62	0x3da23f44	0.07922223
63	0x3e84b9f0	0.2592311
64	0x3e3052f8	0.1721915
65	0x3e749a2c	0.23886937
66	0x3f00a44b	0.5025069
67	0x3f15e474	0.58551717
68	0x3ec15296	0.3775832
69	0x3edd9592	0.43278176
70	0xbca0bf48	-0.01962246
71	0x3ed92c9b	0.42416844
72	0xbe845747	-0.25847837
73	0x3eace3ac	0.3376745
74	0x3d2b7a9c	0.041864976
75	0x3dad22ba	0.08453889
76	0xbe4d892d	-0.2007186
77	0x3d1a603d	0.037689436
78	0x3ea7abe4	0.3274833
79	0xbf06a443	-0.52594393
80	0xbd9dec76	-0.07711117
81	0x3ec31745	0.3810369
82	0xbe905044	-0.28186238
83	0x3e41128d	0.18854733
84	0xbe5701bb	-0.20996754
85	0xbe85ce26	-0.2613384
86	0xbe8632e7	-0.2621071
87	0x3e79da0f	0.24399589
88	0x3d98202d	0.07428012
89	0xbd600725	-0.054694314
90	0x3e5a220a	0.21302047
91	0xbd6be757	-0.05759367
92	0xbdacfea4	-0.08447006
93	0x3d908ec3	0.0705848
94	0xbe4ddc0f	-0.20103477
95	0x3a0f8283	0.0005474465
96	0x3f38df40	0.7221565
97	0x3e1a1b71	0.1504953
98	0x3ed0747f	0.4071388
99	0xbeb7c12e	-0.35889572
100	0x3edae051	0.42749265
101	0xbf1c5892	-0.6107265
102	0xbf384b1e	-0.7198962
103	0x3c4012e9	0.0117232585
104	0x3eb461cf	0.35230872
105	0x3dc07702	0.09397699
106	0x3ee86940	0.453928
107	0xbe8b6339	-0.27224138
108	0xbe13afe3	-0.14422564
109	0x3e78e98b	0.2430784
110	0x3e0e2415	0.13880952
111	0xbe26416b	-0.16235892
112	0x3e8ff5d8	0.2811725
113	0xbdec5b58	-0.1154086
114	0xbd020249	-0.03174046
115	0xbdaceaa3	-0.08443191
116	0x3dbcb9ef	0.092151515
117	0xbe2e967f	-0.17049597
118	0x3eb4bacc	0.35298765
119	0xbd4e41ad	-0.050355602
120	0xbe9ee3fc	-0.31033313
121	0xbdaef43e	-0.08542679
122	0xbe69466b	-0.22780769
123	0xbe5b60d4	-0.21423656
124	0xbb68f409	-0.0035545847
125	0xbdec769e	-0.11546062
126	0x3d4a8c1a	0.049450018
127	0xbe60db54	-0.21958667
128	0xbd92f917	-0.07176416
129	0x3d93aaaf	0.0721029
130	0x3e7a8b3d	0.24467178
131	0x3e008c34	0.12553483
132	0x3efad520	0.48990726
133	0xbe6821e1	-0.22669174
134	0x3d04c0af	0.03241032
135	0x3effd7a1	0.499692
136	0x3e030db4	0.12798196
137	0x3e6e8b0e	0.23295233
138	0x3e511214	0.20417053
139	0x3f266c62	0.6500913
140	0x3eb79055	0.35852304
141	0x3e28ee87	0.16497241
142	0x3e59926c	0.21247262
143	0xbd844e5f	-0.064602606
144	0x3a71a71b	0.0009218321
145	0xbda2585d	-0.0792701
146	0x3d5014b9	0.050801013
147	0x3e1addc6	0.15123662
148	0x3dfe6f66	0.12423591
149	0x3d65b8c1	0.0560844
150	0xbde8bf41	-0.11364604
151	0x3d82d79a	0.06388779
152	0xbde2d4a4	-0.11075714
153	0xbcea0eaa	-0.028571445
154	0x3e04ac2e	0.12956306
155	0xbe1b7aff	-0.15183638
156	0x3bd23991	0.006415554
157	0xbe0cddb9	-0.13756455
158	0xbe1a5661	-0.15072013
159	0x3ddb06db	0.10694667
160	0x3d4786a2	0.04871238
161	0xbb99edcd	-0.0046975375
162	0xbda510f5	-0.08059875
163	0xbe0ccd49	-0.13750185
164	0x3dde9cf8	0.10869783
165	0xbca08fc1	-0.019599797
166	0xbdfd8035	-0.12377969
167	0xbce947bb	-0.028476587
168	0x3d1d6b3b	0.03843234
169	0x3de117fb	0.10990902
170	0xbe16e770	-0.14736724
171	0x3e1ffd28	0.15623915
172	0xbe15effd	-0.1464233
173	0x3dcdb6a1	0.10044599
174	0x3e11355a	0.14180508
175	0xbdb8537b	-0.09000298
176	0x3da35064	0.07974318
177	0x3dd4088f	0.10353195
178	0x3d259b49	0.040431295
179	0xbd3ba9e1	-0.045816306
180	0x3cf0ea86	0.029408704
181	0xbd45f4a9	-0.04832903
182	0xbd257680	-0.040396214
183	0x3f3aad6b	0.72920865
184	0xbde76c40	-0.11299944
185	0x3d6b1ec3	0.057402384
186	0x3f1d0d53	0.61348456
187	0xbf2d2c79	-0.67645985
188	0x3ea01d88	0.3127253
189	0xbeb106c1	-0.34575465
190	0xbd86beb2	-0.06579341
191	0xbe3e0168	-0.18555224
192	0xbee2ae83	-0.44273767
193	0xbf55bfc1	-0.8349572
194	0xbe2fe1ae	-0.17175934
195	0xbeda9e46	-0.42698878
196	0xbc3eec2d	-0.011652988
197	0xbf0a8e5b	-0.5412347
198	0xbef9eba5	-0.48812595
199	0x395eab2d	0.00021235338
200	0x3e813ded	0.25242558
201	0xbe2b2dc9	-0.16716684
202	0x3f0c4c85	0.5480426
203	0xbd125da9	-0.035733853
204	0xbd8a3642	-0.0674863
205	0xbfbd2ed1	-1.4779912
206	0x3e8d7d42	0.27634627
207	0xbf781ca4	-0.969187
208	0x3ecd7d7e	0.40134805
209	0x3e09a370	0.13441253
210	0xbf9d37a0	-1.22826
211	0x3f2daa3a	0.6783787
212	0x3ea690d4	0.3253237
213	0xbf42e16d	-0.7612522
214	0x3f42515a	0.7590538
215	0xbf937099	-1.1518737
216	0xbcef6485	-0.029222736
217	0xbdf00ec0	-0.11721563
218	0x3e0f2fd1	0.13983084
219	0xbd815879	-0.06315703
220	0xbe4d3c4e	-0.20042536
221	0xbe170aeb	-0.14750259
222	0xbdc5af1e	-0.096525416
223	0xbd62fbca	-0.055415906
224	0x3dcd6528	0.1002906
225	0x3e4cc0e2	0.19995454
226	0xbcda69c8	-0.026661769
227	0x3de60123	0.112306856
228	0xbe158e52	-0.14605072
229	0x3c482c37	0.012217573
230	0x3e833b17	0.2563102
231	0xbe880922	-0.26569468
232	0x3ee17657	0.440356
233	0xbe3e2abe	-0.18570992
234	0x3cde71f9	0.027153956
235	0x3d46aed9	0.04850659
236	0x3da28c59	0.079369254
237	0x3d003ec6	0.031309865
238	0x3c3672de	0.011135785
239	0xbd078c8c	-0.03309302
240	0x3e3b9513	0.18318586
241	0x3e0b43f2	0.13600138
242	0xbf065cbb	-0.52485245
243	0x40088c87	2.133577
244	0xc00e0748	-2.2191944
245	0x3da27676	0.07932751
246	0xbf115cc6	-0.56782186
247	0xbeb0decc	-0.3454498
248	0x3e69df84	0.2283917
249	0xbf5611f3	-0.8362114
250	0xbf894a04	-1.0725713
251	0xbe1c5bff	-0.15269469
252	0x3c08c6ad	0.008348149
253	0x3c198387	0.0093697375
254	0x3c39fc88	0.011351712
255	0xbc3286a9	-0.010896363

l1.bias f4 [64]
0	0x3a92aad7	0.001118983
1	0x3e34864b	0.17629354
2	0xbc225ee1	-0.009910316
3	0x3dbfc39a	0.0936348
4	0xbdcc079c	-0.09962389
5	0xbadfee45	-0.001708456
6	0xbcd9c2ea	-0.0265822
7	0xbaf131c1	-0.0018401669
8	0xbcffbc98	-0.031217858
9	0xbe23fa0a	-0.16013351
10	0xb8bc734e	-8.986016e-05
11	0x3e34b6c6	0.17647848
12	0x3da32d35	0.07967607
13	0xbe2027aa	-0.1564013
14	0xbe0792bb	-0.13239567
15	0xbb6af8e1	-0.003585391
16	0x3db5c084	0.0887461
17	0xbc6d68c7	-0.014490313
18	0xbb7dbcec	-0.0038717343
19	0xbe0d957b	-0.13826554
20	0x3d8c9543	0.06864407
21	0xbca06676	-0.019580107
22	0xbc205442	-0.009785714
23	0x3cae74a5	0.021295855
24	0xbd303740	-0.04302144
25	0xbd7d6709	-0.06186584
26	0x3d7fc040	0.062439203
27	0xbca16e93	-0.019706046
28	0x3a56ccba	0.0008193959
29	0xbb56df6f	-0.0032786985
30	0xbc00e326	-0.007866656
31	0x3dd04c73	0.101708315
32	0xbdffe0fe	-0.12494086
33	0x3e4ae985	0.19815643
34	0x3ddde873	0.10835352
35	0x3d8b325a	0.06796713
36	0x3ab6196e	0.0013893077
37	0x3a9c8603	0.0011941794
38	0x3d0a7226	0.033800267
39	0x3b96d384	0.0046028513
40	0xbdf26ce8	-0.118371785
41	0x3d6d9fb8	0.058013648
42	0x3e49cb03	0.19706349
43	0x3da84064	0.082154065
44	0xba9fcc4f	-0.0012191626
45	0x3d594aaf	0.05304974
46	0xbdd122a0	-0.10211682
47	0x3b4a9080	0.0030908883
48	0x3c109703	0.0088250665
49	0x3bb500de	0.005523785
50	0x3e418ce4	0.18901402
51	0x3d8bab3b	0.06819769
52	0xbe070b2a	-0.13187853
53	0x3e0933f8	0.13398731
54	0x3e17dd90	0.14830613
55	0x3ac419dc	0.001496132
56	0x3e0adbdc	0.13560432
57	0x3b37e174	0.0028057965
58	0x3de37c11	0.11107648
59	0x3d21daf6	0.039515458
60	0x3a96042f	0.0011445339
61	0xbbad0882	-0.005280555
62	0x3dcc027f	0.099614136
63	0xbd2f4344	-0.04278876

l2.weight f4 [64, 64]
0	0xba8cb6bf	-0.0010735615
1	0xbe029942	-0.12753776
2	0xbde1db9d	-0.11028216
3	0x3cbbb8ca	0.022915263
4	0xbb626140	-0.0034542829
5	0xbd2ed480	-0.042683125
6	0xbd799f24	-0.060942784
7	0xbddd40ad	-0.108033516
8	0xbdfb0ca2	-0.12258269
9	0xbd064a54	-0.03278573
10	0xbd9a6426	-0.07538633
11	0xbd202258	-0.039095253
12	0x3da92b0c	0.08260164
13	0x3d8bc2e4	0.06824282
14	0xbdfcc59c	-0.123423785
15	0x3de7c3b9	0.11316628
16	0xbaaa109f	-0.0012974924
17	0xbded0c4a	-0.115746096
18	0x3d8fb3df	0.070167296
19	0x3d106f9c	0.03526269
20	0x3b66c441	0.0035212191
21	0xbde99373	-0.11405077
22	0xbdbf4882	-0.09340002
23	0xbdbabe55	-0.09118334
24	0xbdeeb10f	-0.11654865
25	0xbdae803c	-0.085205525
26	0x3da9434c	0.08264789
27	0x3cd2276b	0.025653562
28	0xbe0a59a7	-0.13510762
29	0xbd607764	-0.05480136
30	0xbdaf03c2	-0.085456386
31	0x3d135871	0.035973016
32	0xbd383104	-0.04496862
33	0xbe0109e0	-0.12601423
34	0x3d2b14c6	0.041767858
35	0x3d973b0b	0.073843084
36	0x3db4b853	0.088242196
37	0x3dd706fd	0.1049938
38	0x3d61ed75	0.055158097
39	0x3daac58c	0.0833846
40	0xbe0152e5	-0.12629278
41	0xbd96e13e	-0.0736718
42	0xbdda234b	-0.10651263
43	0x3d15afbe	0.036544554
44	0xbd98ba75	-0.07457439
45	0x3cae9fa0	0.02131635
46	0xbd84ca1a	-0.0648386
47	0xbdf8fdb1	-0.12157763
48	0xbd50b0d0	-0.05094987
49	0xbdf620ee	-0.120179996
50	0xbd86cfdc	-0.06582615
51	0x3d64bbfc	0.05584334
52	0x3dc13770	0.09434402
53	0xbdef3eff	-0.116819374
54	0xbd932537	-0.071848325
55	0xbd33187c	-0.043724522
56	0x3c14a30d	0.009072077
57	0xbd8dd3e3	-0.0692518
58	0xbdf93f30	-0.12170255
59	0xbd653ec0	-0.055968046
60	0xbce4929e	-0.027901944
61	0xbce44553	-0.027865088
62	0x3d225495	0.039631445
63	0x3dc971e7	0.09836178
64	0x3f2ca991	0.6744624
65	0x3d9b348d	0.07578383
66	0x3e810ee8	0.25206685
67	0x3d270bc0	0.04078269
68	0xbc1cbbea	-0.009566287
69	0xbd785186	-0.06062462
70	0x3ebae9d4	0.36506522
71	0x3f62ed39	0.88643223
72	0x3e85cf84	0.26134884
73	0xba7ff000	-0.0009763241
74	0x3f3f82a7	0.74808735
75	0xbcd62eb4	-0.026145317
76	0x3e80ab0c	0.25130498
77	0x3d8d6ff8	0.06906122
78	0xbdc9c64a	-0.09852274
79	0x3f22412f	0.6338071
80	0xbd89ad19	-0.06722469
81	0x3f179151	0.5920611
82	0x3f444c4f	0.7667894
83	0xbdb8b516	-0.090189144
84	0xbd26cfe0	-0.04072559
85	0x3f0d9a79	0.5531383
86	0x3f1ad7e4	0.6048567
87	0x3d82b86e	0.063828334
88	0x3e95bf07	0.29247305
89	0x3eff9347	0.4991705
90	0xbdd1aa15	-0.10237519
91	0xbd7dfcff	-0.062008854
92	0x3f3d789b	0.74012154
93	0x3e8418f8	0.258003
94	0x3e8ba4c1	0.27274135
95	0x3dbd4435	0.09241525
96	0xbd569f54	-0.05239804
97	0xbd68f110	-0.05687052
98	0x3dc9bd60	0.098505735
99	0xbd740b05	-0.05958082
100	0x3f0c3331	0.5476561
101	0x3f13c6d0	0.5772524
102	0xbd0c2ea4	-0.034224167
103	0x3e9b3cda	0.30319864
104	0xbeeb7c0a	-0.45993072
105	0x3d1fa61d	0.038976777
106	0x3c37faf6	0.011229267
107	0x3b8e59f9	0.0043442217
108	0x3ef78a10	0.4834752
109	0xbc348d90	-0.011020079
110	0x3f64c7b6	0.89367235
111	0x3f104490	0.5635462
112	0xbd4268e9	-0.04746333
113	0x3d3cc023	0.046081673
114	0x3daf71cc	0.08566627
115	0xbd7599f3	-0.05996127
116	0x3dae1506	0.08500104
117	0xbddf1955	-0.108935036
118	0xbd492d46	-0.04911544
119	0x3f47f030	0.7810087
120	0xbe1271f6	-0.14301285
121	0x3e73d655	0.2381223
122	0x3dc2a11f	0.09503388
123	0x3dec9a60	0.11552882
124	0x3f37db1d	0.71818715
125	0xbe06332b	-0.13105457
126	0xbc850d4e	-0.016241696
127	0x3e9778d5	0.29584375
128	0xc0b00746	-5.500888
129	0x3dc1625b	0.09442588
130	0xbe2fb077	-0.1715716
131	0x3ceea674	0.029132105
132	0x3cd505a3	0.026003664
133	0x3ef86e74	0.4852177
134	0xbf89dbff	-1.0770262
135	0xc124cc1f	-10.299834
136	0xbf739e36	-0.95163286
137	0xbd206b24	-0.039164677
138	0xc11bdf44	-9.742008
139	0x3c61335d	0.013745156
140	0xbf64bc5a	-0.893499
141	0xbd00361c	-0.031301603
142	0x3da13ef6	0.07873337
143	0xc0dfd565	-6.994799
144	0x3c6ff012	0.01464464
145	0xbfd3915d	-1.6528736
146	0xc11ffc0e	-9.999037
147	0x3cdec6d8	0.027194425
148	0x3c18edd3	0.009334045
149	0xbfcfa0de	-1.6220968
150	0xc037ab40	-2.8698273
151	0x3e25d2f3	0.16193752
152	0xbf7e96e8	-0.99449015
153	0xc0065921	-2.09919
154	0x3db03947	0.08604675
155	0x3e1ec109	0.15503325
156	0xc10b8a6e	-8.721296
157	0xbfdd0184	-1.7266088
158	0xbf82a789	-1.0207378
159	0x3dc06a00	0.09395218
160	0x3d9a8702	0.07545282
161	0x3c903a45	0.01760591
162	0x3c82507a	0.015907515
163	0x3dcc65bf	0.09980344
164	0xc0b3f4e8	-5.623646
165	0xc0e83bd5	-7.2573037
166	0x3e5f2b3e	0.2179384
167	0xbf9b8ec3	-1.2152942
168	0x3fc14331	1.509863
169	0x3e2267ee	0.15859959
170	0x3c010eb8	0.007877044
171	0x3c4e847b	0.012604828
172	0xc0fc03dc	-7.875471
173	0x3e6accf9	0.22929753
174	0xc034dd58	-2.8260098
175	0xc0530c84	-3.297639
176	0x3e8ef720	0.27922916
177	0x3defd4f0	0.117105365
178	0x3e065fa9	0.13122429
179	0x3d4d36d1	0.050101105
180	0xbccef448	-0.025262967
181	0x3db2f166	0.08737449
182	0x3e37ecc8	0.17961419
183	0xc137045b	-11.438563
184	0x3def4d2d	0.11684642
185	0xc0347525	-2.81965
186	0x3e1cfd1f	0.15330933
187	0xbd044158	-0.03228888
188	0xc1238227	-10.219275
189	0x3e99ed59	0.30063894
190	0x3df34617	0.11878603
191	0xc006560c	-2.099002
192	0xbf1e6d69	-0.61885697
193	0x3e1a27e2	0.15054277
194	0x3e3070d9	0.17230548
195	0x3de91aa8	0.113820374
196	0x3cf87804	0.030330665
197	0x3ed90131	0.4238372
198	0xbd76662e	-0.06015604
199	0xbf3c02c8	-0.73441744
200	0xbd90256f	-0.0703839
201	0x3bc2e780	0.005948007
202	0xbe9e90b4	-0.30969775
203	0x3e968a3f	0.29402348
204	0xbd0aeee0	-0.033919215
205	0xbdae6a68	-0.08516389
206	0x3d97091a	0.07374783
207	0xbef6c873	-0.48199806
208	0x3e6efe92	0.23339298
209	0xbd9668b3	-0.073441885
210	0xbefd7794	-0.49505293
211	0xbde22544	-0.11042264
212	0x3e92e11b	0.28687367
213	0xbd7e9c42	-0.062160738
214	0xbe574b65	-0.21024854
215	0x3e261324	0.16218239
216	0x3cdac4f0	0.026705235
217	0xbdadb838	-0.084824026
218	0x3e852bb0	0.26009893
219	0x3e709a19	0.23496284
220	0xbea114e2	-0.31461245
221	0xbcf11c55	-0.029432455
222	0xbd6e3ffb	-0.058166485
223	0x3e841a41	0.2580128
224	0xbb9a5b40	-0.004710585
225	0x3e9582ed	0.2920145
226	0x3e9851bf	0.29749867
227	0x3e229319	0.15876426
228	0xbd9efd65	-0.07763175
229	0xbe99e00c	-0.30053747
230	0x3e2a45e9	0.16628231
231	0xbd413b4c	-0.04717569
232	0x3f1a5db4	0.6029923
233	0x3e604ca3	0.21904235
234	0x3ea8e309	0.32985714
235	0x3e9f155a	0.31070977
236	0xbda9de1e	-0.082943186
237	0x3e89c5de	0.26908773
238	0xbed21e0e	-0.41038555
239	0xbe9ac3b4	-0.30227435
240	0x3dfec032	0.12439002
241	0x3e8faf46	0.2806341
242	0x3e9ce4fd	0.30643454
243	0x3eb5abb2	0.35482556
244	0xbb8cc2a0	-0.004295662
245	0x3dd26df5	0.10274879
246	0x3e384f58	0.17999017
247	0xbf16ab71	-0.5885535
248	0x3e9b3f39	0.30321673
249	0xbdd2982e	-0.10282932
250	0x3ebf3093	0.37341747
251	0x3e1f5856	0.15561041
252	0xbf067d1e	-0.52534664
253	0x3e4d2eae	0.20037338
254	0x3e3f2859	0.18667735
255	0xbd385269	-0.045000467

l2.bias f4 [64]
0	0x3cec774b	0.028865477
1	0x3c032d0a	0.008006344
2	0x3d899ac2	0.06718971
3	0x3ea83900	0.32855988
4	0xbd2f58a7	-0.042809155
5	0xbdc625c9	-0.09675176
6	0x3d447d5f	0.047971126
7	0xbb976e41	-0.0046212976
8	0xbda10b69	-0.078635044
9	0xbe1a4563	-0.15065531
10	0x3d5408be	0.05176615
11	0x3eb74b73	0.3579975
12	0xbd7a912c	-0.061173603
13	0x3d8ae3bc	0.06781718
14	0x3ebcb280	0.36854935
15	0xbdf5570b	-0.11979493
16	0x3e1f308b	0.15545861
17	0x3e6b9bcb	0.23008649
18	0xbd012584	-0.03152992
19	0x3e44f7ff	0.19235228
20	0xbd946893	-0.072465084
21	0x3d0c7444	0.034290567
22	0x3dfb0a0c	0.12257776
23	0x3e040d23	0.12895636
24	0xbd788eae	-0.060682945
25	0xbd163198	-0.03666839
26	0xbdbd9b07	-0.09258085
27	0xbb98bb3a	-0.004660991
28	0xbd065fdc	-0.032806262
29	0xbd4ff35c	-0.050769195
30	0x3ec9e877	0.3943517
31	0xbdafc22e	-0.08581959
32	0xbdfffc66	-0.12499313
33	0xbdfb66b0	-0.122754455
34	0xbd9ed56d	-0.077555515
35	0xbdc9c2fa	-0.09851642
36	0x3def9540	0.11698389
37	0x3d607638	0.054800242
38	0x3dd3d042	0.103424564
39	0x3cc82004	0.024429329
40	0x3d13cc3d	0.03608345
41	0x3cd1bed2	0.025603686
42	0x3e231acf	0.15928195
43	0xbdae4aef	-0.08510386
44	0xbdbdbd0c	-0.092645735
45	0x3e164568	0.14674914
46	0x3c6d4d54	0.0144837685
47	0x3eaba966	0.33527678
48	0xbdd7a298	-0.10529059
49	0xbca23126	-0.019798826
50	0xbc1aecc4	-0.009455863
51	0x3d46ea5b	0.048563343
52	0xbe14d3fa	-0.14533988
53	0xbd160aae	-0.03663128
54	0xbd91e733	-0.07124176
55	0x3c95bb83	0.01827789
56	0x3dfd3517	0.12363642
57	0xbda16b25	-0.07881764
58	0xbda9e302	-0.082952514
59	0x3d412db9	0.047162745
60	0xbd1af5d6	-0.037832104
61	0xbdc3b76f	-0.095564716
62	0x3d302862	0.043007262
63	0x3eb3551f	0.3502588

l3.weight f4 [1, 64]
0	0xbd9f7dcf	-0.07787668
1	0xbf02241a	-0.50836337
2	0x41204ccf	10.018752
3	0x3ec398ab	0.38202414
4	0xbf05a8f8	-0.5221095
5	0x3f93fdca	1.1561825
6	0xbfde1f0e	-1.7353227
7	0xbf15325b	-0.5827996
8	0x3dbfec72	0.0937127
9	0xbf6e3531	-0.93049914
10	0xbfa090a8	-1.2544146
11	0x3ec8b950	0.39203882
12	0x3d808457	0.06275242
13	0x411869f3	9.5258665
14	0x3f104507	0.5635533
15	0x3fb014df	1.3756369
16	0x405badd5	3.4324849
17	0x3fd9b343	1.7007831
18	0xbf5a9056	-0.8537649
19	0x3f947366	1.1597717
20	0xbd66b62d	-0.05632608
21	0xbf3677e8	-0.7127671
22	0x41156e3d	9.339414
23	0x411cfce4	9.811741
24	0xbde946ee	-0.11390482
25	0xbf92e30c	-1.1475539
26	0xbd725d0b	-0.059170764
27	0xbfa49597	-1.2858151
28	0x4013035d	2.2970803
29	0xbf9ccf55	-1.2250773
30	0x3eafa068	0.34302068
31	0xbf70e11f	-0.9409351
32	0x3dbb7a9e	0.09154247
33	0x3d8c48a4	0.068497926
34	0xbdc2944b	-0.09500941
35	0xbe8f2b84	-0.27962887
36	0x40fb5304	7.8538837
37	0x40959f8f	4.6757274
38	0x41199bcd	9.600537
39	0x40df1a4d	6.9719605
40	0xbf1a6681	-0.6031266
41	0xbf8174b5	-1.0113741
42	0x40d8f7c7	6.7802463
43	0xbf4f2dbb	-0.80929154
44	0xbdb9f832	-0.090805426
45	0x411808b7	9.502128
46	0xbf09d48b	-0.5383994
47	0x3f363db1	0.71187884
48	0xbf9e81d3	-1.2383369
49	0xbcc2107e	-0.023689505
50	0xbfa362f2	-1.2764571
51	0x401cc169	2.4493048
52	0xbc4ad8f0	-0.0123808235
53	0x3db6e139	0.089296766
54	0xbf4a1898	-0.7894378
55	0xbf199e16	-0.60006845
56	0x410de94a	8.869455
57	0x3d83eea9	0.06442005
58	0x3c790c60	0.015200704
59	0x3f7da2da	0.99076617
60	0xbf21f749	-0.6326795
61	0xbcb7e4b1	-0.022447916
62	0xbebf043c	-0.37307918
63	0x3ee7701f	0.4520273
