examples/experiments/experiment_98/actor7_1.pth (torch, 27223 bytes, 6 tensors)

l1.weight f4 [64, 30]
0.04783593 0.016178148 0.091771916 -0.071094625 -0.02517824 -0.17199975 0.13342628 -0.104754314
-0.1708313 0.0043223505 0.078909166 -0.09756287 -0.094137594 -0.015523296 0.11048509 0.14465696
-0.08483872 -0.04879342 0.009312393 -0.17401128 0.1788035 0.12546557 0.012437607 -0.06822589
-0.15584192 0.11618753 0.01606051 0.13850293 0.06993564 0.004824284 0.030949092 0.2860853
0.02085734 -0.02861046 -0.013416186 0.02317278 1.6046102 -0.28618765 -1.3076143 0.15163845
0.12710471 0.13093388 -0.110792615 -0.0261448 0.081190586 0.08553823 -0.18395494 -0.22056659
0.048544623 0.01340502 0.02426309 0.014357407 -0.05254188 -0.16285846 0.03941163 -0.003529286
-0.23767507 -0.21723008 0.04850009 -0.23205122 -0.008235476 -0.059149116 0.32081866 0.1541672
-0.16170587 0.06061307 -0.79152375 1.0474432 -1.4343901 -0.35806802 0.18247305 -0.17231153
-0.029497081 0.023277238 0.0396076 0.0205417 0.09608795 0.047083043 0.07264802 0.13848059
-0.09759801 0.19212857 0.21385185 0.03857001 0.09563812 -0.13955489 -0.13142255 0.037785795
0.009861224 -0.12601236 -0.31438285 0.04398813 0.2189267 0.032789115 -0.0025379972 0.104936734
-0.6858358 -1.4537444 -0.7896468 -0.1753977 -0.080345616 0.25616947 -0.011182555 0.12989461
0.0414712 0.16585448 0.007976696 0.3186661 -0.0495293 0.059080105 0.06849208 0.16231713
-0.2014228 0.13597724 0.12702832 0.12876005 0.1271187 0.155492 0.023418609 0.2575011
-0.17888735 -0.11528499 0.1622524 0.089305125 0.040219452 0.08241838 1.5986733 1.0458179
0.09545913 -0.12071221 -0.28185603 -0.108850956 0.07443819 -0.036952 -0.28547522 -0.006468407
0.414802 -0.07225883 -0.06418057 0.14468457 0.108142406 -0.12943897 -0.15191567 0.04311477
-0.084522255 -0.0258279 0.23050825 -0.12303914 -0.065684274 0.009923528 0.17846513 -0.3397733
0.08177623 0.16169572 0.076752074 0.029832566 1.2983353 1.391774 -0.21268068 -0.62586826
-0.050608944 0.19286864 -0.10732463 0.40212715 -0.22843835 0.16097635 -0.15900598 -0.043548714
0.3583114 0.053023607 -0.039113127 0.34001496 -0.15429421 -0.18347766 -0.016506832 0.15779655
0.15265779 0.3974625 -0.24972184 0.5216583 0.056331538 0.24162696 0.21986538 0.23447825
-0.06801695 -0.18067698 -0.32063627 -1.7186139 1.5058929 -0.20106842 0.04262927 0.07173084
0.089613535 0.055949423 0.07099866 -0.04929961 0.15138629 0.19921218 -0.075679086 -0.009537758
-0.21231607 0.089323156 -0.14431094 -0.10516633 -0.093920134 -0.02632344 0.14453869 0.08345632
-0.1967004 0.20716657 -0.010300361 -0.14129616 0.26897395 -0.032861084 -0.029163664 -0.009130943
-0.0026880996 -2.855551 -0.052815262 -0.20261772 -0.17322758 0.13260037 -0.068357706 0.21886833
-0.1962768 0.16121581 -0.080456235 -0.4336671 -0.11928107 0.030471312 -0.112906635 0.1411577
0.25195563 0.46218365 0.058051042 -0.29116648 -0.27519336 0.095510565 -0.017872924 -0.030037714
-0.23854429 -0.11384995 0.18465044 0.05021218 0.104444675 -0.11033674 -1.973703 1.0135738
-0.54712427 -0.092636116 -0.20646426 -0.02137958 -0.0777402 0.026279671 -0.013239732 0.031747524
00000000: 9cef 433d 0988 843c eaf2 bb3d 0f9a 91bd
00000010: 9942 cebc b420 30be e6a0 083e 6e89 d6bd
00000020: 66ee 2ebe 81a2 8d3b 219b a13d 0bcf c7bd
00000030: 36cb c0bd 6c55 7ebc 0246 e23d f420 143e
00000040: ecbf adbd 9cdb 47bd 0293 183c 0330 32be
00000050: 4418 373e 0c7a 003e 1bc7 4b3c 04ba 8bbd
00000060: 0695 1fbe baf3 ed3d 5591 833c b6d3 0d3e
00000070: 6b3a 8f3d 0715 9e3b f388 fd3c c679 923e
00000080: 03dd aa3c 7c60 eabc 90cf 5bbc d8d4 bd3c
00000090: de63 cd3f 3087 92be e85f a7bf 1c47 1b3e
000000a0: bd27 023e 8813 063e 3de7 e2bd 9f2d d6bc
000000b0: 4047 a63d ab2e af3d af5e 3cbe 35dc 61be
000000c0: bad6 463d bba0 5b3c 63c3 c63c 543b 6b3c
000000d0: 2836 57bd 5ec4 26be 176e 213d 984b 67bb
000000e0: 1861 73be 9071 5ebe 08a8 463d d69e 6dbe
000000f0: 17ee 06bc 5846 72bd 5842 a43e 02de 1d3e
00000100: 3996 25be 6945 783d 4da1 4abf 9e12 863f
00000110: 189a b7bf b154 b7be 37da 3a3e 6f72 30be
00000120: dda3 f1bc e8af be3c 943b 223d 1147 a83c
00000130: c2c9 c43d 26da 403d 7cc8 943d dbcd 0d3e
00000140: 77e1 c7bd 5abd 443e fbfb 5a3e 96fb 1d3d
00000150: ebdd c33d 7ae7 0ebe a293 06be 47c5 1a3d
00000160: f990 213c 6209 01be caf6 a0be e62c 343d
00000170: 522e 603e e14d 063d 8754 26bb 12e9 d63d
00000180: ef92 2fbf 4c14 babf 4b26 4abf 749b 33be
00000190: 3e8c a4bd a528 833e 0937 37bc 1803 053e
000001a0: b4dd 293d c2d5 293e b0b0 023c 3428 a33e
000001b0: 3cdf 4abd fbfd 713d 9345 8c3d 7636 263e
000001c0: c741 4ebe 9e3d 0b3e b613 023e add9 033e
000001d0: 682b 023e 4b39 1f3e 62d8 bf3c 2fd7 833e
000001e0: 3f2e 37be 891a ecbd 7e25 263e 9be5 b63d
000001f0: 27bd 243d f8ca a83d 54a1 cc3f 5cdd 853f
00000200: 1480 c33d f737 f7bd 6f4f 90be 40ed debd
00000210: 0d73 983d fb5a 17bd cf29 92be eef4 d3bb
00000220: ee60 d43e 70fc 93bd 1a71 83bd 3128 143e
00000230: c479 dd3d a68b 04be c88f 1bbe 1d99 303d
00000240: 011a adbd 0895 d3bc 5b0a 6c3e f2fb fbbd
00000250: 7a85 86bd 4b96 223c 90bf 363e c4f6 adbe
00000260: 4c7a a73d 9093 253e 3130 9d3d 6d63 f43c
00000270: da2f a63f a725 b23f f7c8 59be e738 20bf
00000280: 534b 4fbd 5b7f 453e 04cd dbbd 9ce3 cd3e
00000290: beeb 69be fcd6 243e 77d2 22be 2360 32bd
000002a0: 9874 b73e 482f 593d 1635 20bd 7116 ae3e
000002b0: 4dff 1dbe 91e1 3bbe 5639 87bc 6b95 213e
000002c0: 5352 1c3e 3480 cb3e 15b7 7fbe 668b 053f
000002d0: e6bb 663d 0f6d 773e 6424 613e 111b 703e
000002e0: 784c 8bbd 6303 39be 702a a4be 8afb dbbf
000002f0: 19c1 c03f e1e4 4dbe 089c 2e3d 9ee7 923d
00000300: 4d87 b73d 392b 653d bf67 913d 63ee 49bd
00000310: 0205 1b3e 47fe 4b3e a3fd 9abd 4244 1cbc
00000320: 6269 59be 0fef b63d 3fc6 13be 7261 d7bd
00000330: 3359 c0bd 41a4 d7bc f301 143e 26eb aa3d
00000340: d46b 49be 7923 543e d8c2 28bc f1af 10be
00000350: f4b6 893e 5899 06bd a3e8 eebc f399 15bc
00000360: d42a 30bb 59c1 36c0 d154 58bd 057b 4fbe
00000370: 9262 31be 64c8 073e 20ff 8bbd 051f 603e
00000380: c9fc 48be c215 253e 3dc6 a4bd 9d09 debe
00000390: a249 f4bd f99e f93c 983b e7bd a58b 103e
000003a0: 5400 813e 56a3 ec3e eec6 6d3d c613 95be
000003b0: 25e6 8cbe 0b9b c33d 3d6a 92bc a711 f6bc
000003c0: f444 74be 2a2a e9bd 0115 3d3e 49ab 4d3d
000003d0: 17e7 d53d 3bf8 e1bd 4da2 fcbf c9bc 813f
000003e0: 5610 0cbf 01b8 bdbd 5e6b 53be 3b24 afbc
000003f0: 4136 9fbd 7748 d73c 76eb 58bc b109 023d

l1.bias f4 [64]
-0.17182587 0.13923723 0.14664385 0.056554195 -0.03396534 0.06892726 0.09365607 0.050250527
0.0962931 0.18826315 0.10973935 -0.12998712 0.21941493 -0.0065170764 0.116445385 -0.16842867
0.20566173 -0.12731566 -0.13734867 0.049036786 -0.09772112 0.20906694 -0.004912761 -0.12241467
0.07130165 0.12738718 0.117547125 0.18922606 -0.14308402 0.095437266 0.14387247 0.038780484
0.12657455 0.1304683 0.07423556 0.25392088 -0.15879418 0.075102754 -0.1690255 0.100209445
0.10187329 0.1722425 0.123335816 -0.13513802 0.24217646 0.11424141 0.07154808 0.16839015
0.12931363 0.2033543 0.13961892 0.21497616 0.12953906 0.10286796 0.31801584 0.05584981
0.09026722 -0.14609572 0.09316793 0.071637504 -0.094686575 0.10586826 0.07022763 0.16891088
00000000: 1ff3 2fbe 3494 0e3e ce29 163e 5fa5 673d
00000010: 3e1f 0bbd bc29 8d3d c1ce bf3d 7fd3 4d3d
00000020: 5135 c53d 0ec8 403e 06bf e03d 581b 05be
00000030: 4fae 603e 338d d5bb eb7a ee3d 9178 2cbe
00000040: fd98 523e 095f 02be 21a5 0cbe ccda 483d
00000050: 0322 c8bd a515 563e 3afb a0bb 8bb4 fabd
00000060: 9906 923d c971 023e 8cbc f03d 7ac4 413e
00000070: 9e84 12be 9d74 c33d 4e53 133e 49d8 1e3d
00000080: c29c 013e 7b99 053e d008 983d eb01 823e
00000090: f19a 22be 79cf 993d 0515 2dbe 9c3a cd3d
000000a0: f2a2 d03d 5760 303e 7d97 fc3d 9f61 0abe
000000b0: 1bfd 773e 66f7 e93d cd87 923d 786e 2c3e
000000c0: cb6a 043e 1c3c 503e 43f8 0e3e b622 5c3e
000000d0: e3a5 043e 70ac d23d f9d2 a23e c5c2 643d
000000e0: 05de b83d 1e9a 15be d4ce be3d afb6 923d
000000f0: 09eb c1bd 75d1 d83d 81d3 8f3d f9f6 2c3e

l2.weight f4 [64, 64]
0.043016165 -0.14067416 0.4278938 0.027789311 0.021709735 -0.36495307 -0.18956572 -0.23446612
0.52126956 0.02260526 0.26650167 0.047318414 -0.08841549 -0.28339988 0.04653377 0.051353022
-0.04714844 -0.052453727 -0.040693283 -0.15289098 -0.006340608 -0.080035046 -0.1401757 0.029754594
-0.17836615 -0.116845995 0.33792228 -0.23605739 0.05313447 -0.10530341 -0.14990436 -0.18851872
0.1575313 0.15244882 0.28566346 -0.025389679 0.021971092 0.36285645 0.001029551 -0.1138859
0.1700133 0.3159775 -0.055848103 -0.07140866 0.18373725 0.3518998 -0.15984018 0.34988752
-0.2849255 0.01232014 -0.208996 0.13649842 0.23782118 -0.14190587 -0.21661371 -0.116453856
-0.26679185 0.06018676 0.41799304 -0.3709208 -0.043504015 0.22844687 0.054293856 0.12918991
0.038198978 0.2743188 0.24662183 -0.19596006 0.35447836 0.6237057 -0.18381982 -0.5285756
0.18627156 0.044600867 0.25259593 -0.0979688 0.33798802 0.11336573 0.28709024 -0.05157508
-0.14423327 -0.036865935 0.071787775 -0.17168371 -0.0685381 0.004691735 -0.0047435877 0.100069195
0.42920396 0.018009681 0.6409497 -0.12218812 -0.07992229 0.084652096 0.026076186 -0.14229351
0.5240116 0.25378472 0.034930434 0.034669217 0.07351081 0.32716018 0.12251065 0.51746774
-0.06630204 0.13725291 -0.24608254 0.019429341 -0.19601645 0.5119552 0.2750386 0.12631975
0.12563036 -0.097620174 -0.09746982 0.0891976 0.39454037 0.33044347 0.029171392 0.10213782
-0.096104465 0.042825118 -0.08446811 -0.13091683 -0.04125171 0.3001301 -0.033461213 0.027258826
-0.045302153 -0.24703576 0.05795561 0.23943171 -0.049145937 -0.59997046 0.07440906 0.22784494
0.4403159 0.09178235 0.42237765 0.054811746 -0.12682925 -0.32805565 -0.35236025 -0.08896507
0.26822186 -0.06056732 0.06946106 0.13605456 0.016848043 0.017330043 -0.071468346 -0.06782855
-0.39915323 -0.15970378 -0.2608491 -0.26943672 -0.012110755 -0.13817707 -0.11764652 -0.31016722
-0.41512504 -0.2886746 0.20045944 0.23443909 0.058768943 0.19361353 -0.099750236 -0.34175193
0.17573883 0.40482455 0.3625269 0.10512051 0.23740067 -0.02692216 -0.37662116 0.22876795
-0.40509534 0.30522445 -0.11228438 0.28908518 0.05840985 -0.29007244 -0.08617878 -0.10618853
-0.23315029 -0.0678273 0.3298398 -0.18304217 0.12009013 -0.0030409656 0.20794497 0.12230493
0.08697337 -0.07278477 0.008945445 0.08646167 0.12915859 -0.3319744 0.16835912 0.05485869
0.2646263 -0.11120733 0.19814064 -0.047363803 -0.0019749259 -0.30709562 -0.122913465 -0.00030304492
0.0976468 0.0014814585 0.070708975 -0.3188704 -0.01695785 0.08766411 -0.030206675 0.047951072
0.13863946 -0.09106992 -0.025976008 -0.012709036 0.018663093 -0.1360419 -0.22462979 0.015458362
-0.019255375 0.08810799 0.5176748 0.08435191 -0.09932056 0.06334968 0.11868298 0.14900503
0.12336646 0.30891463 0.05109845 -0.034911945 0.09863599 0.08364818 -0.46797788 0.3118843
-0.3137497 0.36117506 -0.038802415 0.33069932 0.06059663 -0.23384814 0.18574846 0.30752578
-0.011114039 0.11754836 0.3597735 -0.09164372 -0.052772764 0.024280043 -0.190336 -0.14065301
00000000: b831 303d e30c 10be e514 db3e 69a6 e33c
00000010: 9dd8 b13c 21db babe 841d 42be e317 70be
00000020: ec71 053f ab2e b93c e872 883e f4d0 413d
00000030: 2e13 b5bd ca19 91be 329a 3e3d 8c57 523d
00000040: b91e 41bd b8d9 56bd 00ae 26bd 748f 1cbe
00000050: e0c4 cfbb 6ae9 a3bd 388a 0fbe e8bf f33c
00000060: 9ea5 36be f44c efbd 2604 ad3e 07b9 71be
00000070: 88a3 593d 50a9 d7bd 8780 19be 0d0b 41be
00000080: e34f 213e 8b1b 1c3e 7b42 923e 04fe cfbc
00000090: b8fc b33c 52c8 b93e 00f2 863a 033d e9bd
000000a0: f717 2e3e cec7 a13e fbc0 64bd b43e 92bd
000000b0: 9e25 3c3e 362c b43e 25ad 23be 7524 b33e
000000c0: c1e1 91be 6ada 493c 0c03 56be 3ec6 0b3e
000000d0: 6587 733e c64f 11be fccf 5dbe 5c7f eebd
000000e0: f198 88be 6486 763d 2f03 d63e 55e9 bdbe
000000f0: 4431 32bd faed 693e 3c63 5e3d 5c4a 043e
00000100: 8876 1c3d 8473 8c3e 6f8a 7c3e c1a9 48be
00000110: 307e b53e 2dab 1f3f 433b 3cbe bb50 07bf
00000120: f9bd 3e3e 66af 363d 4154 813e dea3 c8bd
00000130: c40c ad3e 4b2c e83d 7efd 923e 6440 53bd
00000140: e3b1 13be bc00 17bd 7805 933d dbcd 2fbe
00000150: b45d 8cbd 20bd 993b 1970 9bbb 14f1 cc3d
00000160: 9fc0 db3e 0a89 933c 4815 243f c43d fabd
00000170: 4cae a3bd 145e ad3d ba9d d53c 64b5 11be
00000180: a025 063f 12f0 813e 3713 0f3d 4f01 0e3d
00000190: d68c 963d 8a81 a73e dde6 fa3d c478 043f
000001a0: 5dc9 87bd 078c 0c3e 10fd 7bbe 482a 9f3c
000001b0: 89b8 48be 7f0f 033f dcd1 8c3e f759 013e
000001c0: 3fa5 003e 16ed c7bd 429e c7bd 3bad b63d
000001d0: 3201 ca3e e32f a93e d8f8 ee3c a22d d13d
000001e0: 6bd2 c4bd 6469 2f3d 9efd acbd 100f 06be
000001f0: 8ef7 28bd a7aa 993e a00e 09bd e74d df3c
00000200: c08e 39bd f1f6 7cbe dd62 6d3d 962d 753e
00000210: 404d 49bd aa97 19bf c763 983d 2f50 693e
00000220: 1671 e13e 62f8 bb3d e241 d83e 4882 603d
00000230: 87df 01be e9f6 a7be 9068 b4be 5233 b6bd
00000240: 6054 893e 7015 78bd 9a41 8e3d e351 0b3e
00000250: e804 8a3c bcf7 8d3c ff5d 92bd b2e9 8abd
00000260: d05d ccbe 6389 23be 038e 85be 9cf3 89be
00000270: 306c 46bc 4a7e 0dbe a9f0 f0bd 3dce 9ebe
00000280: 458b d4be 28cd 93be 3d45 4d3e cd10 703e
00000290: b4b7 703d a042 463e da49 ccbd 1cfa aebe
000002a0: e1f4 333e 2a45 cf3e 209d b93e 6c49 d73d
000002b0: 2919 733e dd8b dcbc 7dd4 c0be 2542 6a3e
000002c0: a868 cfbe 6146 9c3e 5af5 e5bd f902 943e
000002d0: 2b3f 6f3d 6084 94be 807e b0bd 5f79 d9bd
000002e0: f3be 6ebe 0ae9 8abd c3e0 a83e 686f 3bbe
000002f0: d0f1 f53d f04a 47bb 87ef 543e 027b fa3d
00000300: 181f b23d 2e10 95bd ea8f 123c d112 b13d
00000310: 2642 043e 8cf8 a9be 5566 2c3e 81b3 603d
00000320: 197d 873e abc0 e3bd 61e5 4a3e 8c00 42bd
00000330: c26d 01bb a33b 9dbe 0eba fbbd 00e2 9eb9
00000340: 0cfb c73d 802d c23a decf 903d fb42 a3be
00000350: 30eb 8abc 3e89 b33d fd73 f7bc 5868 443d
00000360: 81f7 0d3e de82 babd a3cb d4bc 8f39 50bc
00000370: 58e3 983c 914e 0bbe 5a05 66be 1245 7d3c
00000380: 73bd 9dbc f671 b43d 5686 043f b2c0 ac3d
00000390: 9468 cbbd 7abd 813d 1010 f33d c694 183e
000003a0: 8ea7 fc3d 0f2a 9e3e 9c4c 513d d4ff 0ebd
000003b0: aa01 ca3d bd4f ab3d cc9a efbe 4daf 9f3e
000003c0: cda3 a0be f0eb b83e 48ef 1ebd 6c51 a93e
000003d0: 2c34 783d e375 6fbe d834 3e3e 0574 9d3e
000003e0: a917 36bc 32bd f03d 3b34 b83e b4af bbbd
000003f0: 4128 58bd f1e6 c63c 71e7 42be 5807 10be

l2.bias f4 [64]
0.12841444 0.05518272 0.16994384 0.2181726 0.14413056 0.17599368 0.06808011 -0.036898047
-0.108519755 0.11563881 0.12227863 0.069955364 -0.12286535 -0.0018557516 -0.08065259 0.002125033
-0.031330515 0.059458505 0.06709693 0.061323103 0.1387653 -0.07714347 0.10440396 -0.005143538
0.03712193 0.27273276 -0.048150197 0.0842042 0.17873693 0.18341678 0.062290516 0.081463166
-0.039527223 -0.1206675 -0.04799749 -0.02106376 0.08096391 0.14391957 -0.09472051 0.22032997
0.10401291 0.0042162836 0.051402844 0.20350954 0.15193188 0.14013645 -0.029707756 0.07815548
0.15990321 -0.023041043 0.061838735 0.21320428 -0.032736767 0.11142382 0.16426148 -0.03936824
0.099860325 0.21416879 0.06413005 0.027819637 -0.08398269 0.09239452 0.019941809 0.0028924332
00000000: 137f 033e 4707 623d c205 2e3e a368 5f3e
00000010: f696 133e b037 343e 966d 8b3d 6822 17bd
00000020: 9b3f debd 0ad4 ec3d 386d fa3d c244 8f3d
00000030: d4a0 fbbd b13c f3ba 2f2d a5bd 2344 0b3b
00000040: 6d54 00bd c38a 733d 1e6a 893d ef2d 7b3d
00000050: 7e18 0e3e 65fd 9dbd bed1 d53d 208b a8bb
00000060: 2a0d 183d a1a3 8b3e 2439 45bd 4073 ac3d
00000070: d006 373e 9cd1 3b3e 5724 7f3d 29d6 a63d
00000080: 4ce7 21bd 8620 f7bd 0499 44bd e88d acbc
00000090: 68d0 a53d a75f 133e d4fc c1bd 2e9e 613e
000000a0: b804 d53d c028 8a3b ca8b 523d ce64 503e
000000b0: 0894 1b3e ee7f 0f3e ae5d f3bc fb0f a03d
000000c0: abbd 233e 92c0 bcbc 9d4a 7d3d 3952 5a3e
000000d0: fd16 06bd 2c32 e43d 2934 283e 9740 21bd
000000e0: 9283 cc3d 104f 5b3e 9e56 833d 02e6 e33c
000000f0: 1eff abbd 5739 bd3d 015d a33c fa8e 3d3b

l3.weight f4 [3, 64]
-0.35056522 0.13521764 -0.32748145 -0.34242916 -0.16683654 0.20996985 0.04946295 -0.5037765
0.28919128 -0.0016579585 0.15359518 0.25985464 0.04419583 0.394441 1.8323028 0.03535476
-0.23588355 -0.07958689 0.32069927 0.16525227 0.19253516 -0.21769716 0.24116232 0.35681844
-0.35593173 -0.31266472 -0.008922125 -0.11987807 -0.1406748 0.27846852 0.0939647 -0.026787288
0.29209957 0.9778659 -0.117855124 0.03521402 0.413465 -0.4954194 -0.10420263 -0.19944645
0.22423713 0.45329344 -0.06228623 -0.26279637 0.21925037 -0.22379732 0.31696483 -0.09066961
0.0025579478 0.22644013 -0.47573942 -0.06759393 0.07028403 0.55715996 0.27013317 -0.024905583
0.087253384 -0.25911883 -0.07843733 0.10406712 -0.05828601 0.32197893 -0.23219056 -0.3643245
0.258075 0.28058594 -0.4019305 0.26263267 0.35507843 -0.057374854 -0.3008712 -0.26022163
0.22498918 -0.24584909 -0.0757346 -0.06185269 -0.03312029 3.7343829 0.05623838 0.18535149
-0.029907951 0.40443015 -0.0737416 0.27274525 -0.2776094 0.095462844 -0.2633594 0.28487128
-0.22605823 -0.50568676 0.13885145 0.22415371 0.24688701 -0.21340762 -0.38224486 0.07026618
-0.03111944 -0.052344825 -0.10857014 0.02603291 0.13725881 -0.3715472 0.0023899376 0.28189516
0.059696224 0.017633 0.42139217 0.3079223 -0.2407638 0.032084167 -0.19300367 0.027639164
-0.42027307 -0.28498194 -0.46882805 -0.4317217 0.22283472 0.31943282 -0.15995082 0.11352023
0.2965014 0.23869316 0.021438766 0.09860497 0.35724342 0.07089677 0.16661493 -0.30180395
-0.15353604 -0.16606088 -0.17753509 0.2918105 0.057344608 0.2579865 0.008797946 -0.39691994
-0.0022813191 -0.15263976 -0.19416815 -0.21781778 0.05611226 0.3429986 0.50576055 -0.21908654
-0.3402156 -0.1076958 0.13967511 0.149525 0.16481303 -0.2954865 -0.0031466591 -0.16605261
-0.39543658 -0.20618545 -0.2734447 -0.27524853 0.32884407 0.14664151 0.072796315 0.41290596
0.15567887 -1.1880561 0.006377098 -0.010954648 0.18822454 0.17657445 -0.087858975 0.28778625
3.2559524 -0.056983247 -0.06020886 0.22225006 -0.15674691 0.505937 -0.13113327 -0.03927995
0.13134468 0.023200272 -0.04469003 0.21834663 -0.16289838 0.21769696 0.19735111 -0.017945923
0.29597804 0.38743508 0.08306371 -0.38381886 -0.20558374 0.17086224 -0.25732857 -0.31482098
00000000: 497d b3be 7e76 0a3e a6ab a7be e052 afbe
00000010: 33d7 2abe 5602 573e aa99 4a3d 7ff7 00bf
00000020: e110 943e db4f d9ba 0e48 1d3e ab0b 853e
00000030: b006 353d 2cf4 c93e e688 ea3f 27d0 103d
00000040: 758b 71be 74fe a2bd b232 a43e e437 293e
00000050: f027 453e 01ec 5ebe 41f3 763e e8b0 b63e
00000060: af3c b6be 9715 a0be 1b2e 12bc a282 f5bd
00000070: 0e0d 10be 6d93 8e3e 9170 c03d 0471 dbbc
00000080: 138e 953e 6b55 7a3f 075e f1bd 943c 103d
00000090: afb1 d33e 9da7 fdbe 3068 d5bd b13b 4cbe
000000a0: 6b9e 653e 1416 e83e d91f 7fbd 3f8d 86be
000000b0: 2b83 603e 202b 65be 3749 a23e fdb0 b9bd
000000c0: 3ea3 273b ecdf 673e 1e94 f3be b06e 8abd
000000d0: 13f1 8f3d 09a2 0e3f e54e 8a3e cb06 ccbc
000000e0: e7b1 b23d 39ab 84be c0a3 a0bd 2421 d53d
000000f0: 50bd 6ebd 6cda a43e 5dc3 6dbe be88 babe
00000100: 6822 843e f6a8 8f3e d6c9 cdbe ca77 863e
00000110: d7cc b53e e501 6bbd ca0b 9abe c53b 85be
00000120: 9063 663e ddbf 7bbe be1a 9bbd 3f59 7dbd
00000130: 24a9 07bd 2100 6f40 375a 663d c8cc 3d3e
00000140: 8501 f5bc 7811 cf3e d605 97bd 44a5 8b3e
00000150: d222 8ebe 0682 c33d 0bd7 86be a6da 913e
00000160: cf7b 67be b074 01bf 132f 0e3e 8d88 653e
00000170: f3cf 7c3e 8787 5abe 99b5 c3be b7e7 8f3d
00000180: 32ee febc 8767 56bd 065a debd f842 d53c
00000190: 938d 0c3e 6f3b bebe 80a0 1c3b 9054 903e
000001a0: 0784 743d 1573 903c b7c0 d73e fea7 9d3e
000001b0: c98a 76be b06a 033d c1a2 45be 876b e23c
000001c0: 082e d7be 27e9 91be 3b0a f0be a00a ddbe
000001d0: c92e 643e b38c a33e 26ca 23be 4b7d e83d
000001e0: 08cf 973e fb6b 743e 5aa0 af3c 67f1 c93d
000001f0: 9ce8 b63e 5332 913d 1b9d 2a3e 0c86 9abe
00000200: 8d38 1dbe dd0b 2abe c2cb 35be 3068 953e
00000210: 2ee2 6a3d ce16 843e 4325 103c 1739 cbbe
00000220: 2f82 15bb 994d 1cbe 04d4 46be a00b 5fbe
00000230: f8d5 653d 839d af3e 8679 013f 3958 60be
00000240: bd30 aebe 9e8f dcbd fe06 0f3e 151d 193e
00000250: bfc4 283e 024a 97be 2e38 4ebb b209 2abe
00000260: aa76 cabe 4722 53be f200 8cbe 60ed 8cbe
00000270: 405e a83e 3129 163e 3c16 953d 6968 d33e
00000280: 486a 1f3e 3912 98bf faf6 d03b 207b 33bc
00000290: efbd 403e efcf 343e 68ef b3bd b858 933e
000002a0: 8661 5040 4467 69bd 919d 76bd 8595 633e
000002b0: 4382 20be 1685 013f cd47 06be 03e4 20bd
000002c0: 387f 063e 7f0e be3c e50c 37bd 4296 5f3e
000002d0: d5ce 26be f4eb 5e3e 6916 4a3e 5403 93bc
000002e0: 6f8a 973e e45d c63e 4e1d aa3d e883 c4be
000002f0: 8b84 52be 83f6 2e3e 92c0 83be 3730 a1be

l3.bias f4 [3]
0.09955964 -0.17341769 0.17527188
00000000: ede5 cb3d 6894 31be 797a 333e
