examples/experiments/experiment_98/critic5_1.pth (torch, 37463 bytes, 5 tensors)

l1.weight f4 [64, 72]
0	0xbe044e74	-0.12920552
1	0xbe68d628	-0.22737944
2	0x3da546fa	0.08070178
3	0x3daab926	0.083360955
4	0x3e8a9d03	0.27072915
5	0x3d59cb7d	0.053172577
6	0x3e5d88a3	0.21634154
7	0xbd0f863b	-0.03504012
8	0xbab49bdd	-0.0013779361
9	0x3e293b90	0.16526628
10	0xbe5228f0	-0.20523429
11	0xbe81e775	-0.253719
12	0x3ddbd42f	0.1073383
13	0x3e177775	0.14791663
14	0xbd5e1d1a	-0.054226972
15	0x3d7b65b8	0.061376303
16	0x3e06ab2e	0.13151237
17	0xbe046cd4	-0.1293214
18	0xbe774de9	-0.24150814
19	0x3c21a825	0.009866749
20	0x3e057125	0.13031442
21	0x3deea87d	0.1165323
22	0x3dd7391b	0.10508939
23	0xbd37a35e	-0.044833533
24	0xbd42a263	-0.047518145
25	0x3cf25c85	0.029585132
26	0x3d8c1f5f	0.06841921
27	0x3e775103	0.24151997
28	0x3d859cd9	0.06524057
29	0x3e05bac5	0.13059528
30	0x3df02730	0.117262244
31	0x3b933d6c	0.004493406
32	0x3d6d90cf	0.05799943
33	0x3c4084ac	0.011750381
34	0xbdcbb130	-0.09945905
35	0x3db6c971	0.08925141
36	0x3cfce522	0.030870978
37	0xbd76d902	-0.06026555
38	0xbd1f7341	-0.038928274
39	0xbd30996b	-0.04311506
40	0xbe503b7b	-0.2033519
41	0x3bb0273d	0.0053757713
42	0xbe5ab892	-0.2135947
43	0xbddf8ae1	-0.10915161
44	0x3d6adf84	0.057342067
45	0xbd4bcd3d	-0.049756277
46	0xbe85c897	-0.261296
47	0xbdd2e442	-0.10297443
48	0xbcd46ebc	-0.025931709
49	0xbe9c6a3c	-0.305498
50	0xbed17e57	-0.40916702
51	0x3d8c988a	0.06865032
52	0xbdad6d0a	-0.08468063
53	0x3ea233ed	0.3168024
54	0xbe4c4a9b	-0.19950335
55	0x3f2905d5	0.66024524
56	0x3b9af34b	0.00472871
57	0x3e16e5b0	0.14736056
58	0x3dc93737	0.098249845
59	0x3e210598	0.1572479
60	0xbd8d25c6	-0.0689197
61	0xbc47b99d	-0.01219025
62	0x3eb127e0	0.34600735
63	0x3e28cd8c	0.1648466
64	0x3eb46a6d	0.35237446
65	0x3f2376e4	0.6385329
66	0x3da3dd6d	0.08001218
67	0x3f0195bb	0.50619096
68	0xbe28f9ba	-0.16501513
69	0x3de2745c	0.1105735
70	0x3f66b705	0.90123016
71	0x3e9e6f2e	0.30944198
72	0xbdd30f73	-0.10305681
73	0x3b4ed683	0.0031560964
74	0xbc5b687f	-0.013391613
75	0xbdb36234	-0.08758965
76	0x3d4197d1	0.047263924
77	0x3db8e562	0.09028126
78	0xbdb9ae62	-0.09066464
79	0xbd97acd1	-0.07406009
80	0xbd705591	-0.058675352
81	0x3c0d0109	0.008606204
82	0x3cfbc31b	0.030732682
83	0xbdd1880c	-0.10231027
84	0xbdb796bc	-0.08964297
85	0x3cceae08	0.025229469
86	0xbc337cbe	-0.010955034
87	0x3d82887b	0.06373688
88	0xbc4ddfe9	-0.012565591
89	0x3bc98939	0.0061503914
90	0x3d8d0deb	0.0688742
91	0xbdc28f96	-0.09500043
92	0x3d2af8f8	0.04174134
93	0x3d3e55e4	0.04646863
94	0xbac0234a	-0.0014658954
95	0xbd3631e6	-0.04448118
96	0x3d73ebc6	0.059551023
97	0x3dbe8242	0.093021885
98	0xbca381fb	-0.01995944
99	0x3d88523d	0.06656311
100	0x3c809206	0.01569463
101	0xbdac63e0	-0.08417487
102	0x3c3457d4	0.011007268
103	0x3de137ba	0.10996957
104	0x3d402ad2	0.046915837
105	0x3d1707a0	0.036872506
106	0x3d18df0c	0.03732209
107	0x3dbed58f	0.09318077
108	0xbbfeb9dc	-0.007773621
109	0xbda4993d	-0.080370404
110	0xbdbe115c	-0.09280655
111	0xbc941da1	-0.018080534
112	0x3d2ae21e	0.04171955
113	0x3d7deade	0.061991565
114	0xbc8ba467	-0.017046167
115	0x3d03ccf1	0.03217787
116	0xbc38167d	-0.01123583
117	0x3d00bd99	0.031430814
118	0x3c8cb467	0.017175866
119	0xbd2bd5ca	-0.041951932
120	0xbdb9551d	-0.09049437
121	0xbc61c953	-0.01378091
122	0xbde08d3a	-0.10964437
123	0xbd2827e5	-0.04105367
124	0xbdacee2e	-0.08443867
125	0xbd921db1	-0.071345694
126	0x3cf5d4cc	0.030008696
127	0x3dad3813	0.08457961
128	0xbcb692a4	-0.02228672
129	0x3b082186	0.0020771935
130	0xbddf8198	-0.1091339
131	0xbcbe39db	-0.023220947
132	0xbc256332	-0.010094451
133	0x3d43e05c	0.047821388
134	0x3d2a6bae	0.041606598
135	0x3d99bdbf	0.07506894
136	0x3d6de2a9	0.058077488
137	0xbc887eb7	-0.016661985
138	0xbd8ee6ad	-0.06977592
139	0xbca0efa3	-0.019645518
140	0x3da4f730	0.0805496
141	0xbd848e19	-0.064724155
142	0x3de1c97b	0.110247575
143	0xbd3c3335	-0.045947272
144	0x3e49fb90	0.1972487
145	0xbe68c17d	-0.2273006
146	0xbd5a5e03	-0.053312313
147	0xbda474ec	-0.080301136
148	0x3eb8575e	0.36004156
149	0x3dd66e36	0.1047024
150	0xbe594e6e	-0.21221325
151	0x3f839e3f	1.0282668
152	0xbe2818ce	-0.16415712
153	0xbe01ba85	-0.12668808
154	0xbed1e671	-0.40996125
155	0xbcc28868	-0.023746684
156	0xbd01e85e	-0.031715743
157	0x3e6576c8	0.22408593
158	0x3dbdf6c8	0.092755854
159	0x3d810f4c	0.06301746
160	0x3ec0ce62	0.37657458
161	0xbdefe0b6	-0.11712782
162	0xbe088ab9	-0.13334168
163	0xbe76d9dd	-0.24106546
164	0x3c8cf715	0.017207662
165	0xbd6bf2ed	-0.05760472
166	0x3ec08196	0.37598866
167	0xbd2b2478	-0.041782826
168	0x3e25e088	0.16198933
169	0xbd8238cd	-0.0635849
170	0x3d64c916	0.055855833
171	0x3cbbf303	0.022943025
172	0x3cd465d4	0.025927462
173	0x3d6c5824	0.057701245
174	0x3d6a3448	0.057178766
175	0x3e27035f	0.1630988
176	0x3d14a8f4	0.03629394
177	0x3af6c0ca	0.0018825766
178	0xbd41f57d	-0.047353256
179	0x3c2efb7d	0.010680077
180	0xbd16cda4	-0.036817208
181	0x3d175a0b	0.036951106
182	0x3d2206ab	0.03955714
183	0x3d974622	0.07386424
184	0x3ccf92fe	0.025338646
185	0xbd742c17	-0.05961236
186	0xbd002856	-0.031288467
187	0xbd5892a1	-0.05287421
188	0x3b39d3a3	0.0028354905
189	0xbbab3cec	-0.0052257683
190	0x3e46c131	0.19409634
191	0x3d859d1f	0.06524109
192	0xbe3e336b	-0.18574302
193	0x3e4318ba	0.19052401
194	0x3defbb19	0.11705608
195	0x3cb2d03a	0.021827806
196	0x3e20cf16	0.15703997
197	0x3d82a0be	0.063783154
198	0xbe1a4823	-0.1506658
199	0xbf1034f4	-0.563308
200	0xbe1bae1c	-0.15203136
201	0xbe3bd186	-0.18341646
202	0x3dc6624c	0.096867174
203	0x3a68be4d	0.00088784547
204	0x3ea679d4	0.32514822
205	0x3e3cf452	0.18452576
206	0x3ccdef2f	0.025138466
207	0xbe400a81	-0.18754007
208	0xbd67fede	-0.056639545
209	0x3ea23100	0.3167801
210	0x3ec365e1	0.38163665
211	0x3eb97978	0.36225486
212	0xbe8464c7	-0.25858137
213	0xbc17dc4e	-0.009268833
214	0x3e0d6c45	0.13810833
215	0xbdc68a50	-0.0969435
216	0x3d02b14a	0.031907357
217	0xbd6c9533	-0.057759475
218	0xbcfbc55f	-0.030733762
219	0xbca8567a	-0.020549048
220	0xbde3e143	-0.1112695
221	0xbdbf2a76	-0.09334271
222	0xbdeef028	-0.116669
223	0x3ddf95df	0.109172575
224	0xbd31346c	-0.043262884
225	0xbd226221	-0.039644364
226	0xbdc50657	-0.0962035
227	0xbd1d9ffe	-0.03848266
228	0x3cca5c80	0.02470231
229	0xbd944acc	-0.07240829
230	0x3d00bc15	0.03142937
231	0xbd462cf8	-0.04838273
232	0xbd80a07a	-0.062806085
233	0xbdd1ea8c	-0.102498144
234	0xbb95296b	-0.0045520565
235	0x3ccf36bd	0.025294656
236	0xbda624e1	-0.08112503
237	0x3d5143b5	0.05108996
238	0xbd3d7b52	-0.046260186
239	0x3c264889	0.01014913
240	0x3d721e50	0.05911094
241	0xbde25493	-0.110512875
242	0x3de2e909	0.11079604
243	0x3dbb3e15	0.091427006
244	0xbdbd4a47	-0.09242683
245	0x3dc43277	0.09579938
246	0x3d08018a	0.033204593
247	0xbd844fe7	-0.06460553
248	0xbc05d746	-0.008169001
249	0xbdc69d2d	-0.09697948
250	0xbcd033ad	-0.025415266
251	0x3cf9c99c	0.030491643
252	0x3dce036a	0.10059245
253	0xbd743003	-0.0596161
254	0x3d8c1a39	0.06840939
255	0x3de8326e	0.11337744

l1.bias f4 [64]
0	0x3dea70cc	0.114472955
1	0xbdcdd95b	-0.10051223
2	0x3d77f0ff	0.060532566
3	0xbdd9babf	-0.10631322
4	0x3dc8230d	0.097723104
5	0xbd12ff3a	-0.035887934
6	0x3dcafd5a	0.09911604
7	0x3d9a65f6	0.07538979
8	0x3be9cf91	0.0071353395
9	0x3d7017bf	0.058616396
10	0xbc966526	-0.018358778
11	0x3c59e937	0.013300232
12	0x3dd725d9	0.10505266
13	0x3d097ada	0.033564426
14	0x3dfe5280	0.124180794
15	0xbd882b61	-0.06648899
16	0x3d9ce6eb	0.076612316
17	0x3ced466c	0.028964244
18	0xbcc91079	-0.024543988
19	0x3d35cc4c	0.044384286
20	0x3e02f9ba	0.12790576
21	0x3d17277f	0.0369029
22	0x3c56f859	0.013120734
23	0x3e261660	0.16219473
24	0x3d164c50	0.03669387
25	0x3e14a960	0.14517736
26	0x3cefc679	0.029269444
27	0xbd5fd104	-0.054642692
28	0x3cfb229f	0.030656157
29	0xbd213b3f	-0.039363142
30	0x3d83f5b3	0.06443348
31	0xbca1a324	-0.019731112
32	0x3d229040	0.03968835
33	0xbc31f2db	-0.010861124
34	0xbd6e7ca4	-0.058224335
35	0x3c44e796	0.012018105
36	0x3bb1be4a	0.0054242956
37	0x3de563ac	0.112006515
38	0x3da83be9	0.08214552
39	0xbbbc8131	-0.0057527055
40	0x3d9120d0	0.070863366
41	0x3d1fa1e2	0.038972743
42	0x3d2228f2	0.03958983
43	0xbcfedff5	-0.03111265
44	0x3d6f0e36	0.058363162
45	0xbde7f765	-0.11326484
46	0xbce4efac	-0.027946316
47	0xbab69faf	-0.0013933087
48	0x3d1b125a	0.0378593
49	0x3daf6c33	0.08565559
50	0x3d7494ac	0.059712097
51	0x3d960f0f	0.07327091
52	0x3dbc25d7	0.09186905
53	0xbdecf488	-0.11570078
54	0x3d9c43d9	0.076301284
55	0x3ba46ca7	0.005017835
56	0xbc87abce	-0.016561415
57	0x3dad93df	0.0847547
58	0x3a3a59b1	0.0007108702
59	0x3cb23bd9	0.021757053
60	0x3d83fb25	0.064443864
61	0x3da307f5	0.07960502
62	0xbda307c8	-0.079604685
63	0x39560cc2	0.00020413383

l2.weight f4 [64, 64]
0	0xbcfb7b05	-0.030698309
1	0x3cf5af50	0.029990822
2	0x3e0c3a62	0.13694146
3	0xbdcb63c6	-0.0993114
4	0xbcc7112a	-0.024300177
5	0x3ee0df5f	0.4392042
6	0x3e685148	0.22687256
7	0xbdad9ade	-0.08476804
8	0xbe797d79	-0.2436427
9	0xbe7fb257	-0.24970375
10	0xbefebc56	-0.49753064
11	0xbe428ae4	-0.18998295
12	0x3e4c6b4f	0.1996281
13	0x3e3c710a	0.18402496
14	0xbd983be9	-0.07433302
15	0x3e4bc944	0.19900995
16	0xbe0161f4	-0.12635022
17	0x3e121a07	0.14267741
18	0xbecfe204	-0.40602124
19	0xbd94bcbd	-0.072625615
20	0xbe88b7a7	-0.26702616
21	0x3d1cc7c3	0.038276445
22	0x3ea06931	0.31330255
23	0x3e63782e	0.22213814
24	0x3e8847eb	0.2661737
25	0x3e72f10d	0.23724766
26	0x3de34f68	0.1109913
27	0x3ee3c96d	0.44489613
28	0x3e1a0cd4	0.15043956
29	0x3d0f55a2	0.034993775
30	0x3bf5b4e0	0.0074983686
31	0x3d3476d7	0.044058647
32	0x3d532c76	0.051556073
33	0xbe5252a8	-0.20539343
34	0x3de419ef	0.11137759
35	0x3dcbc0e5	0.09948901
36	0x3eeb4877	0.45953724
37	0xbe4ba562	-0.19887307
38	0x3d8b804e	0.068115816
39	0x3dd27722	0.10276629
40	0x3e3d4f76	0.18487343
41	0xbe4e53a3	-0.20149092
42	0xbee05ed9	-0.43822363
43	0x3ca01283	0.019540077
44	0xbe4256fc	-0.18978494
45	0x3dab1884	0.08354285
46	0xbe08076b	-0.1328408
47	0x3e88a8d6	0.26691312
48	0xbe679a0b	-0.22617356
49	0xbe1c20af	-0.15246843
50	0x3df99c24	0.121879846
51	0xbed2b3a1	-0.4115267
52	0xbf06d8ff	-0.5267486
53	0x3f1f8006	0.62304723
54	0x3d05f40c	0.032703444
55	0x3d263378	0.04057643
56	0xbed6f692	-0.41984993
57	0xbe081781	-0.13290216
58	0xbe376a92	-0.17911747
59	0xbdf2a683	-0.11848166
60	0xbea3ff8a	-0.32030898
61	0xbe82fe4d	-0.2558464
62	0x3e79f686	0.24410447
63	0xbe074670	-0.13210464
64	0xbd967bb9	-0.07347817
65	0xba926b80	-0.0011170954
66	0x3dce29dc	0.10066578
67	0x3b272880	0.0025506318
68	0xbdef71ba	-0.116916135
69	0x3ee0c6b8	0.4390161
70	0x3e33e2c2	0.1756697
71	0xbf29eee3	-0.6638014
72	0xbf4c6bb5	-0.7985185
73	0x3e2660a4	0.16247803
74	0xbe966562	-0.29374224
75	0xbe11ae05	-0.1422654
76	0xbeb102af	-0.3457236
77	0xbf61dbb0	-0.8822584
78	0xbbe65d52	-0.0070301676
79	0xbf22d720	-0.63609505
80	0xbc922d0c	-0.017843746
81	0x3e8ffe32	0.28123623
82	0x3dab5efd	0.08367727
83	0x3e988148	0.29786134
84	0x3e404b47	0.18778716
85	0xbdd23c1f	-0.102653734
86	0x3d203c3b	0.03911994
87	0x3de4f150	0.11178839
88	0xbeb0c765	-0.34527126
89	0x3e54fc3b	0.20799343
90	0x3e904273	0.28175697
91	0x3f4d1066	0.8010315
92	0x3e77030b	0.24122255
93	0xbebfa93a	-0.37433797
94	0x3e9feea6	0.31236762
95	0xbf553ec6	-0.8329891
96	0xbf1d48c6	-0.6143917
97	0x3f4b2598	0.7935424
98	0x3f13ab33	0.57683104
99	0x3e9efacc	0.31050718
100	0xbdf7e5ed	-0.12104402
101	0xbf44088e	-0.76575553
102	0xbe3a50b5	-0.1819485
103	0x3d98f9d5	0.07469527
104	0x3e2b6942	0.16739371
105	0xbc856bf6	-0.016286831
106	0x3ea12e77	0.31480762
107	0xbe77cae5	-0.24198492
108	0x3d419a09	0.04726604
109	0xbdfa48f6	-0.122209474
110	0x3ec1da20	0.3786173
111	0x3ead3b8c	0.33834493
112	0xbe85e971	-0.26154664
113	0x3d828fa9	0.06375057
114	0xbe1b7c8c	-0.1518423
115	0xbd95a26e	-0.07306372
116	0xbc850573	-0.01623795
117	0xbf82a701	-1.0207216
118	0xbe399c61	-0.1812606
119	0xbed56d51	-0.41684964
120	0xbf8836b7	-1.0641698
121	0xbe238386	-0.15968141
122	0xbe10f439	-0.14155664
123	0xbedf2505	-0.4358293
124	0x3e1e062a	0.15432039
125	0x3e8c7f2e	0.2744078
126	0x3f1fc368	0.6240754
127	0xbdef2004	-0.11676028
128	0x3e1c14d3	0.15242319
129	0xbdb7dd9c	-0.089778155
130	0x3dab4e7c	0.08364579
131	0x3d0fdde8	0.035123736
132	0x3cd823be	0.02638423
133	0xbe3bfb24	-0.18357521
134	0x3d78c4cd	0.06073456
135	0x3e1340e0	0.14380217
136	0x3e032b7f	0.12809561
137	0xbc78684a	-0.015161583
138	0xbe82025c	-0.25392425
139	0x3ea7c262	0.3276549
140	0x3e658389	0.22413458
141	0x3df4dcab	0.119561516
142	0x3d9f6f60	0.07784915
143	0xbe1a180a	-0.15048233
144	0x3cb3bdaa	0.021941025
145	0x3daf2394	0.08551708
146	0x3e82573f	0.25457188
147	0x3e55f9a7	0.20896016
148	0x3e45ebc6	0.19328222
149	0x3e3e3ffc	0.18579096
150	0xbef40585	-0.4766046
151	0xbc9c17d7	-0.019054336
152	0x3e447b89	0.1918775
153	0x3d1116f8	0.035422295
154	0xbc90a432	-0.01765642
155	0xbe05933f	-0.13044451
156	0xbe124848	-0.14285386
157	0x3e8c4939	0.27399614
158	0x3e29bbd7	0.16575561
159	0x3dc8eb4f	0.098105066
160	0x3e0256cf	0.12728427
161	0xbf105d69	-0.5639253
162	0xbf0e07ac	-0.55480456
163	0x3dec5672	0.11539926
164	0x3e4e397d	0.20139118
165	0xbd4185c1	-0.0472467
166	0x3e388c97	0.18022381
167	0xbdcff897	-0.101548366
168	0x3ddbd65e	0.10734247
169	0x3db1ad5b	0.08675643
170	0xbe15d234	-0.14630967
171	0x3e427e0a	0.18993393
172	0x3e7df578	0.2480067
173	0x3c4e9ff0	0.012611374
174	0x3d67b024	0.056564465
175	0xbd92d296	-0.07169072
176	0xbe336e9a	-0.1752266
177	0x3dd85171	0.10562409
178	0x3e090776	0.13381752
179	0x3cd7b916	0.026333373
180	0xbd882937	-0.06648486
181	0xbe997ad0	-0.2997651
182	0x3dfcf530	0.12351453
183	0x3dbb4e6c	0.09145817
184	0x3f1a5403	0.6028444
185	0x3dfcff78	0.12353414
186	0x3dd0fe69	0.10204775
187	0x3eaabc77	0.33346912
188	0x3b89b02d	0.00420191
189	0x3e22f4c8	0.15913689
190	0xbe13f1cb	-0.14447705
191	0x3d9c766d	0.076397754
192	0xbda08e9e	-0.07839702
193	0xbde5d768	-0.11222726
194	0x3dcec136	0.10095446
195	0x3d18689c	0.03720914
196	0xbd9f4226	-0.07776289
197	0x3d17d870	0.037071645
198	0xbdf7f092	-0.12106432
199	0xbda23392	-0.079199925
200	0x3dd235dc	0.10264179
201	0xbdafee18	-0.08590335
202	0x3b928da0	0.0044724494
203	0x3def9e6c	0.117001384
204	0xbd97470a	-0.073865965
205	0xbdd71136	-0.105013296
206	0xbd8fe266	-0.07025604
207	0x3d03e6a0	0.032202363
208	0xbde5280a	-0.111892775
209	0xbd246e68	-0.040144354
210	0x3d216138	0.039399356
211	0xbdd84d9a	-0.10561676
212	0xbd6cfd2c	-0.05785863
213	0xbdcc32a4	-0.099705964
214	0x3df0d346	0.11759047
215	0xbda513c2	-0.08060409
216	0xbdfced7a	-0.123499826
217	0x3d6a5d90	0.057218134
218	0x3d47831c	0.04870902
219	0xbce2e238	-0.02769576
220	0xbcda09e0	-0.026616037
221	0x3cf55350	0.029946953
222	0xbc6535c0	-0.013989866
223	0x3cdd81d0	0.027039438
224	0xbccc7ed0	-0.024962813
225	0x3da792ee	0.081823215
226	0x3dc3a3a6	0.09552698
227	0xbd8b05f0	-0.06788242
228	0x3dbb28ae	0.091386184
229	0x3dfbc2e0	0.12293029
230	0x3d813198	0.063082874
231	0x3d535224	0.051592007
232	0x3d26578c	0.040610835
233	0xbb760e40	-0.0037545115
234	0x3daf9740	0.085737705
235	0xbde2c380	-0.11072445
236	0xbcfeb240	-0.031090856
237	0xbdbb5998	-0.09147948
238	0xbddbeb2e	-0.10738216
239	0xbc5d2a40	-0.013498843
240	0xbd310f00	-0.043227196
241	0x3dd4871a	0.10377331
242	0xbdaef4f2	-0.08542813
243	0x3d98bf56	0.074583694
244	0x3de638e2	0.11241318
245	0x3d81ef90	0.06344521
246	0x3b0347c0	0.002003178
247	0x3aa02880	0.0012219101
248	0x3d36d3a8	0.044635445
249	0xbdc5b500	-0.09653664
250	0xbd508538	-0.050908297
251	0x3de0c1ea	0.10974486
252	0xba404800	-0.00073349476
253	0xbd833100	-0.064058304
254	0x3be92c40	0.0071158707
255	0xbdacafb2	-0.08431949

l2.bias f4 [64]
0	0x3d27c209	0.04095653
1	0x3bcb9e46	0.006213936
2	0x3ddc2986	0.107501075
3	0xbdabf490	-0.08396256
4	0xbd9c0d69	-0.07619745
5	0xbd8874bd	-0.06662891
6	0x3ce50c7b	0.027960053
7	0x3df35d86	0.118830726
8	0xbb5fcb9b	-0.0034148458
9	0xbc3965ad	-0.011315745
10	0x3c38b380	0.011273265
11	0xbd608f8f	-0.05482441
12	0x3dbe4914	0.09291282
13	0x3d8a0bbe	0.06740521
14	0x3da8aa04	0.08235553
15	0xbc1e9f08	-0.009681471
16	0x3d5ec468	0.054386526
17	0x3e0c6926	0.13711986
18	0xbd5ba5ea	-0.053625025
19	0xbdbb803e	-0.0915532
20	0x3c0f58e8	0.008749224
21	0x3c0db327	0.00864867
22	0xbdda080a	-0.106460646
23	0x3cc18fba	0.023628104
24	0x3c845f58	0.016158745
25	0x3df5c34f	0.12000143
26	0xbda22930	-0.07918012
27	0xbbc3d03d	-0.0059757517
28	0xbcd47bf5	-0.025938014
29	0x3da11a2d	0.07866321
30	0x3dccec9a	0.10006066
31	0x3d968f5d	0.07351563
32	0x3de4cfcb	0.11172446
33	0xbdaceb60	-0.08443332
34	0xbc55db73	-0.013052809
35	0xbd96ffe9	-0.0737303
36	0x3dcb7a98	0.09935492
37	0xbde4c7f2	-0.11170949
38	0x3e22d591	0.15901782
39	0x3b296e72	0.0025853184
40	0xb9a53465	-0.0003151029
41	0xbd955854	-0.07292238
42	0x3dcb40db	0.099244796
43	0xbcea8e00	-0.028632164
44	0xbc374cb6	-0.011187723
45	0x3bfdd0a7	0.0077458206
46	0xbda24c10	-0.07924664
47	0x3c9d6008	0.01921083
48	0x3d408913	0.047005724
49	0x3dc7bc54	0.097527176
50	0xbd252a9e	-0.040323846
51	0x3ddf6252	0.10907425
52	0x3bc0102b	0.0058613024
53	0x3d14092d	0.036141563
54	0xbdf45aa0	-0.11931348
55	0x3d77d000	0.0605011
56	0x3d3f0618	0.04663667
57	0xbd1c457a	-0.038152196
58	0x3d90a9cb	0.070636354
59	0x3de83e0b	0.11339959
60	0xbd2d4956	-0.042306267
61	0xbda22a23	-0.07918193
62	0xbdc7868e	-0.09742461
63	0xbdf8adef	-0.1214255

l3.weight f4 [1, 64]
0	0xbf72d43b	-0.9485509
1	0x40164359	2.3478606
2	0x3e6b2a59	0.22965373
3	0x3d4aa1d0	0.049470723
4	0xbce98385	-0.028505096
5	0xbfe27148	-1.7690821
6	0x3ffc924f	1.973215
7	0x3e40bb9b	0.18821566
8	0xbf2d3b3e	-0.6766852
9	0x3e96ba49	0.29439
10	0x40116d87	2.27231
11	0xbd779f39	-0.06045458
12	0x3e860dfa	0.26182538
13	0xbf2e6d23	-0.6813528
14	0x3e3357ab	0.17513911
15	0x3e448cb1	0.19194295
16	0xbed736cb	-0.4203399
17	0x3e6a55ab	0.22884242
18	0x40563973	3.3472564
19	0x3defd480	0.11710453
20	0xbf4d7d1b	-0.8026902
21	0x3e6a68db	0.22891562
22	0xbf307679	-0.68930775
23	0xbf30efdf	-0.69116014
24	0xbf36847c	-0.71295905
25	0x3dfa4da9	0.12221844
26	0xbfa50343	-1.289162
27	0x402fa4e9	2.7444403
28	0xbfa622ff	-1.297943
29	0xbf297bb4	-0.6620438
30	0x3e664caf	0.2249019
31	0x3e372c30	0.1788795
32	0xbfff2c70	-1.9935436
33	0x3c8744c8	0.01651229
34	0xbf7f2e01	-0.9967957
35	0x403b620e	2.9278598
36	0x3e671f4a	0.2257053
37	0x3dcc11c4	0.09964326
38	0xbf012f79	-0.5046306
39	0xbfda4547	-1.7052392
40	0x3fbf1c98	1.4930601
41	0x3e6ab17e	0.2291927
42	0x3e49c43d	0.19703765
43	0x3e5621a1	0.20911266
44	0x3e8a5865	0.27020565
45	0x3e342973	0.17593937
46	0x3d54dba8	0.051967293
47	0x3e9fab7b	0.31185517
48	0x3e37df3c	0.17956251
49	0x3e6696cb	0.2251846
50	0xbf6a8972	-0.91615975
51	0x3e19870e	0.14992926
52	0x3e5bc7ab	0.21462886
53	0xbf81ad64	-1.013104
54	0xbd87d6a2	-0.06632735
55	0xbfe4b9a3	-1.7869152
56	0xbf3f3e1a	-0.74704134
57	0xbf8b93ee	-1.090452
58	0xbf518126	-0.8183769
59	0x3e30d618	0.1726917
60	0x400a2324	2.1583948
61	0xbd57b8e8	-0.052666575
62	0xbcfde3c0	-0.030992389
63	0xbdeab6f4	-0.11460677
