examples/experiments/experiment_84/actor30_3.pth (torch, 28759 bytes, 6 tensors)

l1.weight f4 [64, 36]
000000 b9 4b 11 be d4 3e d8 3d 9b 0e 74 3e 51 d6 01 bd
       -0.14189042 0.105588585 0.23833697 -0.03169853
000010 6f 17 30 3d 77 0a 44 3d 70 3d e4 3f c1 c9 86 c0
       0.042991098 0.047861543 1.7831249 -4.212128
000020 5a 6e 07 bf 22 d3 78 be cc bd 47 be f9 f3 f9 3d
       -0.5290276 -0.24299291 -0.19505996 0.12204737
000030 81 1e 15 be 56 d4 fc 3d 53 79 1b 3e 96 42 0b be
       -0.14562418 0.12345187 0.15183 -0.1359962
000040 af c6 a3 bd 3e d5 54 3e 17 fe 80 3e bc 40 89 3c
       -0.0799688 0.2078447 0.25193855 0.0167545
000050 f1 a5 20 bd 02 97 5c 3d 7e 9c 7e bc 92 05 f3 3d
       -0.039220754 0.05385495 -0.01554024 0.11866297
000060 87 51 b3 bc f0 2c 07 bd 8f b8 46 3d eb 2a 91 bd
       -0.021889461 -0.03300184 0.048515853 -0.07088264
000070 82 1d 7d be 9e 0c 08 bd 45 88 77 bd 96 92 cb bd
       -0.24718288 -0.033215158 -0.06043269 -0.099400684
000080 60 89 98 3d f9 52 ad 3c 43 2a f6 3d cc 8d d0 bd
       0.07448077 0.021157729 0.120197795 -0.101832956
000090 15 bb a9 bc 5f 6d cf 3e 18 10 1c 3e bb 1e a5 3d
       -0.02071909 0.4051313 0.15240514 0.08062502
0000a0 a5 d8 df bd 40 b4 61 3d 8f 09 3d bf 61 12 18 bf
       -0.109299935 0.05510354 -0.7384271 -0.59403044
0000b0 96 00 c5 bf e7 7c 3d bd f3 57 c1 bd 03 0c 26 3e
       -1.5390804 -0.046261694 -0.09440603 0.1621552
0000c0 6c 34 83 3d a4 76 83 3d 95 35 fe bd ea a1 41 3d
       0.06406483 0.06419113 -0.12412564 0.047273554
0000d0 7d 11 b8 3c 4c 73 93 bd 97 c5 20 3d bb 6c 8d bd
       0.022469277 -0.071997255 0.039250936 -0.06905504
0000e0 99 45 19 be 81 2e 66 be 03 a3 df bc 75 9c 19 be
       -0.14967956 -0.22478677 -0.02729941 -0.1500109
0000f0 05 91 e3 3d 84 1c 3b 3e c2 42 23 be 21 45 fd 3d
       0.11111645 0.18272597 -0.15943435 0.12366701
000100 6d c3 39 3e c0 4a a4 bd 9a 34 92 be d3 33 f8 bd
       0.18140955 -0.0802207 -0.28555757 -0.1211926
000110 f2 68 28 3d 26 f4 ae bd 8f f2 d2 bd 28 e5 ff bd
       0.04111571 -0.08542661 -0.10300171 -0.1249488
000120 97 0e 6c bd 66 ed 0c be 44 1d 47 3e ce ba 5f bc
       -0.0576311 -0.13762435 0.19444758 -0.013655378
000130 54 df 88 3d 4d 2f de 3d 6c 65 16 40 23 6f 30 3f
       0.066832215 0.10848866 2.3499403 0.6891958
000140 86 02 04 3f f4 0b ac 3d be 50 2b be 6d d4 8d 3d
       0.5156635 0.084007174 -0.1673002 0.069252826
000150 a4 45 02 3d d9 c5 09 be d8 61 6f 3b f5 dc 25 3e
       0.031804696 -0.13454379 0.0036526825 0.1619757
000160 96 d6 a0 3d bf 05 42 bd 37 8a db bc f6 6c ad bd
       0.07853429 -0.04736876 -0.026799304 -0.08468048
000170 13 09 48 3b df 9d 84 3d ca a3 cd 3d 38 a8 ed 3d
       0.0030522987 0.06475424 0.10041006 0.11604351
000180 7d db 97 3c 94 03 03 be 5a 4e 0f 3e 57 bc 7b bd
       0.018537277 -0.12794334 0.13994732 -0.06145891
000190 62 ff e8 3c 3f 88 ec 3c 0b bf 5a 3d 92 b5 d9 3b
       0.028442089 0.028873561 0.05340485 0.0066439593
0001a0 73 4b 5c 3e c0 d4 4b 3e 9d 0b b1 bd 7d 25 d1 3d
       0.21513157 0.19905376 -0.08644793 0.102122284
0001b0 7e 50 aa be b1 8b 75 3e 21 a3 71 3e 76 f4 9e bc
       -0.33264536 0.2397907 0.23597385 -0.019403677
0001c0 fc b5 23 3d af 2a 2c bd e4 de 1a bf 53 19 23 40
       0.039968476 -0.042032894 -0.60496354 2.5484207
0001d0 cf fa 69 bf 5e 47 7d 3d 75 47 78 be 52 88 df 3c
       -0.9139833 0.06183564 -0.24246009 0.027286682
0001e0 9f 10 55 be a6 d5 17 be 5a 04 37 3e fe 67 c2 3d
       -0.20807122 -0.14827594 0.17872754 0.09492491
0001f0 4a d9 da bd 0c b0 e9 bc 80 df 49 bd 3b fe 36 3d
       -0.10685976 -0.028526329 -0.04928541 0.044676047
000200 12 60 66 3e 30 3b b2 3d 16 f6 c3 bd f1 f5 1a 3e
       0.22497585 0.08702695 -0.095684215 0.15132882
000210 e0 49 e6 3d 4f 7e dc 3c 4f 32 17 bc 93 3e 8a 3e
       0.11244559 0.026915697 -0.009228303 0.27000865
000220 93 51 8e 3d 1d c1 0e be dd 49 9d 3c 4a c3 4a be
       0.06949153 -0.13940854 0.01920026 -0.1980106
000230 2c 4c a8 bd 85 c1 6a be 01 d4 0a be 11 f2 b7 bc
       -0.08217654 -0.22925384 -0.13557436 -0.022454293
000240 9c 51 42 bc f7 84 7a 3d bc 81 e6 39 4d 3a ec 3b
       -0.0118602775 0.06116196 0.00043965678 0.0072090984
000250 38 90 c6 3d a3 d9 d3 bc 97 5d 03 40 2b 3b 81 3d
       0.09695476 -0.025860613 2.0525873 0.063101135
000260 8a 27 3b c0 90 9b 8b 3c 35 6d 54 bc d1 80 fd bc
       -2.9242883 0.017041951 -0.01296549 -0.030945214
000270 fa fe cc bd aa 01 0e bc 6f 79 88 bd 1d bb 13 bc
       -0.100095704 -0.008667389 -0.066637866 -0.009016779
000280 f1 0b 08 3e 52 30 07 3e 70 65 8d 3d bd c9 1c 3d
       0.13285805 0.13202026 0.06904113 0.03827833
000290 6a 1a bc bd 35 ea 50 bc 85 23 01 bc c8 16 08 3d
       -0.091847256 -0.012751152 -0.007882004 0.03322485
0002a0 de 44 84 3d ee 57 d0 3c b1 5d 1d 3d 44 65 bc 3d
       0.06458448 0.025432553 0.03841943 0.091990024
0002b0 2e 9e 60 3c 4f 31 bc 3c d2 b1 13 be 4f 3e 60 be
       0.013709588 0.02297273 -0.14423302 -0.21898769
0002c0 c5 e0 02 3e 19 23 02 3d 6c 04 55 3d 8c 24 1c 3e
       0.12781055 0.031771753 0.05200617 0.15248317
0002d0 76 f7 22 be 46 97 e2 3a f7 f1 55 3e 1c 66 0d 3d
       -0.15914711 0.0017287515 0.20893084 0.034521207
0002e0 eb d1 4e bd 42 45 91 3c fb 17 00 40 65 73 b0 c0
       -0.050493162 0.01773322 2.0014637 -5.5140862
0002f0 49 93 5a 3e 62 32 25 be c6 52 a9 3d c7 02 8b 3d
       0.21345247 -0.16132501 0.08267741 0.06787639
000300 b8 8d 7c bd 54 d4 2e be b0 22 0d 3d 08 6a b5 bd
       -0.06165859 -0.17073184 0.03445691 -0.088581145
000310 9a 84 d0 bd c5 64 1c bd a4 c9 20 bb 81 3e d8 bc
       -0.10181542 -0.03818204 -0.002453425 -0.026396992
000320 60 ce cc 3d db 76 c2 3b db 8f 35 3e 98 86 51 bd
       0.100003004 0.005934579 0.17730658 -0.05115375
000330 af f6 3d be 4c 4a 38 bd 3b 51 67 bd 6c c6 1e be
       -0.18551134 -0.04499273 -0.05647395 -0.1550538
000340 c3 c7 9a 3d 43 6a 22 3e 78 ea 6f bd 75 08 9c 3d
       0.07557633 0.15860848 -0.058573216 0.076188006
000350 90 ec 42 3e 47 1e ee 3c 55 d5 08 3d 28 d6 b4 bd
       0.19035554 0.029067172 0.033406574 -0.088299096
000360 5a 7c 19 be 79 85 a7 3c 9f b4 1f 3e 65 45 9d 3d
       -0.14988843 0.020449387 0.15596245 0.076792516
000370 8d 3a 53 bc 5c 02 60 3d b4 e4 0d 3f e3 a5 04 c0
       -0.012892378 0.05468975 0.554271 -2.072625
000380 37 ec 94 c0 94 69 16 be 21 63 68 bc bb 23 86 3d
       -4.653835 -0.14688712 -0.01418379 0.06549784
000390 9a b6 63 be cc 7f 9c 3d eb 7d 2c bd 59 0f 70 be
       -0.22237626 0.07641563 -0.042112272 -0.23443355
0003a0 70 cb 11 3d 92 39 1a be 5c 36 fe 3c 52 94 24 bd
       0.035594404 -0.15061024 0.03103178 -0.04018051
0003b0 db b7 be 3d ff e3 24 3e d2 78 a4 3d 01 12 27 3d
       0.093124114 0.16102599 0.08030857 0.040788654
0003c0 7a 47 49 bc f2 bb 3b bd ea bb dc bc 3a d8 8b 3e
       -0.012285108 -0.045833535 -0.026945073 0.27313405
0003d0 34 ea af 3c e1 cf 60 bc a7 41 92 3e 0e ca 27 3d
       0.021473981 -0.013721437 0.28565714 0.04096418
0003e0 f0 47 d4 3d 9a a3 8f bb e4 48 12 3d bd 3c 8f 3b
       0.103652835 -0.0043835165 0.035714045 0.0043712542
0003f0 a0 19 1c be 15 fe a4 3d 29 80 46 3d 57 b3 f0 bd
       -0.1524415 0.08056275 0.048462067 -0.11752956

l1.bias f4 [64]
000000 73 df 87 3d 8e ac d2 3d f8 4b 24 3d 6c 5e ae 3d
       0.066344164 0.102868184 0.040111512 0.08514103
000010 e6 01 ed 3c 78 7f 76 3d c1 a2 8f 3c b7 92 69 3d
       0.02893157 0.060180157 0.017533662 0.057024684
000020 e7 d8 f9 3d 1e 94 c7 3d 5a 0b 20 be a0 8c 99 bd
       0.12199574 0.09745048 -0.1562933 -0.07497525
000030 63 b7 71 3c 19 52 ae 3d 80 a1 fe bd 21 2b 8b 3d
       0.014753195 0.08511753 -0.124331474 0.067953356
000040 7a 50 ee 3d c5 58 c7 3d cc c7 aa 3d 64 16 4f bc
       0.116364434 0.09733728 0.083388895 -0.012639616
000050 5c ff 78 3d 38 71 27 3e ff 2e af 3d bb 01 ae 3c
       0.060790405 0.16351783 0.08553886 0.02124106
000060 2f 0e 9a 3c 4f b6 0f be 5e 75 c3 3d 30 19 c8 bd
       0.018805591 -0.14034389 0.095438704 -0.09770429
000070 c5 20 91 3d 3c fd 04 3d e2 d6 25 be 93 b3 82 3d
       0.070863284 0.032468066 -0.16195253 0.06381907
000080 08 6f 31 3d 6d 81 31 3d d6 6b 8c 3d dd ba b0 3d
       0.04331878 0.04333632 0.068565056 0.08629391
000090 ba 37 ab 3d 27 cd 40 3d c3 95 69 3d 4c cb a2 3d
       0.083602384 0.04707065 0.05702759 0.07948932
0000a0 0b a2 a9 3d bf 6d 88 3c 5c 5a 25 be fa cb e8 3c
       0.0828286 0.016653894 -0.1614775 0.028417576
0000b0 4a 2e a8 3d cb 86 60 3d eb 1c dc bd 86 fb ed bd
       0.08211954 0.05481605 -0.10747703 -0.1162024
0000c0 39 f8 ff 3b e7 d4 6b 3d 30 1e f7 bd 6c 3b 91 3d
       0.007811573 0.057576086 -0.12066305 0.07091412
0000d0 40 c0 fa bd b6 ef 87 3d 72 4c 0a 3d 4d a3 19 3d
       -0.122437 0.06637518 0.03376431 0.03750925
0000e0 98 3a f9 3d a2 0a 22 be 30 dd cd bd e2 cb 3d 3d
       0.12169379 -0.15824369 -0.10051954 0.046337016
0000f0 db 8d a0 bd d7 91 99 3d ea 83 06 be fb a5 c3 bd
       -0.07839557 0.0749852 -0.13136259 -0.09553143

l2.weight f4 [64, 64]
000000 5f 72 59 3e c0 f2 77 3d 26 d2 de 3d 7e d9 c7 3d
       0.21235035 0.06053424 0.108799264 0.0975828
000010 67 fc 51 3e 45 3c 09 3e c5 8b 33 be 7d 6a 14 be
       0.2050644 0.13401897 -0.17533787 -0.14493747
000020 49 74 74 3d c1 ba 3c bd ec 92 a6 3d ae 21 cb 3d
       0.05968121 -0.04607654 0.08133492 0.09918533
000030 5f b8 f8 3b 18 0f 09 3e ee 13 9f bd 0d dc 48 bd
       0.007590338 0.13384664 -0.07767473 -0.04903798
000040 76 f9 9c be 0f 6f 66 be 75 8e 92 be d5 75 0b 3e
       -0.30659074 -0.22503303 -0.2862431 0.13619168
000050 f7 b6 04 3e af 6f 99 be 5e 9e 63 3e 6c 61 e3 3d
       0.1296042 -0.2996802 0.22228381 0.11102566
000060 1f dd 5c bc 9a b8 b3 3d 93 31 c7 bb 92 6e e9 3d
       -0.013480454 0.08775444 -0.0060789078 0.11398043
000070 73 a1 88 3e 78 17 08 be 2c 85 94 3d fd 57 5b 3e
       0.26685676 -0.13290203 0.07251963 0.21420284
000080 82 53 a3 3d d6 fb b9 bd 80 0f ad bd c7 99 d9 3e
       0.07974912 -0.09081237 -0.08450222 0.42500135
000090 a0 6d e9 3d 4d 9c 08 3d 9c e0 da 3c 87 70 15 3e
       0.113978624 0.033352185 0.02671843 0.14593707
0000a0 e6 2a 0a 3e 13 38 3e 3d a8 3f cd 3d a4 c1 a5 bc
       0.13492927 0.046440195 0.10021907 -0.020233937
0000b0 66 a5 fc 3d b3 4a a5 3e 70 92 63 3d 90 cd 37 bc
       0.12336235 0.32283553 0.055559576 -0.0112184435
0000c0 75 32 3c bf 55 70 28 3e aa fe f3 bd 40 e2 37 3d
       -0.7351449 0.16449101 -0.11913808 0.044893503
0000d0 e4 0e e0 bd 83 22 86 3d 2e 01 63 be 75 40 d2 bc
       -0.1094034 0.06549551 -0.22168419 -0.025665501
0000e0 65 29 97 bd 9d 87 f0 bd 46 aa ba bd d3 0c 87 bd
       -0.07380942 -0.11744616 -0.09114508 -0.06594243
0000f0 9a 9e f0 3c 82 b9 90 3e c8 aa f5 bc 38 72 cf 3f
       0.029372502 0.2826653 -0.029988661 1.6206732
000100 10 d7 14 bc 90 ad 16 bd 6c b6 da bd 64 48 78 3d
       -0.009084478 -0.036786616 -0.106793255 0.060615912
000110 b8 ca 2d 3d 90 4b cc bd d8 44 8c bc de 41 ea bd
       0.042429656 -0.0997535 -0.017122671 -0.114383444
000120 44 dd 4f bd 38 c6 87 bc 88 45 42 3d d6 5a be 3d
       -0.050748125 -0.01657401 0.04742959 0.09294669
000130 e0 ff 77 bc de e7 ae 3d 00 58 23 bb 7e 7b bb bd
       -0.015136689 0.08540319 -0.0024924278 -0.09154414
000140 60 35 89 3b 5c af 9d 3d d0 d2 b3 3c 14 13 ad 3d
       0.004187271 0.07699463 0.02195111 0.084509045
000150 a6 c1 b2 3d 92 31 e4 bd c0 1e 55 bc d8 25 c4 3d
       0.08728342 -0.11142267 -0.01300782 0.095775306
000160 4c 0d 8b bd 30 11 d8 3c 50 39 e0 bc 0c a7 d9 bd
       -0.067896456 0.026375383 -0.027371079 -0.10627565
000170 e8 f1 c1 3d 84 6c 5d bd bc 66 e7 bd 12 69 b7 bd
       0.09469968 -0.054058567 -0.11298892 -0.089555874
000180 2e cc 90 bd f0 03 07 bc f0 35 1c 3c d0 32 3d 3d
       -0.07070194 -0.008240685 0.009534344 0.046191037
000190 64 7c 9a bd 80 f0 48 bd 84 63 b1 3d a2 d5 e9 3d
       -0.07543257 -0.049057484 0.08661559 0.114177
0001a0 e4 22 29 bd 9c c1 8a bd a8 5d 94 3c 3a 11 91 bd
       -0.04129304 -0.06775209 0.018111065 -0.07083364
0001b0 b4 ef 50 3d d6 00 d3 3d cc 78 39 3d 3a 04 a8 bd
       0.05100985 0.10302894 0.045281217 -0.08203931
0001c0 10 e9 bc bc f0 ee 31 3d 3e a3 d2 bd 70 de bc 3c
       -0.023060352 0.04344076 -0.10285042 0.023055285
0001d0 e8 61 16 bd 6c 73 fb 3d d0 86 7a bd d2 f2 a3 3d
       -0.036714464 0.12277874 -0.061163723 0.08005299
0001e0 60 fa da 3b 3a 1b b9 3d 40 5a 99 bc ee fc f0 bd
       0.006682679 0.09038396 -0.018719792 -0.117669925
0001f0 60 b0 f4 bc c8 02 88 bd 40 e2 15 3c da b0 9c bd
       -0.029869258 -0.066411555 0.0091481805 -0.07650919
000200 07 03 64 be 81 a6 8f 3d ab 73 cc bd 0c b5 17 3d
       -0.2226678 0.0701418 -0.099829994 0.037037894
000210 aa ab 77 bc 92 95 96 be 83 51 71 bd 44 f4 4a 3e
       -0.0151166115 -0.29410988 -0.058915626 0.19819742
000220 a3 2e 1e 3e 1b e8 e0 3d 7e d3 e8 3d 00 a1 5f bc
       0.15447478 0.109817706 0.11368464 -0.013649225
000230 91 10 0a 3e f6 6f cb be 3e f1 a7 bd b1 3b a5 3c
       0.13482882 -0.39733857 -0.0820031 0.020170065
000240 7e 4a 70 3e 76 1d 99 3e 8e 0e 3d 3e af 2a 28 3d
       0.23465917 0.2990529 0.18462583 0.04105633
000250 2b 89 b7 3e a9 fb 81 3e 15 b4 d1 bd 6b 58 63 3d
       0.35846838 0.25387314 -0.10239426 0.055504244
000260 ef 6b 04 3e f8 30 00 3d 38 ee 44 3e 32 3a ea 3d
       0.12931798 0.0312967 0.19231498 0.11436881
000270 d2 11 3c 3d e1 52 60 3e b0 58 3a bc cf 4e c9 be
       0.045915432 0.21906616 -0.011373684 -0.3931794
000280 c4 5b 05 3e e2 7a e4 3d ab bb 59 3e 57 a8 84 be
       0.13023287 0.111562505 0.21262996 -0.25909683
000290 2a ff f3 bc b4 b3 49 be fc 2c 48 3e 7a b2 69 3e
       -0.029784758 -0.19697458 0.1954841 0.2282199
0002a0 12 9f 6d 3e 1b 1e 0b be 14 cf 47 bd 33 eb 44 3d
       0.23205212 -0.13585703 -0.04878147 0.048075866
0002b0 d9 b3 47 be 9d e9 36 3e 30 5a 85 3c 08 a9 7b bd
       -0.195022 0.17862554 0.016278356 -0.061440498
0002c0 dd ce fe 3e 8e a7 8f bd 80 8c c0 bd 86 b0 0a be
       0.497672 -0.070143804 -0.09401798 -0.13543901
0002d0 b2 03 dd bd a2 33 24 3e ad 23 9c 3e 09 e7 c5 bd
       -0.107917204 0.16035321 0.30495968 -0.09663207
0002e0 8d 1c 43 bd f0 a1 c9 3d 00 72 8a 3b 57 03 23 3e
       -0.04763465 0.0984534 0.0042250156 0.15919243
0002f0 4e 4f 2e bd 67 ff c9 be 40 02 70 bb dd 1e 7c be
       -0.0425561 -0.3945267 -0.0036622435 -0.24621148
000300 a5 8b 82 3d 87 6a 2b 3e 6e e6 b0 be 50 45 a5 3d
       0.06374291 0.16739856 -0.34550804 0.08069861
000310 f2 33 19 be 19 ab 43 be e9 f2 02 3e 05 25 0f 3f
       -0.14961222 -0.19108237 0.12787975 0.5591586
000320 8e a8 2d 3e 34 ba 9f 3d 50 e5 b6 bd 2e 08 e5 bd
       0.1695883 0.07799187 -0.08930457 -0.11183201
000330 94 4b 88 bd ba ea 30 be c0 90 c3 3b 70 3c db 3d
       -0.066550404 -0.17277041 0.0059681833 0.10704887
000340 d8 d3 9f 3e 04 e2 b9 3e 8c 95 6f bd 6e d5 5c bd
       0.3121631 0.3630525 -0.05849223 -0.05391448
000350 56 d1 92 3e e6 ff 99 3e 7a 51 19 be 08 41 1d be
       0.28675336 0.30078048 -0.14972487 -0.15356839
000360 b4 36 14 bd 70 37 98 3c 3b c0 aa 3d 34 9e c8 bd
       -0.03618498 0.018581122 0.08337446 -0.097958
000370 1c 87 c8 bd a9 ff d2 3e 20 3e 32 3c 50 87 72 be
       -0.09791395 0.41210678 0.01087907 -0.2368443
000380 c7 cc 41 3e f9 4b 3c 3e 85 dd b2 3e 7c 23 82 be
       0.18925773 0.18388356 0.3493463 -0.25417697
000390 29 b6 01 be 2d 2c 20 3e fe 90 98 3e 9a 5b c4 3d
       -0.12667145 0.15641852 0.2979812 0.09587784
0003a0 7e ae 88 3c 76 49 55 be fa 31 e5 3d b0 9b 2c 3d
       0.016684767 -0.20828804 0.11191173 0.042140663
0003b0 9b 38 28 be 69 8b 4a be c2 dc b4 bd 14 5f 84 bd
       -0.16427843 -0.19779743 -0.08831169 -0.06463447
0003c0 d7 77 4c 3f b6 e0 ea bd 8c e9 a0 bd 2f e8 0b be
       0.7987036 -0.114686415 -0.078570455 -0.1366279
0003d0 5c 0e c2 3d 65 dd 50 3e fb 74 f6 3d 1d d4 fd bc
       0.09475395 0.20396955 0.12034031 -0.030984933
0003e0 db c2 29 3d 28 de d1 3d f0 05 38 bc 39 02 33 3e
       0.041445594 0.10247451 -0.011231884 0.17481317
0003f0 f2 89 ab bd 4b 66 76 be c8 ca 81 3c ea 75 5d bf
       -0.0837592 -0.24062459 0.015843764 -0.8650805

l2.bias f4 [64]
000000 a2 86 aa 3d 56 0a e0 bd 2e c1 21 3e 5e 59 bc 3d
       0.083264604 -0.109394714 0.15796348 0.09196733
000010 f4 cf 71 bd d4 1a 6c 3d 4a 12 36 3d 09 9f 7f 3d
       -0.05903621 0.057642773 0.044451036 0.062407527
000020 3b 9d c2 3b f7 7b b7 3d 8a 72 87 3c 33 ec 44 bd
       0.0059391535 0.08959191 0.016534109 -0.04807682
000030 ad 93 8c 3d 7a 38 88 3c 15 3d 08 3c 00 ab 50 3d
       0.068641044 0.016628493 0.008315344 0.05094433
000040 2d a3 dc bd 35 96 f9 3c 26 c7 ed 3d 0a 29 82 be
       -0.10773311 0.030467132 0.1161025 -0.25421935
000050 21 e6 d6 3c df bd 15 3d 40 59 3e 3d 05 38 00 3e
       0.02623278 0.03655803 0.046471834 0.1252137
000060 d6 2b dd 3d e8 22 5f 3e 0b ce a2 3d b2 4b 3d 3d
       0.10799377 0.2179066 0.07949456 0.046214767
000070 64 8a 42 3e c1 24 a2 3d 41 26 9b be 81 ba f7 3c
       0.18998104 0.079171665 -0.30302623 0.0302403
000080 1d 14 b7 bd f2 45 f0 3d 26 72 9c 3d 5d 90 82 3d
       -0.08939383 0.11732091 0.076389596 0.06375191
000090 ca db 27 3e 1e 3b a9 3c 4a 94 86 bc a7 ae 88 bd
       0.16392437 0.020658072 -0.016428132 -0.06673937
0000a0 fa 6d e5 bd fa af 2f be f8 8d ce bd 35 d3 46 3d
       -0.11202617 -0.17156973 -0.10085672 0.048541266
0000b0 31 4c 43 3c ea 2d a5 3d ab 36 00 3d 62 52 c5 bc
       0.011920021 0.08065398 0.031302135 -0.024087135
0000c0 c7 b7 0e be 7e 48 ac bb b0 89 af 3d f3 22 a1 3d
       -0.13937293 -0.005257665 0.08571184 0.07867994
0000d0 86 68 dc bd 9b 7b 63 3d 45 20 07 3e 66 1e 5c 3e
       -0.10762124 0.0555378 0.13195904 0.21495971
0000e0 5e 8f 11 3e ae ac 17 bd c7 46 6d be d6 54 3c bd
       0.14214846 -0.037029915 -0.2317153 -0.045979343
0000f0 4e 2e 5b 3e b6 db 02 3d 20 89 b9 bb f8 24 d3 3d
       0.21404383 0.031947814 -0.0056620985 0.103097856

l3.weight f4 [3, 64]
000000 b5 91 30 3e 20 5c ff 3d 1c 86 c0 be d3 77 d0 be
       0.17243083 0.12468743 -0.37602317 -0.4071642
000010 e0 d0 f6 3c 66 e2 05 bf a3 e1 cf be 7a 37 10 3e
       0.030128896 -0.5229858 -0.40601835 0.14083663
000020 c0 06 f0 bd 75 d1 4d be be 63 21 be f2 97 cb 40
       -0.117200375 -0.20099433 -0.15760705 6.362298
000030 78 12 80 3d 53 61 6b 3f cd 49 71 3c 56 e1 81 3d
       0.06253523 0.9194538 0.014727068 0.063418075
000040 41 67 4f 3d 85 9d 8f 3d 8c b0 0f bd a7 35 4a 3e
       0.05063558 0.07012466 -0.035080478 0.19747029
000050 90 e2 4f 3e 50 20 48 be 6b f0 e5 bd 4b 12 35 3e
       0.2030127 -0.19543576 -0.11227497 0.1768276
000060 05 cf 68 3e f6 ab 88 be 9e ad 5b 3e ab 42 35 be
       0.22735222 -0.26693696 0.21452948 -0.17701213
000070 e1 91 04 3d 01 44 da 3e f0 68 0a c0 3d e8 32 3f
       0.032365683 0.42630008 -2.1626549 0.6988562
000080 45 30 10 bd 92 7a 1a 3e 21 1c 71 3e ac 3b 40 3d
       -0.035202283 0.1508582 0.23545887 0.046931908
000090 a9 d2 90 be 81 62 89 bd 4f 99 84 3d 51 2a 07 be
       -0.2828572 -0.06708241 0.06474554 -0.13199736
0000a0 d8 6e a3 bc dd 17 1b 40 a0 42 de bb d9 1f 7e bd
       -0.019950315 2.4233315 -0.0067828447 -0.06204209
0000b0 43 f9 b7 3e b6 3d d1 3e 0e 56 20 3e d4 0d dc be
       0.3593236 0.40867394 0.15657827 -0.429793
0000c0 40 d5 95 3d e9 4b 19 3e b8 1e 79 3e b1 00 17 3e
       0.07316065 0.14970364 0.24328125 0.14746358
0000d0 48 2c ef 3c 57 1b 56 3e bb 33 82 3e 05 40 8e be
       0.02919592 0.20908867 0.25430092 -0.27783218
0000e0 f4 7f 92 3e f1 24 8d be e8 af 49 3e 69 a7 ac bb
       0.28613245 -0.27567247 0.19696009 -0.0052689803
0000f0 8a 34 d6 bc 7c 78 25 bd 55 ed 14 3e f6 22 a5 3d
       -0.0261481 -0.040398106 0.1454366 0.08063309
000100 51 23 5a 3d b2 d0 8e 3d d0 09 30 3e 60 da 8c bd
       0.053256337 0.06973399 0.17191243 -0.06877589
000110 d0 16 72 3c be e7 70 bd f5 cd 93 3d ac b1 22 be
       0.014775947 -0.058814757 0.072170176 -0.15888089
000120 dc 45 9e bd ad d1 72 be 9f b6 44 be db d2 1e be
       -0.07728168 -0.23712797 -0.1921029 -0.15510122
000130 6d 91 59 be 77 b5 ac 3d 43 ad 7a be 48 b2 8e 3d
       -0.21246882 0.08433049 -0.24480157 0.06967598
000140 df b3 95 bd 44 72 a7 3d 61 f7 90 be 2b ed 26 c0
       -0.07309698 0.08176091 -0.28313735 -2.6082256
000150 63 24 dd 3d 57 6f 8c 3c 69 f8 7a 3a 5f 1a 37 be
       0.10797956 0.017142935 0.0009573759 -0.17881154
000160 81 4b 9a 3d be d9 88 3e 78 53 86 3d 96 6e 11 be
       0.075339325 0.26728624 0.06558889 -0.14202341
000170 17 e7 43 bd ea 05 a5 3e f1 ac 9d 3f e1 bb c0 3d
       -0.047827806 0.32231075 1.2318403 0.09410835
000180 ef 1d 49 3c fb be 17 be cd 0d 19 bf f5 01 2a 3e
       0.012275203 -0.14818947 -0.59786683 0.16602309
000190 0b 65 81 3e 8a 5f 23 be 50 0f 1e 3d 24 23 1e 40
       0.25272402 -0.15954414 0.038588822 2.4708948
0001a0 5a 7b c8 bd fc 6c bb 40 38 b7 a6 bd 02 67 32 3d
       -0.097891524 5.8570538 -0.08140415 0.043555267
0001b0 cf da bb 3d 53 11 02 3e 27 8c 46 be 7b 4b 87 bd
       0.09172594 0.12701921 -0.19389401 -0.06606194
0001c0 23 8d a4 3d 38 1c 4e be c6 0a 1d 3e 14 36 29 3d
       0.08034732 -0.20127952 0.15336141 0.04131134
0001d0 cb d8 97 3d f1 11 51 3d 38 b1 b8 3d 3a d1 96 3e
       0.07414397 0.0510425 0.09018177 0.29456502
0001e0 3a c1 28 3e b7 59 5c bd c6 b4 f6 be fd ab 3b be
       0.1647996 -0.053796496 -0.48184794 -0.18327327
0001f0 70 da 8c 3e 8c 8c 52 bd bc 5b 6d be 5c b5 5f be
       0.27510405 -0.051403567 -0.23179525 -0.21846527
000200 d5 bd 58 be 48 36 a2 bc 1f bb 87 3e fc a7 2c 3e
       -0.21166165 -0.019801274 0.2650995 0.16860956
000210 88 2f e8 bc da ef db 3d f1 6e de be 0f cc 01 3d
       -0.028342977 0.107391074 -0.43444017 0.031688746
000220 71 7d 9f be 4c 1b 11 be 87 ba df bd 10 8c c6 be
       -0.31150392 -0.14170569 -0.10924249 -0.38778734
000230 dd 89 75 be fc 99 b1 3f 4d ff 9d be 11 b0 bc bd
       -0.23978372 1.3875117 -0.30858842 -0.092132695
000240 5e 4d 96 3d 13 3f cb be 44 67 93 bd fa c2 8a 3e
       0.07338975 -0.3969656 -0.07197431 0.2710188
000250 71 0a 67 be d9 02 0b 3f 7c ab 91 be d6 7c 26 3d
       -0.22562577 0.5430122 -0.28451145 0.040646397
000260 de b7 8f bd 3b 02 69 3e 47 39 6a be 39 4d 86 3e
       -0.07017492 0.22754757 -0.22873412 0.2623079
000270 be b6 de 3e 1f 0d c3 3d 3e f4 c7 be 74 ff 8a bf
       0.43498796 0.09523987 -0.3905353 -1.0859208
000280 7c 19 e4 3d 8c d8 a6 3d 5d 5f 0d bf 9b de 19 3f
       0.11137673 0.08146772 -0.5522364 0.60105294
000290 22 46 98 3e 53 3a b7 be fd a5 b1 be ca e7 b0 3c
       0.29741007 -0.35786685 -0.34696952 0.0215949
0002a0 5c 45 29 3d 3b f9 ae bd 14 f2 23 bd 09 ab 4e be
       0.041325912 -0.08543631 -0.040025786 -0.20182432
0002b0 03 aa 80 be 41 73 7b 3c 52 fd 06 3d 69 65 b0 be
       -0.2512971 0.015347303 0.03295643 -0.3445237
0002c0 44 58 c3 3c 49 31 6a 3d 8f 8a 14 3f 23 b1 8a be
       0.0238458 0.05717591 0.58023924 -0.2708827
0002d0 3b fb 93 bc 0d f9 7c be 90 0c 89 be d9 44 b2 3d
       -0.018064132 -0.2470438 -0.26767397 0.08704538
0002e0 31 63 2d be bb a3 81 3e 1d d7 b0 3f 46 bd 39 bb
       -0.1693237 0.2532023 1.3815647 -0.0028341576
0002f0 e8 5e c0 3e 74 af 49 bc ec 6f 09 be 04 2d 72 3e
       0.37572408 -0.012309898 -0.13421601 0.23649985

l3.bias f4 [3]
000000 67 c4 6a 3d f6 f0 21 3e 1b 00 56 3d
       0.05731621 0.15814576 0.052246194
