examples/experiments/experiment_84/actor43_1.pth (torch, 28759 bytes, 6 tensors)

l1.weight f4 [64, 36]
0	0x3e01b5e6	0.12667045
1	0x3d90c7de	0.07069372
2	0xbdfbb8e6	-0.12291126
3	0xbc86a1c5	-0.01643456
4	0xbd10d3e8	-0.03535834
5	0xbca068d5	-0.019581238
6	0xbdedc480	-0.11609745
7	0xbdf0053b	-0.11719748
8	0xbbf56d10	-0.007489808
9	0xbe01b886	-0.12668046
10	0x3ce5afd1	0.028037937
11	0xbdbd5e2c	-0.092464775
12	0x3d9781a4	0.07397774
13	0xbda7a224	-0.08185223
14	0x3b546768	0.0032410268
15	0x3e152cb2	0.14567831
16	0xbdbdd621	-0.092693575
17	0x3d47cbac	0.04877822
18	0x3d9694fd	0.07352636
19	0x3d06b66d	0.03288882
20	0x3b67f338	0.0035392772
21	0x3d796daa	0.0608956
22	0xbdae3864	-0.085068494
23	0xbe10bc44	-0.14134318
24	0xbda817ec	-0.08207688
25	0xbdf06cd9	-0.11739511
26	0x3c86507f	0.016395805
27	0xbd313823	-0.043266427
28	0xbe093fbc	-0.13403219
29	0xbd81cf05	-0.06338314
30	0x3e13b4bb	0.14424412
31	0x3df835a7	0.12119608
32	0x3bdae7a9	0.006680448
33	0xbdabd5cc	-0.08390388
34	0xbc7fe68e	-0.015618933
35	0xbda75cad	-0.081719734
36	0x3ea1517f	0.3150749
37	0x3c8431d6	0.016137045
38	0x3e501a7d	0.20322604
39	0x3cad70ee	0.021172013
40	0x3dbb370f	0.09141361
41	0xbd16811c	-0.036744222
42	0xbfae69df	-1.3626059
43	0x4018c52f	2.3870351
44	0x3f09d0f8	0.53834486
45	0xbdaeca3c	-0.08534667
46	0xbc4a52a1	-0.012348802
47	0xbd81e9a1	-0.06343389
48	0x3dbf3ecb	0.09338149
49	0xbcc9d5d0	-0.024638087
50	0xbb93544f	-0.0044961344
51	0x3d9adf7b	0.07562157
52	0xbd0d1142	-0.034440286
53	0xbe03caad	-0.12870283
54	0x3cb724b5	0.02235637
55	0x3d4fd3be	0.050739042
56	0x3d34be70	0.044126928
57	0xbe261549	-0.16219057
58	0x3cba8d0a	0.02277233
59	0xbd9e810b	-0.07739457
60	0xbd11c746	-0.035590433
61	0xbe190c12	-0.1494601
62	0x3d7b39cb	0.061334413
63	0xbdc886c8	-0.097913325
64	0x3df8a36f	0.121405475
65	0x3d660663	0.056158435
66	0xbe2f63b8	-0.17127883
67	0x3c9e9931	0.019360157
68	0x3ce73112	0.02822164
69	0x3d6d721c	0.05797015
70	0x3d907fde	0.07055639
71	0x3d01b5a6	0.031667374
72	0xbf0e26d5	-0.55528
73	0xbe1f3253	-0.15546541
74	0xbd92a953	-0.07161202
75	0xbd5cbe79	-0.053892586
76	0x3e168e4e	0.14702722
77	0xbcd54c15	-0.026037255
78	0x3e8ea826	0.27862662
79	0x402170be	2.5225062
80	0xbcf7c2e8	-0.030244306
81	0x3de5118d	0.11184988
82	0x3e1505b1	0.14552952
83	0x3dafaeab	0.08578237
84	0xbd843f59	-0.06457395
85	0x3e105d3d	0.14098068
86	0x3dc5571e	0.09635757
87	0xbd4ea584	-0.050450817
88	0x3c35f8b6	0.011106661
89	0x3c77f469	0.0151339555
90	0xbbda913a	-0.0066701444
91	0x3e0bc678	0.13649929
92	0xbe48c676	-0.19606957
93	0xbcc62c19	-0.02419095
94	0xba0d4c43	-0.0005390087
95	0x3d223cb7	0.039608683
96	0xbdf1e0c7	-0.11810451
97	0x3e47b126	0.1950117
98	0xbbf6fcd0	-0.007537462
99	0xbdf5ce6c	-0.120022625
100	0xbb8e95ee	-0.004351369
101	0x3dea11f9	0.11429209
102	0xbd8f09e2	-0.06984307
103	0xbd970885	-0.07374672
104	0xbd7aa5f7	-0.061193433
105	0x3dcd9e4c	0.10039958
106	0xbd6c6aab	-0.057718914
107	0xbe0890e5	-0.13336523
108	0xbfee74b6	-1.8629367
109	0x3eb62811	0.35577443
110	0x3cd45ea6	0.025924038
111	0x3e261975	0.16220649
112	0xbb438bea	-0.0029838034
113	0xbd840b93	-0.0644752
114	0x400599bf	2.087509
115	0xbe16de5f	-0.14733265
116	0x3f88f378	1.0699301
117	0xbe032270	-0.12806106
118	0x3e39d3b3	0.18147163
119	0xbdbf3a85	-0.093373336
120	0xbf080cf3	-0.5314476
121	0xbc8ae783	-0.016956097
122	0xbd90e356	-0.07074611
123	0xbe5a55e2	-0.21321824
124	0x3e2412da	0.16022816
125	0xbd03c5a3	-0.032170903
126	0x3c186c05	0.009303098
127	0xbd7ad25b	-0.061235767
128	0xbdf7bdec	-0.120967716
129	0x3b9dd118	0.0048161857
130	0xbac30664	-0.0014879224
131	0xbe098b92	-0.13432148
132	0xbc843371	-0.01613781
133	0xbd0baf22	-0.034102567
134	0x3ba11805	0.0049161934
135	0xbc934b85	-0.017980346
136	0xbe7fe89a	-0.24991074
137	0x3d551d0a	0.052029647
138	0xbd8714c7	-0.0659576
139	0x3b5a59b5	0.003331763
140	0xbd943024	-0.072357446
141	0x3e6fb1e8	0.2340771
142	0x3cb5128e	0.022103574
143	0x3df1c36b	0.11804851
144	0xbedc53fb	-0.43032822
145	0x3f1fb6af	0.6238813
146	0xbdd3a43a	-0.10334058
147	0x3e26df38	0.16296089
148	0x3d092102	0.033478744
149	0xbd762afd	-0.06009959
150	0x3fc4fa8f	1.5388964
151	0xbfac6222	-1.3467448
152	0x401a31dd	2.4092934
153	0x3e28c450	0.16481137
154	0xbd9ebe46	-0.077511355
155	0x3def1d0e	0.116754636
156	0x3d9e94ef	0.077432506
157	0x3d219bdf	0.03945529
158	0xbd77f42b	-0.06053559
159	0xbd734993	-0.059396338
160	0xbd1f19af	-0.038842853
161	0xbd209df3	-0.039213132
162	0x3d132d80	0.035932064
163	0x3d953e5e	0.07287286
164	0x3ea1f76e	0.31634086
165	0x3e034a14	0.12821227
166	0x3d9215a1	0.07133032
167	0xbd36ec48	-0.04465893
168	0xbe5bfbc9	-0.21482767
169	0x3d0a5653	0.03377373
170	0x3d51da33	0.05123348
171	0x3bfe2c57	0.0077567506
172	0x3ca1db1a	0.019757796
173	0x3dda6a8a	0.10664852
174	0xbd84a76d	-0.064772464
175	0xbe08e231	-0.13367535
176	0xbe5331ca	-0.20624462
177	0xbd8e3fda	-0.069457725
178	0xbeb2e2fb	-0.34938797
179	0xbecae129	-0.3962491
180	0xbf9f99f2	-1.2468855
181	0x3da0997b	0.07841774
182	0x3df2af11	0.118497975
183	0x3c90a7a5	0.017658064
184	0x3c59992e	0.01328115
185	0x3be09957	0.006854217
186	0xbe475c4b	-0.194688
187	0x3e5baf34	0.21453553
188	0x3f5b94e6	0.85774076
189	0xbd7b55d2	-0.06136114
190	0xbc568aee	-0.013094647
191	0xbba5ad41	-0.005056054
192	0x3c6f1cba	0.014594251
193	0xbc5bce05	-0.013415818
194	0x3d0bbbcd	0.034114648
195	0xbc53d4da	-0.012929166
196	0x3c69ef24	0.014278207
197	0x3d081322	0.03322137
198	0x3cbe4c03	0.023229605
199	0xbc1fbcde	-0.009749619
200	0x3ca52022	0.020156924
201	0x3cec44a4	0.028841324
202	0x3cde84bf	0.027162908
203	0x3c110d82	0.008853318
204	0x3d2b5d2e	0.04183691
205	0xbbca304e	-0.006170309
206	0xbc13af55	-0.00901397
207	0xbd68a452	-0.056797333
208	0xbbe42b1a	-0.006963146
209	0x3d10a966	0.0353178
210	0x3d09193e	0.03347134
211	0x3d4a0d90	0.04932934
212	0x3c77d404	0.015126232
213	0x3d291734	0.041281894
214	0xbbd14635	-0.006386543
215	0x3c25c2d4	0.010117251
216	0xbe247736	-0.160611
217	0x3e4d085c	0.2002272
218	0xbd99e778	-0.07514852
219	0x3c3d24b2	0.011544393
220	0x3d78ded7	0.06075939
221	0xbcf647e8	-0.030063584
222	0x3ffeb67d	1.9899441
223	0xbfe701d0	-1.8047428
224	0xbf577f7c	-0.841789
225	0xbd5e75c0	-0.054311514
226	0xbe120884	-0.14261061
227	0x3e375a46	0.1790553
228	0x3d4a5be0	0.049404025
229	0x3d952ace	0.07283555
230	0xbda29c59	-0.07939977
231	0x3df6ff83	0.12060454
232	0x3b5dc842	0.0033841287
233	0xbe2924e2	-0.16517976
234	0x3b2cb53b	0.002635314
235	0xbd72d812	-0.059288092
236	0x3dba4ca5	0.0909665
237	0xbdd949cf	-0.10609781
238	0x3e07d579	0.13265027
239	0xbe01608b	-0.12634484
240	0x3dab4495	0.0836269
241	0x3cc08692	0.023501668
242	0x3e44ecaa	0.19230905
243	0x3d4c492b	0.049874466
244	0x3b96a8f6	0.0045977784
245	0x3d645768	0.05574742
246	0x3e2182fc	0.15772623
247	0x3db484ce	0.08814393
248	0x3e131c66	0.14366302
249	0x3e0fda0f	0.14048027
250	0x3c020bc5	0.007937376
251	0x3bc60278	0.0060427748
252	0xbd34ad1e	-0.04411041
253	0x3ca0684b	0.01958098
254	0xbd0558e7	-0.032555487
255	0x3d60a29b	0.054842573

l1.bias f4 [64]
0	0xbdd5e6d1	-0.10444415
1	0x3dcccdea	0.100002125
2	0x3dabd072	0.08389367
3	0xbe2d3cbc	-0.169177
4	0x3e0efeee	0.13964435
5	0xbdb05a27	-0.08610945
6	0x3d9fa2db	0.07794734
7	0xbe271ca9	-0.16319527
8	0x3d472ad4	0.04862483
9	0x3ba048f8	0.004891511
10	0xbda02c48	-0.07820946
11	0x398f30cc	0.00027311442
12	0x3da56849	0.080765314
13	0xbe220430	-0.1582191
14	0x3df665ce	0.120311365
15	0x3dadc0e3	0.08484056
16	0x3dcc6a44	0.09981206
17	0x3e429e35	0.19005664
18	0xbe29c2b8	-0.16578186
19	0x3dc87b93	0.09789195
20	0x3d2b393e	0.041802637
21	0x3dfcebee	0.123496875
22	0x3de318f3	0.11088743
23	0x3dd0fbf6	0.10204308
24	0x3da0b69f	0.07847332
25	0x3dd4f01c	0.1039736
26	0x3d931770	0.07182205
27	0x3dc4041e	0.09571098
28	0x3c83376f	0.016017644
29	0x3d994fd9	0.07485933
30	0x3d988c15	0.074485935
31	0x3da573c8	0.08078724
32	0xbd2cf882	-0.042229183
33	0x3d7e7106	0.062119506
34	0xbe1c42c4	-0.15259844
35	0x3decb0cd	0.115571596
36	0x3c8b5254	0.01700703
37	0x3db502fc	0.0883846
38	0x3dbcc313	0.09216895
39	0x3dace7f6	0.084426805
40	0x3dc64584	0.09681228
41	0x3d359416	0.04433068
42	0x3d9b65e2	0.07587792
43	0x3d6cba71	0.057794992
44	0x3e24fa1c	0.16111034
45	0x3d93cd4f	0.07216894
46	0x3dacd59f	0.084391825
47	0x3ddce78f	0.10786354
48	0x3dcdbeac	0.100461334
49	0x3dc9cf25	0.09853963
50	0x3e0499be	0.12949273
51	0x3e05f2e2	0.13080934
52	0xbe1b611e	-0.15173766
53	0x3e21d33f	0.1580324
54	0x3d8d2b5c	0.06893036
55	0x3d5f14be	0.05446314
56	0x3dabf2d9	0.08395929
57	0x3d0934a3	0.033497464
58	0x3d40ce5d	0.047071803
59	0xbdcdd08b	-0.10049542
60	0x3dd93b7e	0.1060705
61	0x3d043fcf	0.032287415
62	0x3dcf14a1	0.101113565
63	0x3d80a49b	0.06281396

l2.weight f4 [64, 64]
0	0xbcfd2878	-0.030903086
1	0x3ef8a00a	0.485596
2	0x3cf0fbc5	0.029416928
3	0x3ef6a6cb	0.48174128
4	0xbd26fd15	-0.0407687
5	0x3de47dda	0.11156817
6	0xbe8e6398	-0.2781036
7	0xbd0fef08	-0.035140067
8	0x3ef4381e	0.47699064
9	0xbc3c4bc5	-0.011492674
10	0x3d9768d6	0.07393043
11	0x3e70c694	0.23513252
12	0x3e79a3ad	0.24378844
13	0xbafde3ee	-0.0019370297
14	0xba971946	-0.0011527918
15	0xbc1a2ff8	-0.009410851
16	0x3df979c2	0.121814266
17	0x3e5f8988	0.21829808
18	0xc0021be8	-2.0329533
19	0x3c6f41aa	0.014603058
20	0x3e0b5951	0.1360829
21	0xbe176d77	-0.14787851
22	0x3dcfb47e	0.10141848
23	0xbe51acc6	-0.20476064
24	0xbdbbfbda	-0.09178896
25	0xbe203c54	-0.15648013
26	0xbe249aed	-0.16074724
27	0x3ea7993f	0.32734105
28	0xbe72be35	-0.2370537
29	0xbe14e67b	-0.14541046
30	0x3d04e9e0	0.032449603
31	0xbe4e6726	-0.20156536
32	0x3e9ce99f	0.3064699
33	0x3b20f8c6	0.0024562343
34	0x3d308c08	0.043102294
35	0xbe86d785	-0.26336303
36	0x3e3ce435	0.18446429
37	0x3e333725	0.17501505
38	0x3cfe33ab	0.031030497
39	0x3d3a0891	0.045418326
40	0x3dcde11c	0.10052702
41	0xbdaddda7	-0.084895425
42	0x3e0b712c	0.1361739
43	0xbe41213b	-0.18860333
44	0xbe3a22a7	-0.18177281
45	0xbdb5d478	-0.08878416
46	0x3e7d86e1	0.24758483
47	0xbe0912e5	-0.13386114
48	0xbce14959	-0.027500795
49	0xbcb4bcc7	-0.022062672
50	0x3e8a028b	0.26955065
51	0x3ea6cee4	0.3257972
52	0xbde70350	-0.11279929
53	0xbcdcb0ba	-0.026939739
54	0xbd7495ce	-0.059713177
55	0xbd9431d7	-0.07236069
56	0x3effbdfa	0.49949628
57	0x3e4defcf	0.20111011
58	0x3c9f0421	0.019411149
59	0xbd7be8b4	-0.06150122
60	0xbe1f126e	-0.15534374
61	0xbd8e9de6	-0.069637105
62	0xbe9880bd	-0.2978572
63	0x3f150b3e	0.5822028
64	0xbd6e8179	-0.058228943
65	0x3e84c4e5	0.2593147
66	0x3e348b0a	0.17631164
67	0x3f32da42	0.69864285
68	0x3db1dbe1	0.08684517
69	0x3f0845ee	0.53231704
70	0xbe418464	-0.1889816
71	0xbdcebbe5	-0.10094432
72	0x3e3e383e	0.18576142
73	0x3e446576	0.1917933
74	0xbdc13665	-0.09434203
75	0x3e345a0c	0.17612475
76	0x3daf8b3d	0.085714795
77	0x3cbec9bc	0.023289554
78	0x3d7fae47	0.062422063
79	0xbd1c4f13	-0.03816135
80	0xbe254699	-0.16140212
81	0xbec4746c	-0.38370073
82	0x407e149c	3.970008
83	0x3e2c4952	0.16824844
84	0x3c9a53ac	0.018838726
85	0xbeab85d0	-0.33500528
86	0xbd4f15ab	-0.050557774
87	0xbe443cf2	-0.19163874
88	0x3e8968b4	0.26837695
89	0x3fa5c294	1.2950006
90	0x3df7198f	0.12065422
91	0x3cddea92	0.02708939
92	0xbfb17af0	-1.3865643
93	0xbdf1ab90	-0.11800301
94	0x3bdb794c	0.0066978093
95	0xbe091500	-0.13386917
96	0xbf100108	-0.56251574
97	0x3ee2b6ff	0.4428024
98	0x3c75df90	0.015006915
99	0x3dfeda48	0.124439776
100	0x3d1fc69c	0.039007768
101	0x3ee6af77	0.45055744
102	0xbd5c4a1a	-0.053781606
103	0x3dd82e6d	0.1055573
104	0xbd93d658	-0.07218617
105	0x3ea75cd6	0.32688016
106	0x3e59d845	0.21273907
107	0x3a5604e0	0.00081641786
108	0xbe62b197	-0.22138058
109	0xbd22745d	-0.039661754
110	0x3eb4ff90	0.3535123
111	0x3d6cda40	0.057825327
112	0x3e2bd902	0.16782
113	0x3e8a8b67	0.2705948
114	0x3de2f3ea	0.11081679
115	0x3d00e381	0.031466965
116	0x3d05d450	0.03267318
117	0xbe150c47	-0.14555465
118	0xbc39ad41	-0.011332811
119	0x3f052157	0.52004
120	0x3df217a6	0.11820917
121	0xbe3d6b90	-0.18498063
122	0x3ec9ca9d	0.39412394
123	0x3d9d1d48	0.076716006
124	0xbe047897	-0.12936626
125	0x3e176302	0.14783862
126	0x3eddfecc	0.43358457
127	0x3d0709fb	0.032968502
128	0x3d97aa0c	0.07405481
129	0xbed4a09f	-0.41528794
130	0x3e137452	0.14399841
131	0x3fdc01b5	1.7188021
132	0x3e6b807d	0.22998233
133	0x3e723b82	0.23655513
134	0x3dc58f33	0.09646454
135	0x3db4d6b9	0.088300176
136	0xbd7e794a	-0.06212739
137	0x3e894873	0.26813087
138	0x3d6923a5	0.05691876
139	0x3e81ea4b	0.25374064
140	0xbe44aec1	-0.19207288
141	0xbddbb6c1	-0.10728217
142	0x3e2a0c02	0.16606143
143	0x3e17f2e4	0.14838749
144	0xbda8bfdb	-0.082397185
145	0xbee9550d	-0.455727
146	0x402807f2	2.625485
147	0x3e88ff59	0.26757315
148	0x3cbf0e5d	0.023322279
149	0x3dc441ad	0.09582839
150	0x3c76f1fb	0.015072341
151	0xbc6ff191	-0.014644996
152	0x3e095d80	0.13414574
153	0x3f86ccb3	1.0531219
154	0x3d6f4b6b	0.058421534
155	0xbddedfe8	-0.108825505
156	0x3eca3cb3	0.39499435
157	0x3e48fcce	0.19627687
158	0x3e281729	0.16415085
159	0x3d6ba43a	0.057529666
160	0xbcf5d1e5	-0.030007312
161	0x3e99a10c	0.30005682
162	0x3d014340	0.031558275
163	0x3e31f988	0.17380345
164	0xbda6ce23	-0.08144786
165	0x3ec62515	0.38700166
166	0xbb8c3af0	-0.004279487
167	0x3e66d59e	0.22542426
168	0xbd97c371	-0.07410324
169	0x3e8b4d75	0.27207533
170	0x3c149085	0.009067659
171	0x3d4b6352	0.049655266
172	0xbd980489	-0.0742274
173	0x3e3f086e	0.1865556
174	0x3dcd4295	0.10022465
175	0x3e21bc84	0.15794569
176	0x3d0ddadc	0.03463255
177	0x3e05209a	0.13000718
178	0xbeaade36	-0.33372658
179	0xbec10c50	-0.37704706
180	0xbdf8f18e	-0.12155448
181	0xbdd56342	-0.104193226
182	0x3e4ee3fe	0.2020416
183	0x3eb488d6	0.35260648
184	0xbee16d79	-0.44028834
185	0x3db93cae	0.09044777
186	0x3ddd06f5	0.107923426
187	0xbd534f44	-0.051589265
188	0x3caabfcb	0.020843407
189	0x3e507b03	0.20359425
190	0x3f55bebb	0.83494157
191	0xbf1c4d6c	-0.61055636
192	0x3d087bf0	0.03332132
193	0xbe6898d0	-0.22714543
194	0x3e81f87f	0.253849
195	0x3fb2eeb4	1.3979096
196	0x3ed0be8c	0.40770376
197	0x3efd9ce2	0.49533755
198	0x3e24a460	0.16078329
199	0x3c8f0be4	0.017461725
200	0xbd5e2336	-0.0542328
201	0x3e774da3	0.2415071
202	0xbd8aa8ca	-0.06770475
203	0x3dc8106b	0.097687565
204	0x3d917d5b	0.07103988
205	0xbcc24bcb	-0.023717782
206	0x3c3573d3	0.011074978
207	0x3d51ee66	0.051252745
208	0x3da5b068	0.080902874
209	0xbec7f56d	-0.39054433
210	0x405ff389	3.4992392
211	0x3e85e9de	0.2615499
212	0x3e05eb24	0.1307798
213	0xbe5e765f	-0.21724842
214	0x3e24b584	0.16084868
215	0xbd14e6a4	-0.03635277
216	0x3de81bcc	0.11333427
217	0x3fa7064e	1.3048799
218	0x3d8a5492	0.06754412
219	0xbd86a0d8	-0.06573647
220	0x3ed9ce8e	0.425404
221	0x3e070568	0.13185656
222	0x3ce19e09	0.027541177
223	0xbdf2230c	-0.11823091
224	0xbd4ecb55	-0.05048688
225	0x3ed47ab3	0.41499862
226	0x3b1e3300	0.0024139285
227	0x3d0b9794	0.034080103
228	0xbdaa7965	-0.083239354
229	0x3e85a9be	0.26106066
230	0x3ddb2cfb	0.10701939
231	0x3e9f982a	0.3117078
232	0x3d068f5e	0.03285157
233	0x3e9d47fc	0.30718982
234	0x3d825134	0.063631445
235	0x3d93bb0d	0.072134115
236	0xbe2e410f	-0.17017005
237	0x3e45a2e9	0.19300427
238	0x3e99277a	0.2991293
239	0xbb561808	-0.0032668132
240	0xbdc79fc6	-0.09747271
241	0x3e0f816a	0.14014211
242	0xbec2d3e2	-0.3805228
243	0xbeb5ee04	-0.35533154
244	0x3da3e458	0.080025375
245	0xbd947d9d	-0.07250521
246	0x3d72bc1d	0.05926143
247	0x3ebda9c0	0.3704357
248	0xbe5da7dd	-0.21646066
249	0x3d44c773	0.048041772
250	0x3e2fe0e7	0.17175637
251	0xbd2b7404	-0.041858688
252	0x3df98180	0.12182903
253	0x3ec86c8c	0.39145315
254	0x3f1f3e31	0.6220427
255	0xbed1eb11	-0.40999654

l2.bias f4 [64]
0	0x3e412148	0.18860352
1	0xbe06b764	-0.13155895
2	0x3cc17748	0.023616448
3	0x3d8a58ae	0.067551956
4	0x3d759c49	0.0599635
5	0x3da1ae7c	0.078946084
6	0xbc1111f0	-0.008854374
7	0x3e015d7b	0.12633316
8	0x3d7f8960	0.06238687
9	0x3db4cea9	0.0882848
10	0xbda529a6	-0.080645844
11	0xbdf50353	-0.11963525
12	0x3e034df4	0.12822706
13	0x3dc8da9c	0.098073214
14	0xbb89a05d	-0.004200025
15	0x3c5c02d1	0.013428406
16	0x3db42d6c	0.08797726
17	0x3e379c3e	0.17930695
18	0x3dd9f44a	0.106422976
19	0x3e2d4b53	0.16923265
20	0x3dec1bfc	0.11528775
21	0xbb088b3e	-0.0020834948
22	0xbe0bb1f3	-0.13642101
23	0x3e0a0454	0.13478214
24	0x3e5acec6	0.2136794
25	0xbcd8b9f8	-0.026455864
26	0xbd4f0e24	-0.050550595
27	0x3e12b122	0.14325383
28	0xbe17863c	-0.147973
29	0x3d2dff36	0.042479716
30	0xbdfb0bec	-0.12258133
31	0xbd05ff93	-0.032714438
32	0xbda81773	-0.082075976
33	0x3b09ae80	0.002100855
34	0x3d9925a0	0.074778795
35	0x3e8257bb	0.25457558
36	0xbca71a6e	-0.020398345
37	0x3db402b4	0.08789578
38	0xbb777a37	-0.0037762055
39	0x3e289fdf	0.16467236
40	0x3cc6a31f	0.024247704
41	0xbddd44b6	-0.10804121
42	0x3df59653	0.11991563
43	0xbe410dac	-0.18852872
44	0x3e846874	0.2586094
45	0x3dec3d0d	0.11535082
46	0x3cd0c286	0.025483381
47	0x3db26dc7	0.087123446
48	0x3d9fc793	0.07801738
49	0xbd888bcf	-0.066672914
50	0xbd1d8cd6	-0.03846439
51	0xbd8d6e43	-0.069057964
52	0x3dbe7adf	0.093007796
53	0xbca9b275	-0.020714978
54	0xbd6c8049	-0.05773953
55	0x3db1a226	0.086735055
56	0x3d8c7362	0.06857945
57	0xbdda58c2	-0.106614605
58	0x3d9f5bec	0.077812046
59	0x3c5468e4	0.012964461
60	0x3dfe89ab	0.12428602
61	0xbec648ed	-0.38727513
62	0x3dfef91e	0.12449859
63	0xbd7596fb	-0.05995844

l3.weight f4 [3, 64]
0	0xbeb187e3	-0.34673986
1	0x3e8d50cd	0.2760071
2	0x3e3a5e14	0.1819995
3	0x3ec2a89f	0.38019273
4	0x3e39ccdf	0.18144558
5	0xbc55b9b7	-0.013044766
6	0x3f4ad058	0.7922416
7	0xbe280ee6	-0.16411933
8	0x3e6549cc	0.22391433
9	0x3e10b87e	0.14132878
10	0xbdf83990	-0.12120354
11	0xbd91c64e	-0.07117902
12	0xbe59e112	-0.21277264
13	0xbe90d299	-0.28285673
14	0x3e900035	0.28125158
15	0xbdbeaa34	-0.093098074
16	0xbd0eedae	-0.034894638
17	0xbccb6bca	-0.024831671
18	0xbd0e6e0f	-0.03477293
19	0x3e5c2475	0.21498282
20	0xbe0c43c9	-0.13697733
21	0x3e5a4aeb	0.21317641
22	0x40bb7877	5.858455
23	0xbe8c8ed9	-0.27452734
24	0xbe981396	-0.29702443
25	0xc0b9a97d	-5.8019395
26	0xbd1f425c	-0.038881645
27	0xbeb071b1	-0.3446174
28	0x3f7217fa	0.94567835
29	0x3cd15c61	0.025556745
30	0x3d554f6a	0.05207769
31	0x3e7e0ead	0.24810286
32	0xbde9f742	-0.11424114
33	0x3dc3ba1e	0.095569834
34	0x3d42ae32	0.047529407
35	0xbe8a6038	-0.27026534
36	0x3d85bc3e	0.06530045
37	0x3e7d6a74	0.2474764
38	0xbdb61871	-0.088913806
39	0xbe733d86	-0.23753938
40	0xbde6a351	-0.11261619
41	0x3e6e4e7e	0.2327213
42	0xbdd0c142	-0.10193111
43	0xbdbb76b6	-0.09153502
44	0xbe949927	-0.29023096
45	0xbecfda42	-0.40596205
46	0x3e191953	0.14951067
47	0x3ce9dead	0.028548563
48	0xbde4f507	-0.11179548
49	0xbe88609e	-0.26636213
50	0xc001e7f6	-2.0297828
51	0x3e7e8cf0	0.24858451
52	0xbe5d528f	-0.21613525
53	0x3e22c596	0.15895686
54	0x3e71d784	0.23617369
55	0xbe69c9c5	-0.22830875
56	0x3e79c8f8	0.2439307
57	0xbbd37f40	-0.0064543784
58	0xbdcb4e0e	-0.09926997
59	0x3e027188	0.12738621
60	0x3ecc4172	0.3989368
61	0xc0b09061	-5.5176244
62	0xbe9b803e	-0.3037128
63	0x3e937d99	0.2880676
64	0x3e3ec2fb	0.18629067
65	0x3ec9c5db	0.39408764
66	0xbd1c3d5b	-0.03814445
67	0x3e239295	0.15973885
68	0xbe408fa5	-0.18804796
69	0xbe620fde	-0.22076365
70	0xbeaa750f	-0.33292434
71	0x3eec6e81	0.46178058
72	0x3e8eede3	0.27915868
73	0xbd70a26a	-0.05874864
74	0x3d75f668	0.060049444
75	0xbd74da79	-0.059778664
76	0x3d9ad951	0.07560981
77	0x3e364bca	0.17802349
78	0xbda11995	-0.078662075
79	0x3e6a08ed	0.22854967
80	0xbe21852b	-0.15773456
81	0xbe75cd7f	-0.24004172
82	0xbeb55514	-0.35416472
83	0xbed8bd2a	-0.4233182
84	0x3e6a299a	0.22867432
85	0x3e077ca1	0.13231136
86	0xbf345ce9	-0.7045427
87	0xbf0a87b5	-0.5411332
88	0xbd629228	-0.055315167
89	0x3eae6ab8	0.34065795
90	0x3d9e0830	0.077164054
91	0xbe847c2f	-0.25875995
92	0x401c8c3f	2.44606
93	0xbe22e06e	-0.15905926
94	0xbdc56549	-0.09638459
95	0x3d5f465a	0.05451045
96	0x4088b2bf	4.2718196
97	0xbd892c52	-0.066979066
98	0xbd6ef264	-0.05833663
99	0xbeee2a6b	-0.46516737
100	0x3b1dbdc3	0.0024069406
101	0x3eb3044a	0.3496421
102	0x3ed2b3e7	0.4115288
103	0xbf064603	-0.5245058
104	0x3edc2069	0.42993477
105	0x3ea70544	0.32621205
106	0x3eb8054a	0.35941535
107	0x3d2a944f	0.041645344
108	0xbedefe18	-0.43553233
109	0xbe900569	-0.28129128
110	0xbd844964	-0.06459311
111	0xbdf48279	-0.11938948
112	0xbe5df77e	-0.21676442
113	0x3e1f15ff	0.15535735
114	0x40213a0b	2.5191677
115	0x3df43766	0.11924629
116	0x3e3baf37	0.18328558
117	0x3e9a9f27	0.3019955
118	0x3e87c145	0.2651464
119	0x3c6abbde	0.014327018
120	0xbd1a7e60	-0.037718177
121	0x3c186fb0	0.009303972
122	0xbecb7711	-0.39739278
123	0xbe0d0cbd	-0.1377439
124	0x3e288b01	0.16459276
125	0xc069ce31	-3.65321
126	0xbdc6c5ec	-0.09705719
127	0xbd36c326	-0.0446197
128	0x3e586ad2	0.21134499
129	0x3d0cc1ae	0.034364395
130	0x3dd1718e	0.10226737
131	0x3dc72a4f	0.097248666
132	0xbeaa9686	-0.33317965
133	0xbee0ccff	-0.439064
134	0x3da0f934	0.07860032
135	0x3e9c8b3a	0.3057497
136	0xbe98963c	-0.2980212
137	0x3d874548	0.06605011
138	0xbc8bf620	-0.017085135
139	0x3de0a573	0.10969057
140	0x3e974727	0.29546472
141	0xbe423512	-0.18965557
142	0xbe1448c0	-0.14480877
143	0xbe89d457	-0.26919815
144	0xbe1cbd67	-0.15306626
145	0x3bc1fee9	0.0059202802
146	0xbd80e350	-0.062933564
147	0x3e84c176	0.2592885
148	0x3ea22626	0.3166973
149	0xbefb622d	-0.4909834
150	0xbc87fd09	-0.016600149
151	0xbb71472f	-0.003681611
152	0x3e49f803	0.19723515
153	0xbdd69b93	-0.10478892
154	0x3cd2dca8	0.025739983
155	0x3e2aed3e	0.16692063
156	0x3cdd8bc7	0.02704419
157	0x3e5127df	0.20425366
158	0x40b1e433	5.5591063
159	0x3e22c67a	0.15896025
160	0xbd638983	-0.055551063
161	0xbd99a1b4	-0.075015455
162	0x3d6366cf	0.055517968
163	0xbeb041e4	-0.3442527
164	0x3c1408d1	0.009035305
165	0x3e144e57	0.1448301
166	0x3e440f19	0.19146384
167	0x3d75a7d9	0.059974525
168	0x3dae3958	0.08507031
169	0xbdb234b0	-0.087014556
170	0x3e7768d5	0.24161084
171	0xc0aeff19	-5.46864
172	0xbd31a880	-0.043373585
173	0x3e952f96	0.29137868
174	0xbd9e9948	-0.0774408
175	0x3d831a72	0.064015284
176	0x3cdc7b7e	0.026914354
177	0xbe1784b7	-0.1479672
178	0xbe00fc59	-0.12596263
179	0xbe810dea	-0.25205928
180	0xbe7cafb1	-0.24676396
181	0xbe783b60	-0.242414
182	0xbcf02764	-0.029315658
183	0xbef85ec6	-0.48509806
184	0xbe54f797	-0.20797573
185	0x3d788088	0.060669452
186	0xbd5eafa2	-0.054366715
187	0x3dea934c	0.11453876
188	0x3e806ca0	0.25082874
189	0xbee66ae6	-0.45003432
190	0x3eed0939	0.462961
191	0xbde05bcd	-0.109550096

l3.bias f4 [3]
0	0xbdb97b68	-0.09056741
1	0xbe285fa7	-0.16442738
2	0x3d829fc1	0.06378127
