examples/experiments/experiment_84/critic10_8.pth (torch, 42071 bytes, 5 tensors)

l1.weight f4 [64, 90]
00000000: a002 8a3d 1614 413b 2331 2ebd 0475 b3bd
00000010: 1b8c bd3d c8f4 febc 3455 893c 066e a13d
00000020: 0715 b8bd bcd8 543d 70df 193d 08f9 94bd
00000030: 3393 bd3d 5b46 5c3d f9c7 b33c ad6f 9dbc
00000040: cd31 83bd 09eb 16bd 8fd7 1fbd f74d be3d
00000050: f987 b2bd a549 693d 8a3a 883d 1326 be3c
00000060: ec41 82bd 83f2 67bd 5638 be3d 01f7 673d
00000070: 2324 3f3d 5e2c c6bd cdf9 9e3d b4eb 3ebd
00000080: 98fd 7dbc 61cd 4dbd 7f57 213d d2fe 26bd
00000090: adac 8c3c 24bd a8bd aca0 0dbd 94d5 7ebb
000000a0: 53c8 c2bc 4a07 b8bd 7e96 5b3d b1cc 943c
000000b0: 7ed9 243c da1d 033d be98 893d cb38 47bd
000000c0: f589 47bd 18d6 e0bb 45fb b63c 64ff acbd
000000d0: f5c8 783d 108c d1bd 9d71 d7bd 5974 83bd
000000e0: 40a9 ab3c aabb a93d dd9a 0a3c c514 433d
000000f0: c7cd 413d 4336 933d 5ccf 463d 8f5c bd3d
00000100: e284 c03d 48f0 ce3d aed4 49bd 7dae 3b3c
00000110: df1c e7bc b445 8fbc 2f95 babd f520 273d
00000120: 75d7 12bd 94ef 73bd 3129 473c 524c 813d
00000130: 4ee7 bc3d d2e6 91bc 7868 fdbc 8813 b73d
00000140: 5e1c 16bc b1c6 8439 8daa a33d 5f84 113c
00000150: 54d4 3f3c ce33 593c f0f7 483b 0153 23bd
00000160: 29ec 293d 7b6a 293d 7a9b d5be cda0 05be
00000170: fa98 3f3d 1de9 ca3e d038 883c 7f5b 12be
00000180: 8c54 87be 9f57 09bf 0ccb 13be 4642 d53e
00000190: b948 083f 680a 76be dfda 26bd dd48 163e
000001a0: 5b15 993d 820d 383e 5b1d 63bd a17b a33d
000001b0: d87c 203d 81ad ccbe 6350 6b3c dba8 ca3e
000001c0: 44b4 1bbf 0ecc 80be 6778 503e 8f76 d0ba
000001d0: b7b4 913a f098 0bbe 3fff 063f f485 9abb
000001e0: c6c3 433c 9a79 39bd b372 203d d4f7 0fbd
000001f0: 65c3 15bc 5f3f 12bd 54ec e2bd acd3 80bc
00000200: c1b8 4c3b da2b 4d3d e87a 4fbd 6f3f a8bb
00000210: d885 963d 9b90 123d e879 b93c 3970 6cba
00000220: effc d5bc 88c1 2abd fa66 59bd 0a94 06bd
00000230: c979 e3bc 42b1 a93d d577 6dbd 6308 51bd
00000240: fad9 a13d 7370 563d f338 96bd f3be 543c
00000250: 90a3 a73b 775e ce3c f3df 103f 0022 7bbe
00000260: 3d9a 253e ec34 0a3e 1168 543d 17a8 003f
00000270: 548e e43e b347 afbc c1ed 743e d001 a63e
00000280: 9011 163f b16c 1fbe 1b02 87be 6ce5 2bbe
00000290: e14d afbc 8b64 f43e 3d81 e33d dfa4 263f
000002a0: d685 fe3e 7346 933e 3b4e 143e 4789 5a3d
000002b0: cb3f 73bc 1c9a 5bbe 8700 0c3e 917b 11be
000002c0: c3dd 0d3f d598 6c3e 606a a3bd 362b 32bd
000002d0: 6582 93bc 6646 8e3e 3f35 0c3e d3fe a63e
000002e0: cf63 16be 0cfb a9bd be04 7cbc 7a44 13bd
000002f0: 9680 77bd 67c9 5e3e ff7c 12bf e01c cabd
00000300: ffb8 66be 53e6 46bd 2170 b23d e328 ef3d
00000310: cd78 91be d52c 6cbe 8895 04bf da98 433e
00000320: c6ee dcbd 242f fd3e e123 bdbd 810f 563e
00000330: 02dc 403d 26e7 88be 7773 983e 60d7 dabd
00000340: a0bb 233e 5b97 8fbd 2a03 a2bc 7a76 023e
00000350: d211 1a3b 1dc7 733d e42c 263c 3694 6bbd
00000360: f2c3 8e3c 2f1a a03b 25ad 4b3b 7458 c6bc
00000370: 3b00 14be a5b2 e33a f0ac 9a3c c375 a73c
00000380: 2b84 53bc a5f2 1d3d 314a eb3c 6857 11be
00000390: 09e0 0c3a 5654 dc3d 427f b7bd 29fd a03d
000003a0: d9ba 08bd d8ec 1c3d b512 a23d 30f7 65bd
000003b0: c0a5 af3c 992d 153d be3c 1cbd b255 413c
000003c0: a474 d23d 8987 7ebd 46f5 6c3e 5fc5 e3bd
000003d0: b0ba 20be 7734 e93e 073a 25be 4d31 52be
000003e0: ce13 c0be 4a65 4e3e bd5d 18be ddc5 27be
000003f0: 2b3e 3abd 7364 b3be 542e dc3d 97b2 66be
0.06738782 0.0029461435 -0.04252733 -0.08762553 0.092552386 -0.03112258 0.01676426 0.078823134
-0.08988386 0.051964507 0.037566602 -0.072740614 0.09256592 0.053778034 0.02194594 -0.01921829
-0.06405983 -0.03684524 -0.039023932 0.09292214 -0.08717341 0.056955 0.066517904 0.023211515
-0.0636023 -0.05662776 0.09288089 0.056632046 0.046665322 -0.09676431 0.077624895 -0.046611503
-0.015502356 -0.050244693 0.039390083 -0.04077036 0.017172182 -0.08239201 -0.034577057 -0.0038884627
-0.023777163 -0.08985765 0.053610317 0.01816401 0.01006162 0.03201089 0.067185864 -0.048638146
-0.04871555 -0.0068614595 0.022336612 -0.084471494 0.060738523 -0.10231793 -0.10519717 -0.06418676
0.020954728 0.08287747 0.008459774 0.04762723 0.047315385 0.07188084 0.048537597 0.0924617
0.094003454 0.10104424 -0.049275093 0.0114551755 -0.028212009 -0.017489292 -0.09110486 0.040802915
-0.035850007 -0.05955465 0.012155817 0.06313385 0.09223805 -0.017810259 -0.030933604 0.08939272
-0.009162037 0.0002532504 0.07991514 0.008881657 0.011708338 0.01325698 0.003066536 -0.03987408
0.041484986 0.041361313 -0.41720182 -0.13049622 0.04677675 0.39630976 0.016628653 -0.14292715
-0.26431692 -0.53649324 -0.14432925 0.41652125 0.53235966 -0.24027407 -0.040736075 0.14676233
0.07474776 0.17973903 -0.055447917 0.07982565 0.03918156 -0.39976123 0.014362427 0.39581951
-0.6082194 -0.2515568 0.2035843 -0.0015904474 0.0011116479 -0.1363256 0.52733225 -0.0047156755
0.0119485315 -0.045281984 0.039171886 -0.035148457 -0.009140824 -0.035704967 -0.11080232 -0.015725933
0.0031238052 0.05009065 -0.050654322 -0.005134515 0.073497474 0.035782438 0.022641137 -0.0009019408
-0.026121585 -0.041688472 -0.05307672 -0.032856025 -0.027768033 0.08285762 -0.05797561 -0.05103339
0.07902904 0.052353334 -0.07335081 0.012984979 0.0051159337 0.025191529 0.5659172 -0.24524689
0.16172118 0.1349675 0.051857058 0.50256485 0.44639838 -0.021396494 0.23918821 0.32423258
0.5862055 -0.15568806 -0.26368794 -0.16786736 -0.02139944 0.47732958 0.111086346 0.65095323
0.49711484 0.28764686 0.14482968 0.053353574 -0.014846752 -0.21445507 0.13672076 -0.14207293
0.55416507 0.23105176 -0.07979274 -0.04349824 -0.018006513 0.27788085 0.13692187 0.3261629
-0.14686511 -0.082998365 -0.01538199 -0.035953976 -0.060425363 0.21756516 -0.5722198 -0.09868789
-0.22531508 -0.048559498 0.08712793 0.116777204 -0.28412476 -0.23063977 -0.51790667 0.19101277
-0.1078773 0.49450028 -0.09235359 0.20904352 0.047084816 -0.26738852 0.29775593 -0.10685611
0.15989542 -0.07011291 -0.0197769 0.12740508 0.0023509157 0.05951606 0.010142539 -0.05751439
0.017427418 0.004885934 0.0031078544 -0.0242121 -0.14453213 0.0017371966 0.018881291 0.020441895
-0.012909929 0.038561482 0.0287219 -0.14193499 0.000537396 0.10758273 -0.089598194 0.078607865
-0.033381317 0.03831181 0.07913724 -0.05614394 0.02144134 0.03642044 -0.038143866 0.0118002165
0.10276154 -0.062140975 0.2314044 -0.1112163 -0.15696216 0.4554784 -0.16135417 -0.2052662
-0.3751511 0.20155826 -0.14879508 -0.16384073 -0.045469444 -0.35037574 0.10751024 -0.22529064

l1.bias f4 [64]
00000000: ddca 64bd d4a9 55bd 8de9 a33c dbb2 003e
00000010: 42f2 2bbd 6527 bc3d 1655 1a3e b81d 833c
00000020: 644a 4d3d c0d2 b83d f732 2fbd 0307 afbd
00000030: 16a5 d33d 0116 a13d aa92 f6bc 0edc ba3d
00000040: ed12 afbd f9fe 94bd 784e 43bd f280 ed3d
00000050: 6235 f63c 5d49 4ebd d931 c53d 912b ddbd
00000060: 4dec 503c 8c0c e93d 6a8b babb cc7e 1f3d
00000070: abe7 b13d b119 9e3d 354b cebc 1047 c7bd
00000080: 8df4 703d d086 28bd 8528 393a 75b1 c0bb
00000090: dfaa 8a3d 992c 373d f024 133e cf8e 8e3d
000000a0: eaba e23d 81e7 88bc a609 e7ba 8006 d73d
000000b0: 7de6 0e3e 6c41 c03d dc97 aa3c 8b45 e6bd
000000c0: 0598 cdbd 7d50 3fbd 67b9 5e3c dab1 cbbd
000000d0: a8f6 0b3c 498e 2c3d 50ca 7abc e643 403d
000000e0: 9c82 0c3e a8f5 1d3e 29aa 83bd 45a8 e53c
000000f0: a962 8a3d ff67 303e 15b4 e63d eefa 363d
-0.055857528 -0.052163914 0.020008827 0.12568228 -0.041979082 0.091872014 0.1507152 0.016005382
0.050119773 0.09024572 -0.042773213 -0.08546259 0.10334222 0.07865525 -0.030099232 0.09124003
-0.08548532 -0.07275195 -0.047682256 0.1159686 0.030054752 -0.050362933 0.09628648 -0.10799325
0.012751651 0.11379346 -0.005692889 0.038939282 0.08686765 0.07719744 -0.025182346 -0.09730351
0.05882697 -0.041144192 0.0007063228 -0.0058805295 0.06770872 0.044720266 0.1436956 0.06960832
0.11070807 -0.016711952 -0.0017626777 0.10499287 0.13955112 0.09387478 0.020824365 -0.11243733
-0.10038761 -0.04670762 0.013594008 -0.09946032 0.008542694 0.04212788 -0.015307024 0.046939753
0.13721699 0.15425742 -0.0642894 0.028034339 0.06757099 0.17227171 0.11264817 0.0446729

l2.weight f4 [64, 64]
00000000: 80a2 1bbb 9620 b13e ac69 3b3e 82a1 af3d
00000010: 7eb3 86be 86e9 ca3d 61e5 a33d a174 373d
00000020: a03d 173e 01ac b53d b9d2 813e 2d26 0c3f
00000030: 630f fb3d a9f6 3f3e d434 84be c1db 4439
00000040: d754 733e fc81 11bf c30d 123d 015c 673e
00000050: 6809 ffbd 1780 56bd 2962 843e 6cd8 093e
00000060: 2f09 b83e 85c4 213e cf31 9cbd ac49 793e
00000070: f4a8 1c3e dc8c 013c f1e7 1b3c b04f f63d
00000080: c237 eb3d ddcf cabb db82 333e 77dc 12bf
00000090: 3c72 aabc a327 1a3d ee2e fd3d 5633 283e
000000a0: a413 ea3d 86c2 47bf 8cef 9fbe 62f7 8d3e
000000b0: 60a6 4d3e 0b47 973e 1870 573e 0a9f ea3d
000000c0: 0880 833c 92e1 d43e 06b1 5cbf 1ea8 a03d
000000d0: 05ff 98be f618 223e db4d 153d 2013 873e
000000e0: 539b 593e 144c 8e3e 36ed b8bd 25a7 ecbd
000000f0: adad a43e 770e c0bd f3f3 103e d119 403e
00000100: d8e1 a2bc 562c c43e 142b b63c 5747 28be
00000110: 0bf1 d63e e9f6 43bf 2168 f2be cc68 cb3d
00000120: b00e cdbe 6b1d bfbe d02e 2f3e 13cb 60bf
00000130: 1948 4d3e 85ae 843e 3a17 9a3c f916 c43c
00000140: e307 243f 7797 2ebf ee1f edbb afc3 893d
00000150: 3df3 ed3d 9a6c 933f 98ca d63e 365f cbbc
00000160: d258 81be 4853 23bd 0ce5 b13d d0bb 77be
00000170: 86eb 453e 5efb 143e 6496 ad3e e81a c63d
00000180: 1975 19be e4ab e2bc 9fb4 10bd e52a 8a3e
00000190: ac0e 183d 2bc6 5a3e 982e 8dbe eb4e 843a
000001a0: d6cb 283e 6ead acbe f347 6e3f 46b5 113e
000001b0: db71 5d3e 539d c33c 267c 15bb 0a4b 79bd
000001c0: 300a 77bd 0850 8bbf c6d2 e43d adcf 7bbd
000001d0: cb59 9abf 2fb8 6f3b 74bf 403f 601d 7dbe
000001e0: bee0 9dbc 4f4e ddbd 5102 643c 92a7 ed3d
000001f0: b870 52be 1095 febe 0180 be3c 5daf f53d
00000200: 2824 0dbd efb2 843d 43a7 a13d eeb6 37bc
00000210: 523e 933c 22c2 c9ba 8d7d e7bd 1743 cdbd
00000220: d265 463d 181a e73c 7fe2 13be 6a68 9d3d
00000230: 200d eabc 19c3 fcbd 59b6 98bb 5572 e53c
00000240: 19f0 05bc 546a 06be d201 e53d 0010 6a3d
00000250: 42b5 9d3d 40f0 8f3c db29 abbd 08a4 35bd
00000260: cdbc 3fbd 6f29 8f3c 0473 b83d 40f3 0fbe
00000270: 9d18 1bbc 79ec c2bd 72c1 273c 4063 fa3d
00000280: 1421 a9bd 678f 8f3d bbbb a63d 1c72 333d
00000290: 62fa 193d 37c2 9d3c 2418 3d3b 4ed8 babd
000002a0: b4a1 77ba c84f f4bd 8da7 ca3b acc4 89bd
000002b0: 4718 c3bd 5e3c 9fbd 0f6a b23d a0f6 6abc
000002c0: c4ac 71bd b014 e43d b21e 143d 10c9 33bc
000002d0: e460 9e3d 2be6 edba f3a5 23bd 4f21 f93c
000002e0: 474b 76bd 7f91 cb3c b0ff edbd 3ed1 bc3d
000002f0: afbc e3bc 1f37 7cbd ce24 1cbd 6e0a 803d
00000300: e061 e83b 57e0 fd3f 808d 0f3f b5df 1e3b
00000310: 837d 23c0 83ca 1d3f 0aa3 313e 2fee 6abe
00000320: 61b7 803e b60f 8c3e e447 ed3e 72e5 583e
00000330: 099e c2bd b93f 863e 8522 b4bf 0d15 3e3e
00000340: 5275 273e f2d2 863f 6abf f43c 3450 6e3d
00000350: 15ae c43d df55 e2bf ba8b 74bc 09ba 5dbd
00000360: 258f db3e 34a2 e73d 733f 98bf 3dac 6c3e
00000370: d315 b43e bb5e 013e 7636 84bf b014 653c
00000380: 186a c73e 01b2 c8bf 6870 cb3e d4ea 37c0
00000390: ee11 47bf 0cc5 b43e 75d1 78be b497 42be
000003a0: 01a2 94bc d851 adbf a42d 45c0 ab53 94bb
000003b0: 7a16 1d3e 8ca5 eb3d 6453 b7bd 6ce2 f63d
000003c0: 2057 273d 133d 333f 99da 44c0 7034 22bd
000003d0: 5e5a aa3e efbd 5dbe e6f6 f7bf 1ad3 77be
000003e0: 93a1 c5b9 d85c 393e 1b03 16bf fc30 47bf
000003f0: e3e2 a1be 0da2 003e 533c 273f f0fe 0f3e
-0.002374798 0.34595174 0.1830203 0.08575727 -0.26308817 0.09907822 0.08002735 0.04478896
0.14769602 0.08870698 0.2535608 0.5474575 0.12258794 0.18746437 -0.25821555 0.00018773881
0.23762833 -0.56838965 0.035657655 0.2259369 -0.12452966 -0.05236825 0.2585614 0.13461465
0.35944507 0.15797623 -0.07626688 0.2434451 0.15298826 0.007907119 0.009515748 0.12026918
0.11485244 -0.00618933 0.17530386 -0.5736765 -0.020806424 0.037635457 0.12362467 0.16425833
0.114295274 -0.78031194 -0.31237447 0.277278 0.20082998 0.2954639 0.21038854 0.114561155
0.016052261 0.41578346 -0.86207616 0.07844566 -0.29882064 0.15829834 0.036451202 0.2638178
0.21250658 0.27792418 -0.090296194 -0.11555318 0.32163754 -0.09377759 0.14155559 0.18759848
-0.019883081 0.38315076 0.022237338 -0.16433464 0.41980776 -0.7654863 -0.4734507 0.09932098
-0.40050268 -0.37327132 0.17107701 -0.87809867 0.20047034 0.25914398 0.018809903 0.023936735
0.64074534 -0.68199867 -0.0072364723 0.06726777 0.1161866 1.1517518 0.41951442 -0.024825674
-0.25263077 -0.039874345 0.08686265 -0.24192739 0.19328126 0.14549014 0.339038 0.09673101
-0.14986075 -0.027669854 -0.035328504 0.2698585 0.037123367 0.21364658 -0.2757461 0.001009432
0.16484007 -0.33726066 0.93078536 0.14229307 0.21625464 0.023878729 -0.0022809594 -0.06086258
-0.06031245 -1.0883799 0.11173014 -0.061477352 -1.2058653 0.0036578288 0.75292134 -0.24718237
-0.019272204 -0.10805952 0.013916568 0.11604227 -0.20550811 -0.497231 0.023254396 0.119963385
-0.03445831 0.064794414 0.07893231 -0.011213047 0.017974053 -0.0015392939 -0.11303244 -0.10022562
0.048436947 0.028210685 -0.1444187 0.07685931 -0.028570712 -0.123418994 -0.0046604094 0.02800862
-0.0081749195 -0.13126498 0.11181988 0.057144165 0.07700588 0.017570615 -0.08357593 -0.044345886
-0.046810914 0.017475812 0.090063125 -0.14057636 -0.0094663175 -0.0951776 0.010238992 0.12225962
-0.08258262 0.07009774 0.081412755 0.043809995 0.0375923 0.019257648 0.00288535 -0.09123288
-0.0009446398 -0.119292796 0.0061845244 -0.06726965 -0.09526115 -0.07775186 0.08711635 -0.014341027
-0.059002653 0.11136758 0.036162086 -0.01097323 0.07733324 -0.001815026 -0.039953183 0.03041139
-0.060130384 0.024849651 -0.11621034 0.09219597 -0.027799932 -0.061576005 -0.038121037 0.06251989
0.0070917457 1.9834088 0.56075287 0.0024242227 -2.5545356 0.61637133 0.1734735 -0.22942422
0.25139907 0.27355736 0.4634391 0.21181276 -0.09502799 0.26220492 -1.4073035 0.18562718
0.16353348 1.0533125 0.02987643 0.058181956 0.09603516 -1.7682456 -0.0149258915 -0.054132495
0.42882648 0.11310235 -1.1894363 0.23112579 0.351729 0.12633793 -1.032912 0.013981983
0.3894813 -1.5679322 0.39734197 -2.8737078 -0.77761734 0.35306585 -0.24298652 -0.19003183
-0.018143656 -1.3540602 -3.0809107 -0.0045265756 0.15340605 0.11506185 -0.089514524 0.12054905
0.040854573 0.70015067 -3.0758421 -0.03960079 0.3327207 -0.21654485 -1.9372222 -0.24201623
-0.0003769515 0.18101823 -0.5859849 -0.7780912 -0.31618413 0.12561817 0.6532642 0.14062095

l2.bias f4 [64]
00000000: 7c6c 083e 91a1 1fbc 40da edbd 5d38 f43c
00000010: 4ee5 8a3d bdac bc3d 1ca6 623e 69b0 51be
00000020: 769b 063e f03a 34be c74f 253e fe1a 243e
00000030: c47c a7bd cd0d 6c3c b20a dfbd 327b e0bc
00000040: ef7a 243e 5e05 11be 6baa 04be 1695 e73d
00000050: 8d3c 8ebd a5d7 0b3e 9ef3 133e e8c4 2c3c
00000060: d900 0ebe 7295 ce3d 57a3 1fbe 3dee f63d
00000070: 71e7 913d 6aa1 9dbd 0ae2 683e cd57 403e
00000080: 8c4b 94bd 42a5 a83d 689b 053e 3aaf 0c3e
00000090: 9b07 913d 92a9 d63d 7d90 eebc ab43 fd3d
000000a0: 78a9 e73c ac7b ddba 5be6 0f3e d6b6 08be
000000b0: 00b9 ecbd c976 33be 6876 513e 5666 213e
000000c0: cb40 86bb cd6d 2f3b af0b 143e c80a c6ba
000000d0: 6b6f 2c3e 8724 283d 82bd 03bd d384 913c
000000e0: 64ec 18bd 2376 083e b3b6 67bc 2a70 e0bd
000000f0: 8bf3 f53d 8665 0b3e 48e7 cebd 9aee 32bd
0.13322634 -0.00974311 -0.116138935 0.029812032 0.06782018 0.09212635 0.22133678 -0.20477451
0.13145241 -0.17600608 0.16143714 0.16025922 -0.08178094 0.014407587 -0.10890712 -0.027402494
0.1606252 -0.14162204 -0.12955634 0.11307733 -0.06945143 0.1365648 0.14448401 0.010544993
-0.13867511 0.10087098 -0.15589653 0.12057159 0.07124222 -0.07696803 0.22742477 0.18783493
-0.07240972 0.082346454 0.13047564 0.13738719 0.07081529 0.10481562 -0.029121632 0.12366422
0.028279051 -0.0016897819 0.14052717 -0.13350996 -0.115587234 -0.17525782 0.20455325 0.15761694
-0.0040970794 0.0026768327 0.14457582 -0.0015109414 0.16839378 0.04105046 -0.03216315 0.01776353
-0.037334815 0.13326316 -0.01414268 -0.109588936 0.12009343 0.13612947 -0.10102707 -0.04368458

l3.weight f4 [1, 64]
00000000: 16ba b03e 9500 b8bf 41b4 6ebd dec8 8940
00000010: f43e 08c0 1ce9 d53e 8f57 6c3e ab44 1040
00000020: f4d4 5f3e 0ed9 b1bf ad32 923e f68a a63e
00000030: c0b5 4c40 4990 0fc0 79cd a2bc d554 d940
00000040: 57cb a73e f5c7 8a3d 3cfc 4140 b5d4 9d3e
00000050: caeb 163c c487 f9bf 1063 753e 8475 c0bf
00000060: 47d1 b0bb 47ac d1bf d87c 9ebf b1c3 d9bf
00000070: 7cfd 933e e5cd e5bf 0fe1 8e3e 440d 3d3e
00000080: 0a81 9abd 6b4e c0bf 7f81 10c0 cfd0 ca3e
00000090: 2700 f4bf 166b 473e f069 c0bf 40cf 9a3e
000000a0: a68d adbf daa1 ebbf d2b2 9f3e a792 0e3c
000000b0: a1bd cabd 6ba0 0f40 1c21 463e 2ac6 96bf
000000c0: ebca 7140 c177 6840 265e ae3e 7edd 3a40
000000d0: 5f45 6c3e ed44 d2bf 3454 b2bf fa40 1040
000000e0: 953e dfbf 9471 6a3e 31a2 19c0 ad21 c3bf
000000f0: 9d35 ab3e c69e a83e 1c6b 2e40 e819 95bf
0.34516972 -1.4375178 -0.058277372 4.30577 -2.1288424 0.4177941 0.23080276 2.2541912
0.21858579 -1.3894365 0.28554288 0.32527894 3.1985931 -2.2431815 -0.019873368 6.7916055
0.32772323 0.0677642 3.0310202 0.30826345 0.00921149 -1.9494557 0.2396357 -1.5035863
-0.0053960416 -1.63807 -1.2381849 -1.7012845 0.2890433 -1.7953459 0.2790608 0.18462092
-0.075441435 -1.5023931 -2.2579038 0.39612433 -1.9062546 0.19474444 -1.503233 0.30236244
-1.3558853 -1.8408768 0.31191117 0.008701957 -0.0989945 2.2441661 0.19348568 -1.1779225
3.7780101 3.6323092 0.34056205 2.9197688 0.23073338 -1.6427284 -1.3931947 2.2539659
-1.7440974 0.22894889 -2.4005244 -1.5244652 0.3343934 0.32933635 2.7252874 -1.1648531
