examples/experiments/experiment_84/critic10_0.pth (torch, 42071 bytes, 5 tensors)

l1.weight f4 [64, 90]
-1.0384271 -0.10508179 -0.025950419 -0.09112836 -0.023579285 0.13214086 -0.07019222 -0.029522283
-0.12887074 0.107828446 0.17299856 -0.092871696 0.17988954 -0.08727091 -0.01865939 0.009776085
-0.11540855 -0.03137235 -0.047020476 0.029320113 0.08796358 0.15487048 -0.018607955 0.020273963
0.049834643 0.26895204 0.036535215 0.11750056 0.13660656 0.10575962 -0.047565985 -0.056045733
0.033546586 -0.08500843 0.0534907 0.012085196 -0.053517275 -0.12019714 0.007434008 0.06932324
0.009055395 -0.02526745 -0.048172828 -0.449051 -0.054533128 -0.023177946 0.026089944 -0.08627503
0.20944427 0.113721676 -0.03235587 0.11106832 0.03142426 -0.04237659 -0.049725708 0.05148266
-0.11306387 -0.117545314 0.01743188 -0.18702726 -0.8367538 0.3378865 0.08276349 0.2799369
-0.40470207 0.6060147 0.38396448 0.13877738 0.4330955 -0.019670047 -1.0576034 -1.141775
0.07740053 1.0759348 -0.4782675 -0.39969757 -0.48027876 0.12270914 -1.0005361 0.06716312
-0.053952225 -0.14679506 -0.29218063 0.15683617 0.80758643 -0.7464739 -0.24280104 0.39668408
-0.26529992 0.6055096 0.83653927 -0.6790129 0.3655791 -0.15390356 -0.51922077 -0.2326547
-0.48291934 0.08369616 -0.006992435 0.21506818 -0.002456685 -0.024981178 0.04908418 0.30164012
0.06137933 0.41949335 0.123903655 -0.021569263 -1.1177692 0.27458677 -0.22883478 -0.29548267
0.025821008 -0.1075739 -0.12324235 0.044499896 0.007909665 0.2946701 0.4262462 0.28206837
0.05838522 -0.14981113 -0.14682269 -0.29448918 -0.0070733894 0.18132956 -0.07097544 0.0897019
-0.07106072 -0.03161047 0.26513958 0.12576863 0.03576923 0.09150377 -0.103063814 -0.04134218
0.065289766 0.13639233 0.1757013 0.10324086 0.041424662 0.152213 0.18392338 -0.06315733
-0.08462134 -0.15555291 0.09333695 0.1097192 -0.06008567 0.19292189 0.90395594 0.5024852
-0.27257428 -0.052473526 -0.33888355 -0.12524512 0.0043385047 -0.38675722 -0.16901095 -0.10119682
-0.10376618 -0.47119007 0.3819192 -0.43121535 -0.015507789 -0.8474197 0.001595982 0.20990887
-1.0478984 0.45608872 -0.46978748 -0.9721238 -0.6089579 -0.58734727 0.3826105 0.893399
-0.5270394 0.17721887 0.08721131 -0.43469158 0.42495117 0.5239367 -0.123370044 -0.33174372
-0.06594444 0.15819468 -0.035483334 0.3967751 -0.10191931 0.31229004 -0.38670367 0.0597065
-0.13187397 0.12749761 -0.12982424 0.12294414 0.48927888 0.015588313 -0.16676378 0.5166196
-0.053150717 0.18147226 -0.17040193 -0.03159677 -0.11218744 0.14385742 -0.3047732 0.50925344
0.09704995 -0.008607153 0.023990635 0.08030554 -0.04754933 0.014358803 0.08524753 0.16021886
0.08186969 0.0068045245 -0.012649547 0.027896456 -0.077772826 -0.00023703676 0.05754032 -0.2567933
-0.10716639 -0.028013816 -0.037752837 0.060325764 -0.06710303 -0.004443592 0.10133597 0.0507894
-0.14377865 0.102463044 -0.10893354 -0.22686967 0.023801353 -0.16173407 0.19335568 0.053236622
0.7461219 0.4908582 0.21070017 0.10836271 -0.28086966 -0.648074 0.35080382 0.13767622
-0.22564098 -0.97533286 -0.22955342 -0.9075811 -0.077754974 0.30657956 -0.6655354 -0.74012446
00000000: 2eeb 84bf 1f35 d7bd f995 d4bc 81a1 babd
00000010: 5829 c1bc ef4f 073e f0c0 8fbd b7d8 f1bc
00000020: b1f6 03be 29d5 dc3d 8926 313e 8433 bebd
00000030: f734 383e 17bb b2bd 94db 98bc df2b 203c
00000040: 515b ecbd 4b80 00bd 8b98 40bd bc30 f03c
00000050: 4026 b43d 5e96 1e3e b66f 98bc 9515 a63c
00000060: 691f 4c3d 15b4 893e f3a5 153d 22a4 f03d
00000070: 97e2 0b3e 8098 d83d 8dd4 42bd 3690 65bd
00000080: 2568 093d e618 aebd 1019 5b3d fc00 463c
00000090: ee34 5bbd eb29 f6bd fb98 f33b 58f9 8d3d
000000a0: 145d 143c affd cebc df50 45bd 03ea e5be
000000b0: 215e 5fbd addf bdbc 94ba d53c f7b0 b0bd
000000c0: 8f78 563e e9e6 e83d 9787 04bd ca77 e33d
000000d0: bab6 003d 1393 2dbd 2fad 4bbd 7bdf 523d
000000e0: 088e e7bd 99bb f0bd 4dcd 8e3c 1384 3fbe
000000f0: 7f35 56bf 76ff ac3e e87f a93d e453 8f3e
00000100: 1c35 cfbe c823 1b3f fe96 c43e a81b 0e3e
00000110: b2be dd3e 1423 a1bc 8c5f 87bf af25 92bf
00000120: 2b84 9e3d 3bb8 893f 7adf f4be 29a5 ccbe
00000130: 19e7 f5be ee4e fb3d 9111 80bf d18c 893d
00000140: 02fd 5cbd 7251 16be b398 95be a999 203e
00000150: fcbd 4e3f ea18 3fbf d6a0 78be 2d1a cb3e
00000160: 64d5 87be ad02 1b3f 7027 563f cad3 2dbf
00000170: 2f2d bb3e e598 1dbe a7eb 04bf 093d 6ebe
00000180: 3441 f7be e468 ab3d cc20 e5bb d53a 5c3e
00000190: 5600 21bb 54a5 ccbc 7e0c 493d 9370 9a3e
000001a0: e468 7b3d d5c7 d63e 33c1 fd3d 06b2 b0bc
000001b0: 1013 8fbf a396 8c3e aa53 6abe 8149 97be
000001c0: 9486 d33c b44f dcbd 7c66 fcbd 8645 363d
000001d0: 8a97 013c 00df 963e f13c da3e 446b 903e
000001e0: 5725 6f3d 1768 19be b058 16be 49c7 96be
000001f0: e4c7 e7bb 75ae 393e 925b 91bd a1b5 b73d
00000200: 4888 91bd fb79 01bd 60c0 873e 7ec9 003e
00000210: c282 123d 5466 bb3d 1f13 d3bd 6b56 29bd
00000220: a4b6 853d 6eaa 0b3e 0beb 333e f26f d33d
00000230: e8ac 293d badd 1b3e 6956 3c3e a158 81bd
00000240: f44d adbd 4349 1fbe 7127 bf3d 76b4 e03d
00000250: 641c 76bd 518d 453e a869 673f dfa2 003f
00000260: db8e 8bbe 7bee 56bd 2582 adbe 4240 00be
00000270: 042a 8e3b 0b05 c6be 3511 2dbe 4740 cfbd
00000280: 5d83 d4bd d33f f1be ea8a c33e 42c8 dcbe
00000290: 6214 7ebc 7ff0 58bf 4530 d13a 5af2 563e
000002a0: 8921 86bf 7684 e93e fc87 f0be 1bdd 78bf
000002b0: aae4 1bbf 645c 16bf 86e5 c33e ccb5 643f
000002c0: 0eec 06bf dd78 353e d89b b23d e58f debe
000002d0: 3393 d93e b720 063f 6fa9 fcbd 50da a9be
000002e0: e10d 87bd c9fd 213e f956 11bd 1b26 cb3e
000002f0: 12bb d0bd 7be4 9f3e 06fe c5be ce8e 743d
00000300: f809 07be bc8e 023e a5f0 04be 23ca fb3d
00000310: c382 fa3e 2066 7f3c 20c4 2abe 2f41 043f
00000320: 91b4 59bd ddd3 393e d87d 2ebe 9d6b 01bd
00000330: 87c2 e5bd 5c4f 133e 3c0b 9cbe 6f5e 023f
00000340: 20c2 c63d 0405 0dbc 0288 c43c 3b77 a43d
00000350: 16c3 42bd 2f41 6b3c 4296 ae3d 6a10 243e
00000360: 4cab a73d 7df8 de3b 0c40 4fbc 1c87 e43c
00000370: 5c47 9fbd 128d 78b9 66af 6b3d 697a 83be
00000380: 0d7a dbbd 3b7d e5bc b8a2 1abd 2618 773d
00000390: 506d 89bd 8d9b 91bb 3c89 cf3d 8c08 503d
000003a0: b63a 13be 25d8 d13d 8c18 dfbd 8650 68be
000003b0: 0efb c23c 9e9d 25be 08ff 453e a50e 5a3d
000003c0: d801 3f3f c451 fb3e c9c1 573e 45ed dd3d
000003d0: 26ce 8fbe 2de8 25bf 8f9c b33e fffa 0c3e
000003e0: 6e0e 67be 6aaf 79bf 0d10 6bbe 3c57 68bf
000003f0: 003e 9fbd fff7 9c3e 8760 2abf cc78 3dbf

l1.bias f4 [64]
0.04344607 0.121417195 0.12801296 0.0226986 0.04926241 -0.007884555 0.10933313 0.07121753
0.0038088276 0.15784588 -0.06890663 0.046525083 -0.099893846 0.11523815 -0.028030505 -0.023710271
0.021296931 -0.013352255 -0.09640522 -0.0632318 -0.025706679 0.104435936 0.091542915 0.0024188126
0.04203376 0.10279645 0.091012724 0.06862141 0.05702527 -0.13466598 -0.10404416 -0.11113277
-0.016789064 0.09405354 0.13356891 -0.018262513 0.13406721 0.07631918 -0.016510759 0.031656083
0.016636912 -0.051233254 0.053899262 0.1131454 -0.11218116 0.14286405 -0.09991846 -0.0028059417
0.021284604 -0.017326508 -0.0027051065 0.116932236 -0.13473712 -0.04721713 -0.068100885 0.15162422
-0.023509163 -0.006041126 -0.09583917 0.02980319 0.017103005 0.15468213 0.064973176 0.019659173
00000000: 82f4 313d 94a9 f83d d415 033e 6af2 b93c
00000010: 61c7 493d 382e 01bc 0cea df3d 7fda 913d
00000020: 869d 793b 5aa2 213e eb1e 8dbd 1691 3e3d
00000030: 2595 ccbd fb01 ec3d 3ba0 e5bc 0b3c c2bc
00000040: e776 ae3c 6bc3 5abc 1a70 c5bd ad7f 81bd
00000050: d096 d2bc 82e2 d53d da7a bb3d f184 1e3b
00000060: 982b 2c3d f286 d23d e164 ba3d 6289 8c3d
00000070: 5493 693d e1e5 09be 1b15 d5bd 9499 e3bd
00000080: 3889 89bc 249f c03d 4ac6 083e 449b 95bc
00000090: ea48 093e 3b4d 9c3d 9241 87bc cfa9 013d
000000a0: 224a 883c f6d9 51bd 79c5 5c3d c7b8 e73d
000000b0: 3cbf e5bd f44a 123e 0da2 ccbd e4e3 37bb
000000c0: 0d5d ae3c 52f0 8dbc 2848 31bb 2b7a ef3d
000000d0: 87f8 09be c066 41bd 7a78 8bbd 6143 1b3e
000000e0: 4a96 c0bc a3f4 c5bb 5447 c4bd d225 f43c
000000f0: 9a1b 8c3c fe64 1e3e a810 853d 460c a13c

l2.weight f4 [64, 64]
0.2774506 -0.09657402 0.101681076 -0.113894075 -0.12592435 -0.34582108 0.006885976 0.12724668
-0.061842076 0.37778446 0.43984362 -0.56631637 -0.0058724433 -0.45370504 -0.11141303 0.21299285
0.19994661 -0.18732598 0.09426318 0.25635967 0.61644024 -0.3321655 -0.09795249 0.0856516
-0.02077516 -0.2556231 -0.32077646 0.08836609 -0.57745266 1.0923605 0.08188854 -0.04098099
0.22572981 -0.58277875 0.28586176 0.755305 0.24822803 0.2585387 0.5229567 -0.19066593
-0.2064957 -0.5328014 -0.3554853 -0.28485465 1.0144099 -0.04456276 -0.113576084 -0.8984658
0.20668577 -0.05458507 0.3608149 0.24346416 0.33854178 -0.25976768 0.835638 -0.24042386
-0.40553358 -0.102325834 0.10708937 -0.31927747 0.39816937 0.13640514 -0.10329775 0.21160184
0.0613523 0.16748384 0.1326257 0.08576663 0.066333026 -0.38810694 -0.062509716 -0.64936674
-0.13133276 0.08574267 -0.37683907 0.095967814 0.030709252 0.018916445 -0.213267 -0.27029413
0.047681198 0.17304075 -0.0018309653 -0.6574432 -0.6136344 -0.04224567 0.431363 -0.11417253
0.098407 0.32880443 0.20557311 0.25163484 0.4138973 0.7386819 0.027660355 0.09091625
-0.071897395 -0.189738 0.22814828 0.47517547 -0.09855321 0.04344633 0.37033546 -0.123431735
-0.42437005 -0.25795722 -0.06158984 0.19838037 0.5032765 0.24472661 -0.07534467 -0.06110648
0.025006684 0.16888236 -0.9358318 -0.21791475 -2.0085247 -1.355389 -0.074992254 0.21099816
-1.0721189 -2.830848 -0.01771836 -0.07590802 0.17149404 -0.18733843 -0.37234673 0.015531933
0.32856295 0.16439341 0.08100868 0.29241306 0.18775927 -2.1929467 0.06331098 0.06118677
0.10471328 -0.122226015 -0.2671033 -0.6717858 0.10712649 -0.022533132 -1.6923939 -0.7922546
0.017986583 -0.24524516 -0.09432238 -1.1532377 -2.2030783 0.40674624 0.36057654 -0.7448594
0.22036631 0.044171512 0.24945278 0.044962186 -0.36963493 1.2695894 -0.0869073 -0.042640187
0.22357623 -0.41753134 -0.027482733 -0.4685061 -0.14320703 -0.23327602 0.1601578 -0.56704414
-0.36041746 -0.46687272 -0.4511703 0.16370001 0.16146915 -0.002354495 -0.09438063 -0.6685435
0.33951014 0.3202854 -1.61883 -0.038709287 -3.6548874 -0.60441387 -0.1445691 -0.06932787
-1.6087574 -2.4407947 -0.013604134 -0.6087001 -0.07486218 0.025326867 -0.34164768 -0.12584154
-0.08448855 -0.0131157795 -0.069475986 -0.07882386 -0.0458639 0.07035827 0.029099522 0.018024713
0.039828595 -0.08883166 -0.039757177 -0.03567772 0.023895621 -0.13155693 0.00703315 -0.056888625
0.074109346 0.022601377 0.11031288 -0.0052170753 0.016338855 -0.13768655 -0.13926257 -0.12215453
0.07034128 -0.02865036 -0.076948814 -0.04557224 -0.1093567 -0.025574904 0.03403382 0.06884673
-0.013467494 0.0636313 -0.06682474 -0.020466713 -0.0066734436 0.042582598 -0.09001479 -0.05465966
-0.055296116 -0.07867265 0.010596432 0.091337726 0.11457397 -0.13900079 -0.013458431 0.0032070726
-0.010882437 -0.07972145 -0.117602006 0.0452986 -0.029654011 0.050437503 -0.0088853175 -0.0672234
0.07950518 0.069394454 -0.03229025 0.01267678 -0.03698388 -0.0061581265 -0.0016777461 0.09229904
00000000: 010e 8e3e 9ac8 c5bd 2b3e d03d 4c41 e9bd
00000010: 50f2 00be 760f b1be c1a3 e13b f44c 023e
00000020: 1e4e 7dbd f76c c13e 2f33 e13e 1cfa 10bf
00000030: a06d c0bb 074c e8be 842c e4bd cc1a 5a3e
00000040: cebe 4c3e 62d2 3fbe 0e0d c13d 9341 833e
00000050: 07cf 1d3f 9911 aabe 519b c8bd 1b6a af3d
00000060: ab30 aabc 08e1 82be d03c a4be 48f9 b43d
00000070: f0d3 13bf 78d2 8b3f 2eb5 a73d afdb 27bd
00000080: b725 673e fd30 15bf 795c 923e ab5b 413f
00000090: 7d2f 7e3e 2f5f 843e 7ee0 053f ee3d 43be
000000a0: 9c73 53be ac65 08bf 2b02 b6be 78d8 91be
000000b0: 2fd8 813f 7187 36bd 949a e8bd db01 66bf
000000c0: 6fa5 533e 9894 5fbd bbbc b83e ab4e 793e
000000d0: 5955 ad3e 4500 85be 5fec 553f ac31 76be
000000e0: 19a2 cfbe 3590 d1bd ac51 db3d 5678 a3be
000000f0: dbdc cb3e caad 0b3e c58d d3bd 27ae 583e
00000100: 8d4c 7b3d e280 2b3e 08cf 073e 6aa6 af3d
00000110: 9cd9 873d f4b5 c6be 1805 80bd e63c 26bf
00000120: 187c 06be da99 af3d 0df1 c0be c68a c43d
00000130: f891 fb3c a9f6 9a3c aa62 5abe fe63 8abe
00000140: 5c4d 433d 9831 313e 00fd efba 334e 28bf
00000150: 2517 1dbf cc09 2dbd 9cdb dc3e 4ad3 e9bd
00000160: 9c89 c93d 0e59 a83e c281 523e 48d6 803e
00000170: 59ea d33e 421a 3d3f f897 e23c 4d32 ba3d
00000180: f13e 93bd ae4a 42be b49f 693e 334a f33e
00000190: 44d6 c9bd c7f4 313d 9c9c bd3e c7c9 fcbd
000001a0: 0847 d9be f812 84be a145 7cbd 3924 4b3e
000001b0: bbd6 003f 9d99 7a3e 4e4e 9abd ca4a 7abd
000001c0: d1da cc3c 7fef 2c3e ac92 6fbf 0b25 5fbe
000001d0: ab8b 00c0 637d adbf 8a95 99bd e70f 583e
000001e0: 313b 89bf 9d2c 35c0 1826 91bc aa75 9bbd
000001f0: 229c 2f3e a5d5 3fbe 3ba4 bebe a679 7e3c
00000200: 6739 a83e bf56 283e e1e7 a53d 2ab7 953e
00000210: f743 403e 3d59 0cc0 30a9 813d fb9e 7a3d
00000220: eb73 d63d a251 fabd c4c1 88be 27fa 2bbf
00000230: 2265 db3d 6797 b8bc 5da0 d8bf 33d1 4abf
00000240: 9958 933c 8c21 7bbe 182c c1bd 4b9d 93bf
00000250: 3cff 0cc0 0b41 d03e 7d9d b83e 1baf 3ebf
00000260: b5a7 613e 30ed 343d 8d70 7f3e 452a 383d
00000270: ca40 bdbe e881 a23f 74fc b1bd 7aa7 2ebd
00000280: 2bf1 643e abc6 d5be 7823 e1bc 08e0 efbe
00000290: dda4 12be e9df 6ebe 6800 243e ce29 11bf
000002a0: a388 b8be f109 efbe cbff e6be faa0 273e
000002b0: 2b58 253e df4d 1abb a24a c1bd ab25 2bbf
000002c0: 46d4 ad3e 73fc a33e d235 cfbf a18d 1ebd
000002d0: ade9 69c0 deba 1abf ec09 14be c5fb 8dbd
000002e0: c3eb cdbf fb35 1cc0 e0e3 5ebc c5d3 1bbf
000002f0: 5851 99bd 4a7a cf3c 72ec aebe 9bdc 00be
00000300: 5508 adbd 91e3 56bc 6d49 8ebd 676e a1bd
00000310: c9db 3bbd ff17 903d 1f62 ee3c 90a8 933c
00000320: 4f23 233d 60ed b5bd 6cd8 22bd cd22 12bd
00000330: c0c0 c33c dcb6 06be 5776 e63b 0c04 69bd
00000340: a4c6 973d 8626 b93c b8eb e13d 00f4 aabb
00000350: 10d9 853c b4fd 0cbe d99a 0ebe 272c fabd
00000360: 170f 903d 29b4 eabc 5797 9dbd f5a9 3abd
00000370: 68f6 dfbd 7682 d1bc 0c67 0b3d 84ff 8c3d
00000380: c4a6 5cbc 2151 823d 69db 88bd cfa9 a7bc
00000390: e7ac dabb 176b 2e3d ad59 b8bd cfe2 5fbd
000003a0: 2e7e 62bd 201f a1bd a89c 2d3c 460f bb3d
000003b0: c2a5 ea3d 3956 0ebe c080 5cbc c02d 523b
000003c0: 404c 32bc 0045 a3bd 52d9 f0bd 068b 393d
000003d0: f8ec f2bc 8e97 4e3d b993 11bc 6cac 89bd
000003e0: 9dd3 a23d ae1e 8e3d c842 04bd 45b2 4f3c
000003f0: 697c 17bd 1cca c9bb d1e7 dbba 4707 bd3d

l2.bias f4 [64]
0.15327352 0.026637401 0.06705701 -0.12077586 0.08793261 0.13607195 -0.008607366 -0.07078901
-0.15154065 -0.12232396 0.012486002 -0.067073554 -0.022028776 -0.05098747 0.18535642 0.037076205
0.10206782 0.21526092 -0.08176659 0.06292005 0.12329609 0.08402393 0.08853795 -0.021888085
-0.0246762 -0.07724427 0.11544758 -0.00074306043 0.19661547 -0.04332228 -0.15626691 0.005999371
0.11025896 0.20461458 0.14614736 0.17383695 0.07341539 -0.0247246 0.016581677 0.09966308
0.10347127 0.13336898 0.22467156 0.011030797 -0.11318661 -0.14875285 0.09863438 -0.030192008
-0.083737 0.02702366 0.03512408 -0.02441638 -0.06603636 0.09346166 0.18510143 -0.0034375265
0.1805825 -0.036203302 0.12969314 0.07383794 -0.032795876 0.030154446 0.20717141 -0.0036770315
00000000: bcf3 1c3e ae36 da3c 3055 893d 5659 f7bd
00000010: 0316 b43d 7256 0b3e e905 0dbc d4f9 90bd
00000020: 792d 1bbe fc84 fabd 1792 4c3c dc5d 89bd
00000030: b175 b4bc 3dd8 50bd 13ce 3d3e 38dd 173d
00000040: ef08 d13d 5c6d 5c3e 3e75 a7bd 3adc 803d
00000050: a982 fc3d bd14 ac3d 6253 b53d a44e b3bc
00000060: be25 cabc 3e32 9ebd c86f ec3d f1c9 42ba
00000070: 9155 493e b472 31bd 6f04 20be 5f96 c43b
00000080: 73cf e13d 7c86 513e a7a7 153e 5002 323e
00000090: cf5a 963d 3f8b cabc 4cd6 873c 281c cc3d
000000a0: bfe8 d33d e191 083e 4d10 663e 84ba 343c
000000b0: 62ce e7bd ab52 18be d200 ca3d 3b55 f7bc
000000c0: 4e7e abbd b960 dd3c 44de 0f3d dc04 c8bc
000000d0: 123e 87bd d468 bf3d 3b8b 3d3e 2048 61bb
000000e0: 9eea 383e ea49 14bd 47ce 043e 5938 973d
000000f0: f854 06bd 7506 f73c be24 543e 5afa 70bb

l3.weight f4 [1, 64]
1.4137071 1.6915035 3.8255005 -0.09988198 0.42969942 2.3676195 2.5040984 -0.11406779
-1.854943 -0.076699704 -1.8913933 -0.35677743 2.3939896 -0.04657913 2.1074286 -1.9814548
-1.5170056 0.2542543 3.6656237 -2.835129 0.88070947 -1.8891191 0.43565255 -1.8188349
-1.910579 -2.0630448 -1.8158467 -1.9470636 0.3674041 2.7262416 2.127142 -2.1095715
-3.2843409 0.3295215 0.33493596 0.33046594 -2.2401605 -2.1294093 5.8377576 1.6660889
-1.8600669 0.33413264 0.30122447 -2.5419683 0.054035686 -1.9471471 -1.4111478 -1.6872154
-0.07840228 -2.0365336 4.2578554 -1.7230786 1.4706248 3.5523975 0.23484597 -2.1453917
0.3009809 1.9825877 0.40591842 3.1746435 2.3104832 -1.8197412 0.2581062 5.2549086
00000000: 5bf4 b43f 3083 d83f 00d5 7440 ec8e ccbd
00000010: 9001 dc3e 1487 1740 2643 2040 609c e9bd
00000020: c66e edbf bc14 9dbd 2d19 f2bf 88ab b6be
00000030: 2037 1940 c2c9 3ebd 1ce0 0640 50a0 fdbf
00000040: 3d2d c2bf 9f2d 823e 9499 6a40 c172 35c0
00000050: 2d76 613f a8ce f1bf da0d df3e 95cf e8bf
00000060: da8d f4bf ed08 04c0 aa6d e8bf 6139 f9bf
00000070: 641c bc3e be7a 2e40 1823 0840 3803 07c0
00000080: a432 52c0 0bb7 a83e ba7c ab3e d532 a93e
00000090: ca5e 0fc0 3e48 08c0 e9ce ba40 6742 d53f
000000a0: ac16 eebf 6f13 ab3e 183a 9a3e 9caf 22c0
000000b0: 8654 5d3d 1e3c f9bf 7ea0 b4bf adf6 d7bf
000000c0: 6091 a0bd 9156 02c0 5a40 8840 d78d dcbf
000000d0: 6f3d bc3f 7b5a 6340 767b 703e 194e 09c0
000000e0: 2b1a 9a3e 6fc5 fd3f 8ad4 cf3e 5c2d 4b40
000000f0: f5de 1340 48ed e8bf 7f26 843e 3628 a840
