examples/experiments/experiment_84/critic10_3.pth (torch, 42071 bytes, 5 tensors)

l1.weight f4 [64, 90]
000000 9c 15 a2 3c 28 50 b2 bd 50 28 88 bd fc 33 d1 bd
       0.019785695 -0.08706695 -0.06648314 -0.10214993
000010 81 27 61 3b 2e 9a 08 bd b8 86 c5 3c 91 85 24 3d
       0.0034355822 -0.033350162 0.02411209 0.04016644
000020 a0 42 ee bc 81 e0 95 bd 2a da 45 3d 24 7c 28 bd
       -0.029084504 -0.07318211 0.04830376 -0.041134015
000030 12 72 91 bd f4 54 4e 3d f2 89 e2 3c 57 6a a0 bc
       -0.07101835 0.050373986 0.027653668 -0.019581957
000040 71 95 ac bc 53 dc df bc e8 72 fd bb a8 a0 a4 3d
       -0.021067353 -0.027326738 -0.007734645 0.08038455
000050 d6 36 61 3c a2 bd be 3d cb 5f 2e 3d 17 74 45 3c
       0.013745984 0.09313513 0.042571824 0.012051604
000060 b3 90 6f 3d c9 dd 2f bd 7c 57 8e 3d 67 43 10 3d
       0.058487605 -0.04293612 0.0695028 0.03522053
000070 0f 25 6d bd fe fb ef bc 08 f0 fd bd 68 b6 b0 bb
       -0.05789667 -0.029294964 -0.12399298 -0.0053928383
000080 51 2c ba 3d 1f f8 a3 3e 82 f5 be bd ef a3 88 3c
       0.09090484 0.3202524 -0.09324171 0.016679732
000090 c1 3c 4d bc b1 2a 11 be 2c 34 05 be 8b 12 de bd
       -0.012526692 -0.14176442 -0.13008183 -0.108433805
0000a0 f9 b0 29 bd a7 53 69 bb a5 af f3 bc a7 e1 0d bd
       -0.04142854 -0.003560284 -0.02974684 -0.034639027
0000b0 5c 62 a5 3b cd c7 98 3d 5e b0 08 3c b7 ba 3e 3c
       0.0050471257 0.07459984 0.00834283 0.011641196
0000c0 9e db f3 3b f0 1e dd 3b 40 0b d3 bc 70 d0 5d be
       0.007441952 0.006748073 -0.0257622 -0.21661544
0000d0 95 44 a1 bd 43 38 99 3d b3 1a e4 bd 30 a9 bf bd
       -0.07874409 0.07481434 -0.11137905 -0.09358442
0000e0 37 37 a4 bd 19 43 ab bd 27 ab cc bc d6 ec e5 3c
       -0.08018344 -0.08362407 -0.024983956 0.028067034
0000f0 c1 27 54 3e a3 96 dd 3c 3d 92 8d bf db 3b 66 c0
       0.2071829 0.027049368 -1.1060253 -3.5974033
000100 e5 9d 7f 3e 97 e0 2d bf 50 b1 bf 3e 75 6d 42 3f
       0.24962576 -0.6792082 0.37439966 0.7594827
000110 cd 62 39 3f 1a bb 21 3e f3 a7 50 3e 67 1a a9 3d
       0.72416383 0.1579403 0.20376568 0.08256989
000120 bf 13 00 3f e2 92 f8 3d f0 89 2f be ac 7b 4f be
       0.5003013 0.12137391 -0.17142463 -0.20262021
000130 5d d8 c5 be 17 ce 2e be df 1c 43 3d a6 c9 5d 3a
       -0.38641635 -0.17070805 0.047634955 0.0008460529
000140 73 6d 0f 3f 0c fa 09 40 64 71 14 3f 40 5d 93 3d
       0.5602638 2.1558867 0.5798552 0.071955204
000150 8b 3b 4a 3f 8d 8b 72 3e 9c 63 37 3f ea 8f b3 3e
       0.78997105 0.23686047 0.71636367 0.35070735
000160 85 73 1d 3f a7 ab 66 bc 52 6b d9 3d f2 63 25 bd
       0.61504394 -0.014079011 0.10616173 -0.04037852
000170 30 5e 93 3c 50 3d cf bc 58 50 89 bc 30 7e b2 bc
       0.017989248 -0.02529779 -0.016761944 -0.021788687
000180 7c 4c 0c 3c 07 19 55 3c 46 cc 73 3c dd ad 86 bb
       0.008563157 0.013006455 0.014880246 -0.0041100816
000190 dc 89 a3 3c c9 cf 24 3e 8a 4e 92 bc bb 2e 54 bc
       0.019963197 0.16094889 -0.017859716 -0.012950595
0001a0 bc 12 0a 3c 3b ea 89 3d e4 a4 9a bb d8 54 92 3d
       0.008427318 0.06734129 -0.0047193635 0.07145089
0001b0 bf e5 ac bd 6a aa c8 bb da 9f d8 3c 85 c0 0f bd
       -0.08442258 -0.0061238306 0.02644341 -0.03509571
0001c0 99 33 ab bc ec f5 1f bd 2d 0d d1 3d dc 98 7e bd
       -0.020898627 -0.03905289 0.10207591 -0.062157497
0001d0 c9 54 85 bb ab df 3b 3b 68 fb 98 3c 35 ea 4f 3d
       -0.004068945 0.0028667252 0.018674567 0.050760467
0001e0 a0 5d 9e 39 ba 10 b7 3e 08 e8 78 bd 9c 5a b4 3d
       0.00030205864 0.3575495 -0.060768157 0.08806345
0001f0 c4 72 0c bd 16 0a 88 3d 7e 3c d9 bc ca 4a f4 3b
       -0.034289137 0.06642549 -0.026518103 0.0074552046
000200 a8 20 43 3c 78 82 e2 3c 55 cd 40 bd 15 4b ca 3d
       0.011909641 0.027650103 -0.04707082 0.09877602
000210 84 3a 38 3d a2 ec bb bd 12 a0 49 bd 76 81 e0 3c
       0.04497768 -0.091759935 -0.04922492 0.027405482
000220 28 41 c7 3d 95 f6 6f 3d 1e 0e 40 3d a6 71 9f 3b
       0.097292244 0.05858477 0.046888463 0.004865843
000230 fc 1a 0e 3e 87 36 12 3e c4 5f 5d bd a5 fe e7 3c
       0.13877481 0.14278613 -0.054046407 0.028319666
000240 7c 8e 40 3d 30 36 d7 bd 3e 78 94 bc 2f 41 95 bc
       0.047010884 -0.10508382 -0.018123742 -0.018219559
000250 de 33 93 3d a7 2d 01 3e 5c 36 d2 3e f7 c8 20 c0
       0.07187627 0.12615071 0.41057098 -2.512266
000260 da 74 06 3f 60 f2 9d be 25 af b5 3d 37 ef 86 be
       0.5252205 -0.3084898 0.08871297 -0.2635438
000270 c8 a6 78 be be 71 40 3d 47 3a cf bd 3a 70 c6 3d
       -0.24282372 0.046983473 -0.101185374 0.09689374
000280 5c 02 99 3e e0 ca fb be 3a b9 9a 3e 86 9a 8d 3c
       0.29884613 -0.4917822 0.30219442 0.017285597
000290 d2 cd 41 3e 6a 74 95 be d2 86 94 be 5a 07 8c 3d
       0.1892617 -0.2919038 -0.2900911 0.0683734
0002a0 96 8c e9 be 46 6b ac bc 27 cd 4a bf 1b c6 be be
       -0.4561507 -0.021047246 -0.7921929 -0.37260517
0002b0 17 2e 97 3e 21 79 4e bc be 49 82 bd 24 b0 f2 3e
       0.2952735 -0.012602122 -0.063617215 0.4740001
0002c0 8b d7 98 bc 0e 2c ab 3d c0 17 65 be ed cf 79 bf
       -0.018657466 0.08358012 -0.22372341 -0.97582895
0002d0 9f 41 9d bd e4 45 85 bb 61 95 bc 3c 7d 44 11 bd
       -0.07678532 -0.0040671695 0.023020448 -0.035465706
0002e0 2e 7f 00 3d e0 35 cb bc e3 e5 2d bd ab 1d 5d bd
       0.031371288 -0.024805963 -0.042455565 -0.05398337
0002f0 8c 53 12 3c 99 3c 0d bd 69 fc 67 3b 05 2a f4 3d
       0.008931052 -0.03448162 0.003539825 0.11922077
000300 91 de 08 bb 2f 79 cc 3d e3 9d 47 3d 24 42 21 3c
       -0.0020884613 0.099840514 0.048734557 0.009842429
000310 1b 57 41 3c 80 81 20 3d e2 3c 0d 3d 77 be 11 3d
       0.011800553 0.039186 0.03448189 0.035582032
000320 d1 ed 21 3d 81 a2 e5 bc 83 f8 fe 3c 43 e5 e4 3b
       0.03953344 -0.02803159 0.031124359 0.006985338
000330 62 04 83 3d 63 3a 92 3d 84 c1 36 3d ed 33 01 3d
       0.0639732 0.07140043 0.044618145 0.03154366
000340 cf d1 13 3c 8c 5c 50 3d 2d 8a 9f bc 87 d1 fc bc
       0.00902219 0.05086951 -0.019475067 -0.03086163
000350 ab 93 8b 3d f8 35 b8 bb d6 38 c5 bd 81 bd 1b bd
       0.06815275 -0.005621668 -0.09629981 -0.038022522
000360 40 2f 60 bd 8d 57 ea 3d 52 b3 d7 bc f9 cb c3 3d
       -0.05473256 0.1144248 -0.026330624 0.09560389
000370 2f d8 53 3d 22 ea b0 bd 82 a0 a7 3d c1 94 04 be
       0.05171984 -0.08638407 0.08184911 -0.1294737
000380 d1 eb db bd bf 50 23 bd 7c de e3 bd 2f af 3a 3c
       -0.10738338 -0.039871927 -0.1112642 0.011394306
000390 41 c7 ae 3c 7f 0a 8d bc cb 62 b4 bc 30 80 7c 3d
       0.021335246 -0.017216919 -0.022019764 0.061645687
0003a0 7f a0 c3 bd ee 92 6b bd 7c a7 18 3d 61 09 3c bd
       -0.095520966 -0.05751317 0.0372691 -0.045907382
0003b0 b5 af 99 bd b4 2a 0e 3e 80 63 a6 bd fb 53 5c be
       -0.075042166 0.13883477 -0.08124447 -0.21516411
0003c0 97 36 84 bd cc a6 7f 3e c7 e9 57 bf 37 05 28 3d
       -0.06455725 0.24965972 -0.8434109 0.0410206
0003d0 8c 6f 0f 3f 52 65 ea bb 08 56 52 3e f8 64 37 bf
       0.5602958 -0.0071531916 0.20540631 -0.7163844
0003e0 b6 1a 63 be f2 b4 24 bf fe e6 e3 bd 65 4d 0c 3e
       -0.22178158 -0.643386 -0.11128043 0.13701399
0003f0 2c 9c 1c bf 53 89 6b 3f 1c b3 a6 3e 14 eb 02 3e
       -0.611758 0.92006415 0.32558525 0.12784988

l1.bias f4 [64]
000000 3f 9f a0 b8 23 78 f8 bc 88 23 4e bd 47 7c 0e bd
       -7.6590564e-05 -0.030330723 -0.050326854 -0.03478649
000010 a8 12 ff 3c d9 85 15 3e 86 dd e3 3d fe e9 32 3d
       0.031136826 0.1460184 0.111262366 0.043680184
000020 53 06 d2 3b 1f 4b 02 3e 8a 9b b7 3d c6 ce ac 3c
       0.0064094453 0.12723969 0.089652136 0.021094691
000030 64 a5 59 3d 9f 0c a0 bc ce aa 5d 3d be 95 fc 3d
       0.053136244 -0.019537268 0.05411797 0.123332486
000040 f8 ac 39 3d 48 b0 2b 3d 3d 4c 44 bc 24 e0 f3 3b
       0.04533097 0.04191616 -0.011981067 0.007442491
000050 38 f5 d3 bd 35 b2 f0 3d 9f 9d e1 3c ba bc 31 3d
       -0.10349506 0.1175274 0.02754098 0.043392874
000060 b6 71 ae bc 7f d6 86 bb 53 8a 82 3d c6 ff f8 bc
       -0.021294456 -0.0041149254 0.063740395 -0.0303954
000070 37 9a 8e bb ab c5 3a 3d 8f 1f ae 3c 37 29 c6 bc
       -0.00435188 0.045598667 0.021255283 -0.024189575
000080 41 1b a4 3a bc 95 0e 3d bf b0 13 3e 67 1b b4 3d
       0.0012520329 0.034810767 0.14422892 0.08794289
000090 c9 ec 33 bd 1d fe a7 3d fe ff b4 3d 6c be bb 3d
       -0.043926988 0.08202765 0.08837889 0.091671795
0000a0 3c 90 fd bc 5d aa 18 bd c9 f9 c3 3b be c5 44 bd
       -0.030952565 -0.037271846 0.0059807044 -0.048040144
0000b0 28 d1 73 bd 2a ac 23 3c 50 ec f7 3d 0e 75 2b 3d
       -0.05952564 0.009989778 0.1210562 0.04185968
0000c0 3e 00 ca bc 9f 74 2e bd e5 50 55 ba 19 0f 01 3e
       -0.024658319 -0.042591687 -0.00081373594 0.12603416
0000d0 dd 5c 9c 3d ca 0b bf 3d 4e b8 9b 3d 99 9e c6 bc
       0.076349 0.093284205 0.07603513 -0.024245547
0000e0 82 df 29 bb 20 3a 53 3d ba 22 97 bd 1d c5 62 bc
       -0.0025920575 0.051569104 -0.073796704 -0.013840941
0000f0 ba 1e 8d bc 41 67 36 3d 87 0c 90 3d 46 e7 29 3d
       -0.017226566 0.044532064 0.070336394 0.041480325

l2.weight f4 [64, 64]
000000 2a 19 e9 bd 25 fa e9 bd 9b 55 23 be a3 4e a8 3e
       -0.11381753 -0.114246644 -0.15950625 0.32872495
000010 d3 2e 9e 3e 64 27 e4 bb ee 44 2f 3e ce c9 be bc
       0.308951 -0.0069627035 0.17116138 -0.023289587
000020 ab d2 18 3e 0b 9b 5c bd 60 c2 a7 bc 4a 7f 9a 3d
       0.14924113 -0.053858798 -0.020478427 0.0754381
000030 08 08 85 3d bb f2 c8 3d 78 d3 65 3e 49 4c a9 3d
       0.064956725 0.09811922 0.2244395 0.08266503
000040 ee 71 07 bd 16 7f 74 be 94 51 bf be dd 8a 71 bd
       -0.033067636 -0.23876604 -0.37366927 -0.05897032
000050 22 94 9e 3d 70 05 aa 3e e1 84 08 3e 31 21 57 3d
       0.07743098 0.33207273 0.1333194 0.05252189
000060 74 d7 40 3d 63 72 63 3e 7f d1 e8 bb 84 b6 ca 3d
       0.047080472 0.22211604 -0.007105052 0.09898093
000070 d6 af ad 3e 23 6c 5a 3e bd fe 8f 3e a3 18 33 3e
       0.33923215 0.21330313 0.28124037 0.17489867
000080 69 79 04 3e db c0 af bc e3 da 69 3e c5 28 00 3d
       0.1293694 -0.021454265 0.22837405 0.03128888
000090 e5 07 5d bb 76 d3 66 3d 17 7d 35 3e 1c 19 bc 3c
       -0.003372663 0.05635401 0.17723499 0.022961192
0000a0 b1 c7 fc bd 1d 9a 5f be ab 94 3a 3e 66 0e 25 3e
       -0.123427756 -0.21836133 0.18220775 0.16118774
0000b0 20 69 f6 bc e6 aa 71 be 45 58 9d 3d ae 7b 5d 3e
       -0.030079424 -0.23600349 0.07682852 0.21629211
0000c0 f9 69 31 3d db 19 22 3e c8 5a 87 be 79 de a1 bd
       0.043313954 0.15830176 -0.26436448 -0.079037614
0000d0 f0 91 7d 3e 32 94 1e 3e 05 57 44 3e 5c 4d 28 be
       0.24762702 0.1548622 0.1917382 -0.1643576
0000e0 a3 83 c3 bd 71 91 df 3d 96 dd 8c 3d 2c 96 2e be
       -0.09546592 0.109164126 0.06878202 -0.17049474
0000f0 ec cb 40 3e e8 65 c6 be 49 4e 40 bd a2 85 2b be
       0.1882779 -0.38749623 -0.04694966 -0.16750196
000100 9d 63 d5 3d 9e 81 7e 3c 3a 94 36 bd 1c 60 3e be
       0.1041939 0.015533833 -0.044574954 -0.1859135
000110 d2 38 8c be a0 46 3d 3e 95 75 c8 3e 5d 29 1d bb
       -0.273871 0.18483973 0.39152208 -0.0023980953
000120 5a f8 f7 bd 04 32 49 bd ac 46 98 3b 3d a8 63 3e
       -0.12107916 -0.049119964 0.0046470966 0.22232147
000130 17 8c 9c 3d 14 d7 87 3e 3c 18 99 3c 88 50 e6 3c
       0.076439075 0.2653128 0.018688314 0.028114572
000140 68 4c e0 3d 29 3d 92 3e 65 33 07 bf 05 13 bc 3c
       0.10952073 0.28562286 -0.52812797 0.022958288
000150 5a 61 f5 bd a4 61 67 3c 1c ca 4f 3e 9a 26 7a 3e
       -0.11981459 0.0141224 0.20291942 0.24428788
000160 29 a8 1b bd 83 fb 8b be ab 16 28 be 15 03 ac 3d
       -0.038002167 -0.27340326 -0.16414897 0.08399025
000170 6b c1 ea bd 36 83 95 bd 3c d4 3c bd df a3 7a 3e
       -0.11462673 -0.07300417 -0.04610084 0.24476574
000180 3b 31 d4 bc fa e3 5d 3e 81 dd 33 3c 93 79 84 be
       -0.025902381 0.21668997 0.010978104 -0.25874004
000190 a7 e0 f4 3e 4d 06 0e bc 46 74 6f 3e 1a 08 a4 3e
       0.47827646 -0.008668494 0.23384199 0.3203743
0001a0 67 3f d7 3e 33 7e 3f bf 4d 04 08 be 5a 7c ae be
       0.4204056 -0.7480194 -0.1328289 -0.34079248
0001b0 be 08 3d 3e 2c 39 4a 3e a4 be 89 3e c4 5c 2f bf
       0.18460366 0.19748372 0.2690326 -0.68500924
0001c0 96 18 21 3e d0 f9 c7 bf 31 2d ce 3e 7e 5f 65 3d
       0.15732035 -1.5623112 0.40268853 0.05599927
0001d0 c3 bb 8b bd 8e 58 ab 3d 66 e2 bf 3c a5 c3 af 3e
       -0.06822922 0.083665 0.023423385 0.34328952
0001e0 0b b4 92 3c de a3 a8 bd 93 7f 53 3c 5a 32 82 3e
       0.017908117 -0.0823438 0.012908834 0.2542904
0001f0 06 56 93 bd 14 95 0e 3e 54 7b 75 3d 2e 2b ae bf
       -0.07194142 0.13924056 0.059932068 -1.3606927
000200 f6 44 5d 3e b3 72 c3 3e d7 42 97 3d b8 8e 0d be
       0.21608338 0.38173446 0.073857956 -0.13823974
000210 f2 eb 02 3e f4 44 75 3e 87 ae e6 bc b1 e6 c4 be
       0.12785318 0.23952085 -0.028159393 -0.38457254
000220 39 9f 07 bf 4b ea a8 3e c5 9b 4a be f7 04 09 bd
       -0.5297733 0.3299125 -0.19785984 -0.033452
000230 2c eb b1 3c a3 85 8e 3e 8e cc 79 be b9 ec a5 3e
       0.021718584 0.27836332 -0.24394438 0.32407168
000240 3a c2 08 3e b8 72 8a 3e ef cd 00 be e3 d8 00 3f
       0.13355342 0.27040648 -0.12578557 0.5033094
000250 34 6a 04 bd 5f ec 09 bd 8c 95 8d be aa 8f c2 be
       -0.032327846 -0.033672687 -0.27653158 -0.38000232
000260 00 ea 0b be 53 0a f8 be 56 6f c2 bd b2 9e 4d 3e
       -0.13663483 -0.48445377 -0.09493892 0.20080069
000270 45 ca 0b 3e 43 1d 91 3e 8d 69 39 be a4 59 5d 3d
       0.13651378 0.28342637 -0.1810667 0.054040566
000280 d5 65 3f be 89 6d 46 3c 0c f1 96 bc d1 10 32 bd
       -0.1869119 0.012111076 -0.018425487 -0.04347307
000290 c4 84 9d bd a7 e1 17 3e cb 37 8f bc d2 c9 39 be
       -0.07691339 0.14832173 -0.017482659 -0.18143395
0002a0 03 ef 04 3e b5 54 4c bf ae 8e ca be b8 8d 03 3e
       0.129818 -0.7981675 -0.3956198 0.1284703
0002b0 6f 3e ef 3d 24 00 b2 3e 2b 83 6c be ff 10 ba be
       0.1168183 0.34765732 -0.23096912 -0.36341092
0002c0 33 32 68 3d af e1 fd be 5a cc 2f 3e 00 a0 c0 3d
       0.0566885 -0.49586245 0.17167798 0.094055176
0002d0 a0 af b0 3e 76 a4 75 3b f0 d7 8f be 46 c0 2c 3d
       0.3450899 0.003748206 -0.28094435 0.042175554
0002e0 b5 92 c8 bc f2 29 87 bc 73 fd 3f bd 11 a5 bd bc
       -0.024484018 -0.016499493 -0.046872567 -0.023149999
0002f0 8b 39 9b bc b5 d6 4c 3e 03 f2 ce bd 52 58 8f bd
       -0.018948337 0.20003779 -0.10104754 -0.06999268
000300 8c bb 98 3e 92 c0 2d bd 1e 3f ed bd c6 b7 e5 3e
       0.29830587 -0.042419977 -0.11584304 0.4486677
000310 b8 e4 2a be 06 34 c6 3b ff d1 29 3e ce 8f 98 3e
       -0.16688812 0.006048682 0.16584013 0.29797214
000320 08 6e 77 3d 09 19 27 be 5e f4 e8 3d 5b 94 0b 3e
       0.06040767 -0.16318144 0.11374734 0.13630812
000330 11 f7 8c 3e 98 3a 88 bd 60 cb f5 3d 76 2f 69 3e
       0.27532247 -0.06651801 0.12001681 0.22772011
000340 f2 51 a6 bc de db 14 3f 91 2c 82 3e 37 be 02 bf
       -0.020302746 0.5814799 0.25424626 -0.51071495
000350 9c 7d 1c 3d 53 e7 ae bd 0d a8 df be 59 9b fa 3d
       0.038205728 -0.08540215 -0.436829 0.122366615
000360 90 0e 26 3f ec 2e 06 bf 99 4c 14 be 42 36 14 3f
       0.6486597 -0.5241535 -0.14482345 0.5789529
000370 55 36 d9 be c1 e7 ed 3e 6e 69 87 be ad 1c cd 3e
       -0.42424265 0.46465877 -0.26447624 0.4006094
000380 4d a9 be be a7 19 24 3e 4a 67 4d 3d 0d 78 06 3e
       -0.3723854 0.1602541 0.050147332 0.13131733
000390 3f 28 42 bf 86 a5 29 be e8 78 81 3d e3 f7 d8 bd
       -0.7584266 -0.16567048 0.06321889 -0.10594156
0003a0 5b d7 47 3e 45 ef 96 3e e6 56 d4 3d 3b b8 39 be
       0.19515745 0.29479423 0.10368137 -0.18136685
0003b0 9e 07 89 3e 43 28 51 bf fe 1b d3 3c 91 ea c8 be
       0.26763624 -0.8170206 0.025770184 -0.3924146
0003c0 29 ad 46 3e 9f 5e a1 3e c6 fc 5b bd 83 e3 fe 3d
       0.19401993 0.31517503 -0.05370786 0.12445738
0003d0 88 53 a1 bd 67 2a c8 bd 18 aa 16 3e af 4f 71 3d
       -0.078772604 -0.097737126 0.14713323 0.058913883
0003e0 fe 92 ed bd 71 58 34 3e 1f 5e ae 3e 3d a0 f2 be
       -0.11600302 0.17611863 0.34056184 -0.47387877
0003f0 cc f1 cc 3b ad 65 8b bf 61 cd eb bc 3f f8 69 bf
       0.0062544104 -1.0890404 -0.028784456 -0.9139442

l2.bias f4 [64]
000000 d8 2d 3c 3e ed 52 f0 bd f2 40 ce 3c e5 37 e6 bd
       0.18376863 -0.11734567 0.025177453 -0.1124113
000010 ac 35 a4 3d a9 d4 5b bd 2b c8 77 3d 73 ea cf 3d
       0.080180496 -0.053669605 0.06049363 0.101521395
000020 c5 45 d8 3d cd 8c a9 3d 3e d4 4d 3e dd a0 06 3d
       0.105601825 0.08278809 0.20100495 0.032868255
000030 04 ed 54 bd 50 4e 7e 3d 28 d4 9e 3d 69 9e 83 bd
       -0.05198385 0.062086403 0.07755309 -0.06426699
000040 b7 9c 8f bd 9e 49 43 3e d5 b9 af 3d d2 bc 7c bd
       -0.07012313 0.19071051 0.085803665 -0.06170351
000050 7c 52 2f 3a b8 c9 49 3d 1c de 66 3d a6 6d 10 3e
       0.00066880113 0.04926464 0.056364164 0.14104328
000060 03 3c 04 be 40 ab 63 3e 5e 1c 6b 3d 48 ae 23 be
       -0.12913518 0.22233295 0.0574001 -0.15984452
000070 0e b9 b3 3d 16 f9 94 bd 77 bb 66 3d a2 b4 3e 3d
       0.08775531 -0.07274072 0.056331124 0.046558984
000080 9f c6 79 bd a3 87 db 3d 7b 15 e8 3d ec 80 06 3e
       -0.060980435 0.1071923 0.11332222 0.13135117
000090 79 73 53 3e 67 7b 36 3e ef 20 41 3e ad 2f cd 3d
       0.20649518 0.17820512 0.1886022 0.10018859
0000a0 e4 74 4c 3e 4f b1 88 3d 3a b2 f1 3d ee 4b a3 3d
       0.19966465 0.06674444 0.11801572 0.07973467
0000b0 79 55 e6 bd 89 ed 59 3e 86 46 26 3e e8 36 5d be
       -0.11246771 0.21282019 0.1623784 -0.21602976
0000c0 59 d1 04 3e 21 29 ca 3d 25 12 26 3e 8d 4f 22 3e
       0.12970485 0.09871126 0.16217859 0.15850659
0000d0 67 8e 0f 3e b2 70 20 3e 8e e0 f3 3d 6d 26 0a 3e
       0.14019166 0.1566799 0.11908065 0.13491221
0000e0 d8 b1 0b 3e 26 f3 bc 3d ac c9 48 3e cb 5e 64 3d
       0.13642061 0.092260644 0.19608182 0.055754464
0000f0 73 3a ed 3d a8 3b 2c 3d b6 00 1d be 45 17 54 3b
       0.11583414 0.04204908 -0.15332302 0.0032362503

l3.weight f4 [1, 64]
000000 1f 5d 0a 3e fa 3b 4a bf 9c 8a a7 bf ee d6 03 c0
       0.13512085 -0.78997767 -1.3089175 -2.0599933
000010 48 8d 08 bf e3 4e 90 bf 26 72 86 bf 05 03 90 3e
       -0.5334058 -1.1274074 -1.0503585 0.28127304
000020 0f a1 75 3e b7 f4 11 c0 93 cf 3b 3e 0e cf d2 bf
       0.2398722 -2.2805612 0.18340902 -1.6469438
000030 b5 ab 4a c0 19 4d 7c 3e 91 a8 48 40 c5 65 af 40
       -3.1667302 0.24638785 3.1352885 5.481173
000040 04 01 50 bf e3 46 51 3e ed aa 82 3e 87 3c 80 bf
       -0.8125155 0.20437197 0.2552103 -1.0018471
000050 59 26 28 40 9a 05 31 c0 18 6b 17 c0 b4 1e f1 3d
       2.6273406 -2.765967 -2.3659115 0.11773434
000060 ab a8 a1 bd 25 51 6b 3e 7d ff 8a 40 a3 a1 2f 40
       -0.07893499 0.22980173 4.3436875 2.7442405
000070 84 e0 9d 3e 76 53 d5 bf 53 e2 d3 bf cd 2a 47 3e
       0.30835354 -1.6666095 -1.6553444 0.19449921
000080 4e 5b 33 c0 af 33 83 3e 7b 6e 69 40 93 2c 26 3e
       -2.8024478 0.2562537 3.6473682 0.16227941
000090 64 97 1c 3e bc 49 35 3e 06 81 2f 3e 0c d9 65 bf
       0.15292126 0.17703909 0.17139062 -0.8978431
0000a0 f2 a8 45 3e 2d c1 67 40 32 d2 00 40 2b 12 7c c0
       0.19302729 3.6211655 2.0128293 -3.938609
0000b0 1d f0 b1 bf 58 e5 45 3e 94 24 2e 3e 32 1b 2d c0
       -1.3901402 0.19325769 0.17006141 -2.7047849
0000c0 57 a8 1e 3e e1 10 b1 bf c7 96 d5 bf 82 51 78 3e
       0.15493904 -1.3833276 -1.6686639 0.24249843
0000d0 ab 3b 6d 3e 19 45 8f 3e c8 66 84 3e 86 22 82 3e
       0.23167293 0.27982405 0.25859666 0.25416964
0000e0 3a 56 63 3e 22 88 a1 bf cf e1 18 3e e7 2f 0a bf
       0.22200862 -1.261967 0.14929889 -0.53979343
0000f0 6d 22 54 3e a2 c0 3f 40 9e 4b 8f bf ca 64 bb bf
       0.20716257 2.9961324 -1.1194952 -1.4640133
