examples/experiments/experiment_84/critic78_2.pth (torch, 42071 bytes, 5 tensors)

l1.weight f4 [64, 90]
000000 4a c2 08 3e ae cb 1b 3d 05 60 c9 bc a6 a4 6e bc
       0.13355365 0.03803604 -0.024581918 -0.014565622
000010 8c bf 39 be de 5b 91 3d be 1d 1b 3e 31 ce d5 3d
       -0.18139476 0.070976004 0.15148064 0.104397185
000020 0f 09 51 be 4e 05 32 be 23 89 ff 3d d4 1c 93 3c
       -0.20413612 -0.17384836 0.12477329 0.017958082
000030 d8 99 99 bc 86 b1 91 bd bc ba b7 bd 55 9e 2e bd
       -0.018750116 -0.07113938 -0.08971164 -0.042631466
000040 a6 d5 08 ba 06 b5 06 bd 2b c3 cd 3b 5e 28 58 3d
       -0.00052198244 -0.03288748 0.0062793694 0.052772872
000050 a6 a1 d3 bb 1d 51 b5 bd 4e aa 63 3e 1f a0 30 3d
       -0.006458479 -0.08853362 0.22232935 0.043121453
000060 b0 a3 80 3a 09 a4 ba 3d e6 81 52 bd ad fd 8e bd
       0.0009814408 0.091133185 -0.051393412 -0.069819786
000070 e0 33 7b bd 1a 88 67 3d e4 bd a1 be 6d b8 07 bf
       -0.06132877 0.05652628 -0.31590188 -0.53015786
000080 c0 21 9f 3e 45 ca 42 bd dc cf 8d bd 49 4d 3b 3e
       0.31080437 -0.04755618 -0.06924412 0.182912
000090 87 4c e5 3d b3 e4 3f be 8d d5 75 be ae 33 57 3f
       0.11196237 -0.18739586 -0.24007244 0.8406323
0000a0 85 6b d1 3e 9b 74 4b 3e 2f 8a 0f 3e df ee 0b 3f
       0.40902343 0.198687 0.14017557 0.54661363
0000b0 f5 0e b5 bd 15 e5 10 3f aa c9 8e bd 8f 34 75 3e
       -0.088407435 0.5659955 -0.06972058 0.23945831
0000c0 2f 98 93 3e f5 a6 4f bc 22 42 9e be 77 b0 6d 3e
       0.28827044 -0.012674083 -0.3090983 0.23211847
0000d0 8d 20 bc 3e 90 c5 d8 bd 85 9b a2 bd 2c 14 4e bb
       0.36743584 -0.10584557 -0.07939819 -0.003144513
0000e0 56 6e 1d 3e ba a6 7c 3e a1 db 25 3e 0c a6 b8 3d
       0.15374121 0.24672976 0.16197063 0.09016046
0000f0 09 e2 42 40 0e 57 94 40 c4 c9 d3 bf 91 ba 5b 3d
       3.045046 4.635627 -1.6545949 0.05364472
000100 ca 9b 0e be 99 c4 aa bf 2f dd c6 bf 0a b6 08 40
       -0.13926616 -1.3341247 -1.553625 2.1361108
000110 15 43 00 40 00 c0 f2 c0 3a 18 9e c0 41 8f 22 c0
       2.0040944 -7.5859375 -4.9404573 -2.5399935
000120 e3 7a 0a c0 77 37 c2 c0 54 44 5e 3f aa b6 9f c0
       -2.1637504 -6.0692706 0.8682301 -4.991048
000130 90 9b 90 3e a9 84 34 bf 64 46 59 c0 d2 7e de bd
       0.28243685 -0.70514923 -3.3949213 -0.10864033
000140 c7 46 1c 40 1a bb 1d c0 05 8a 37 c0 11 24 9c 3f
       2.44182 -2.4645448 -2.867799 1.2198507
000150 2c 04 31 3f 79 1f cb bd bc 94 f6 bf d8 db 30 c0
       0.6914699 -0.09918112 -1.926414 -2.7634182
000160 15 6d eb bf 08 02 22 bf 22 39 4e 3d d4 d2 1c 3e
       -1.8392664 -0.6328435 0.050347455 0.153148
000170 fb c7 bf 3c 1c a9 5e 3d 34 59 a5 bd a0 04 49 3d
       0.023410788 0.054360494 -0.08073655 0.049076676
000180 c5 d7 5c bd 51 3c b8 be 97 04 e7 bd ef b2 a3 3d
       -0.05391671 -0.35983518 -0.11280172 0.07993113
000190 3b 44 44 3e 1f 1b b0 3d 9f 3b 3e 3c b0 7c 5b 3d
       0.19166653 0.08598923 0.011610894 0.05358571
0001a0 9a 8f 88 bd 73 b1 9f 3d 86 15 80 3d cd 3b 32 bd
       -0.06668015 0.07797518 0.06254105 -0.04351406
0001b0 7f a5 21 3d 22 df ad 3d 68 bf bf bd b4 5b 1b bd
       0.03946447 0.08489825 -0.0936268 -0.03792925
0001c0 d9 24 99 3c cf 0d 9b 3d 7e 00 4e 3d 15 96 a9 3c
       0.018694328 0.07570993 0.050293438 0.020701448
0001d0 66 58 03 3d 75 9c d3 bd b2 27 d1 3c e8 32 cd 3d
       0.032066725 -0.10332576 0.025531624 0.10019475
0001e0 23 c9 b3 bd 9c 1a 55 be 5e 99 fb 3d d5 ba a1 bd
       -0.08778598 -0.20810932 0.12285112 -0.078969635
0001f0 b2 ea b7 bc 55 f6 37 be 48 e5 69 bd ac 72 51 3d
       -0.022450779 -0.17965062 -0.057103425 0.05113475
000200 f6 a1 00 bd c6 e0 84 be c9 54 ce be 8c bd 38 3d
       -0.031404458 -0.2595274 -0.4029906 0.04510264
000210 17 fe 02 3c c9 04 9a bd 81 e5 50 be 32 ba f0 bd
       0.00799515 -0.07520444 -0.20400049 -0.11754264
000220 f5 4a c7 3d c5 5b df 3d a7 b2 0f 3e 71 01 06 3e
       0.09731094 0.109061755 0.14032994 0.13086487
000230 60 fc d7 bd 5b 7e 92 38 e0 4c 75 3e 21 78 c2 bd
       -0.105461836 6.985358e-05 0.23955107 -0.09495569
000240 67 dc 64 3e c2 49 83 3c 18 a6 d2 bd d2 f1 7b be
       0.22349702 0.016026381 -0.10285586 -0.24603966
000250 1b e5 e0 3d ad 43 2e 3e fa 8a 08 40 6d 1f 03 40
       0.109811984 0.17018004 2.1334825 2.048793
000260 cf d1 4e bf 39 3c 8d 3f c9 2b 1f bf 25 62 f4 3f
       -0.8078889 1.1034003 -0.62176186 1.9092451
000270 8c 04 90 3f c7 3e 00 bf 9e b7 80 bc ff cc 58 40
       1.1251388 -0.5009579 -0.015712555 3.387512
000280 44 38 8d 40 0a a2 a1 bf 78 b4 0c bf 1b c0 23 be
       4.4131184 -1.2627575 -0.54962873 -0.15991251
000290 f5 48 de 3f 10 c6 a5 3f 4a 46 9b bf 81 dd 72 bf
       1.7366015 1.2951069 -1.2130826 -0.9486924
0002a0 85 73 cb bf 4d 9c dd bf 83 bf ae 3f 0b 0e be bd
       -1.5894629 -1.7313324 1.3652195 -0.09280022
0002b0 97 02 d5 bf a7 fc 51 3f bf f8 22 c0 51 30 e7 be
       -1.6641415 0.8202614 -2.5464323 -0.4515405
0002c0 59 fe 71 3f fa 57 37 40 6f 33 77 bf 9c 41 10 c0
       0.9452873 2.8647447 -0.96562856 -2.2540045
0002d0 eb b3 f5 bc dc f0 bb 3c 5c 10 2c bd a1 98 bb 3c
       -0.029993018 0.022942 -0.04200779 0.022899928
0002e0 fe d6 43 3d 62 3e a0 bc 92 3a 11 3f e2 f8 1b 3f
       0.047812454 -0.019560996 0.56729996 0.6092664
0002f0 ff ae 05 bf b3 bc 8e 3e 7c 20 eb 3c 3a 25 9f bd
       -0.5222015 0.2787834 0.028702013 -0.07770772
000300 c9 9f f3 3d a9 df a6 bd 0c 4d 1d be 6f cf af bc
       0.11895711 -0.081481285 -0.15361422 -0.021461217
000310 4c f2 bb 3d b9 e2 79 3b ba de 42 3d 5e 26 ad bd
       0.09177074 0.0038129522 0.04757569 -0.084545836
000320 ac 26 e9 3d 90 21 c7 3d 19 84 92 bd 02 d3 bf 3d
       0.11384329 0.097231984 -0.07154102 0.093664184
000330 db 21 00 3e 87 c6 01 bc 12 f5 e2 3c 78 e7 b3 3d
       0.12512915 -0.007920868 0.02770475 0.087843835
000340 b4 2d 22 3c 4d 50 c6 3d 28 57 c4 3d 03 37 2e 3e
       0.009898592 0.09683285 0.09586936 0.17013173
000350 b0 de 79 3d 41 82 05 3e 79 c9 04 be 00 3c 10 3e
       0.061003387 0.13037969 -0.1296748 0.14085388
000360 4f be 00 3e 55 a5 03 3e 40 47 fc bd bb 26 d9 3d
       0.12572597 0.12856038 -0.12318277 0.106030904
000370 f0 0d c7 3e 0d 67 04 3e cf 0b 46 bc fd fb 86 3d
       0.3887782 0.12929936 -0.012087776 0.06591032
000380 9b 5a 89 3d 1d f6 55 3e 21 6b 0f 3e 10 dc 87 bc
       0.06706735 0.20894666 0.1400571 -0.016584426
000390 39 69 57 3e a4 8f 06 3e 07 db 45 bf 4e cc 15 3e
       0.21036233 0.13140732 -0.77287334 0.14628717
0003a0 b4 6c 5b bd c1 8f ad bd ca 4e 79 3e 44 f6 20 bf
       -0.053570464 -0.084746845 0.24346462 -0.6287577
0003b0 7f 5a c0 3e b9 af 2a 3e aa 6e 13 3e 42 ae a4 bd
       0.37569043 0.16668595 0.14397684 -0.080410495
0003c0 a6 72 18 3f 96 3a c9 3e c4 73 b9 be c2 54 32 bf
       0.5954994 0.3930251 -0.36221135 -0.6966058
0003d0 6d 67 62 3b fd 88 53 bf 0b ea 94 3f 57 d9 81 3d
       0.003454651 -0.826309 1.1633924 0.063402824
0003e0 9c 75 c2 3f cc 36 e3 bd 31 34 ed bf fa 9b 82 bf
       1.5192142 -0.11094436 -1.8531553 -1.020385
0003f0 3c c9 26 3f 27 56 c8 3d 1b c2 8e bc 15 a0 76 bf
       0.6515081 0.09782057 -0.017426541 -0.96338016

l1.bias f4 [64]
000000 3c f1 04 3e aa 01 01 3c 9f ca 3b 3e 97 10 56 3b
       0.12982649 0.007873932 0.18339013 0.0032663697
000010 a5 56 9d 3e f0 c5 68 3e 3b 9d 80 bc 67 be 8e 3e
       0.30730167 0.22731757 -0.015699973 0.2787964
000020 4f 0f 65 3d b3 73 7f 3c 9b 94 db 3e 64 f6 0b 3e
       0.055922803 0.01559155 0.42886814 0.1366821
000030 cb 1c be 3e a0 5f d1 bd f2 79 8b bd 42 d4 a1 3e
       0.37131342 -0.10223317 -0.068103686 0.31607252
000040 31 3c 6a 3e 1c d8 97 bc 9f 1e 94 3d fb 42 ba 3e
       0.22874524 -0.018535666 0.07232403 0.36379227
000050 74 fb 5f bd 88 01 6d 3c c9 17 b4 bd f8 9c 2b bb
       -0.054683164 0.014465697 -0.08793599 -0.002618609
000060 19 c7 d1 bd db 04 d9 bd 32 8b 86 3e 7e 53 e4 bb
       -0.10243053 -0.10596629 0.26278073 -0.006967961
000070 a9 24 99 bd ed af 0f 3d bd 33 75 3c b8 84 0d 3e
       -0.074776955 0.035079885 0.014965949 0.1382016
000080 22 39 47 3e 19 de 92 39 1d e9 82 ba aa 8d 19 bc
       0.19455388 0.00028012766 -0.0009987686 -0.009372154
000090 e6 d0 03 bd 26 2b 7e 3e 9c 86 92 3d 76 45 49 3d
       -0.032181643 0.24821147 0.07154581 0.04913851
0000a0 61 bf 90 3e f6 10 2e bd 26 8b 9b bb 43 76 1f 3e
       0.2827101 -0.042496644 -0.0047468124 0.15572457
0000b0 71 cb ba 3d 92 fb 1c 3c f3 e3 34 3b f4 b7 55 bb
       0.091208346 0.009581463 0.0027601689 -0.0032610865
0000c0 c0 4e f0 3d 27 87 03 bd 3c e3 f6 3d da a0 cb 3b
       0.1173377 -0.032111313 0.1205506 0.0062142434
0000d0 7a 53 f7 3d 82 e0 26 3e 12 97 62 3e 9c 5e a5 bd
       0.12076469 0.1629658 0.22127941 -0.08074686
0000e0 71 78 7f 3e 3b a9 2a bc a3 3f 92 be be 69 94 bb
       0.24948289 -0.010416324 -0.28564176 -0.004529207
0000f0 44 72 93 3c 36 90 90 3e 2e 44 07 3c 57 7f a1 3d
       0.017998822 0.28235024 0.008256001 0.07885616

l2.weight f4 [64, 64]
000000 89 6a 95 be 0d d2 5b be 8d 2b 94 3e 50 d3 99 3d
       -0.29182842 -0.21466847 0.28939477 0.07511008
000010 71 a8 e8 3e 6e 22 c3 3e df 78 03 3c 7c 4f 31 be
       0.4544101 0.38112205 0.008024423 -0.17315477
000020 03 f2 16 be a2 7e d3 3e 84 d7 eb 3e 5e da 89 3d
       -0.14740758 0.4130755 0.46062863 0.06731103
000030 01 b6 f5 be f2 80 a9 3d 6c eb c6 c0 f3 c1 7f be
       -0.4799042 0.082765475 -6.216238 -0.2497633
000040 12 9e ba 3e ff 93 b4 be 17 e3 ae be 48 ef 4e be
       0.36448723 -0.35269162 -0.3415763 -0.20208466
000050 af 78 30 bf 77 64 c5 3e b2 24 ea bd 06 53 26 bd
       -0.6893415 0.3855321 -0.1143278 -0.04060652
000060 f2 99 84 bd ab 67 92 bd ec 37 42 be a4 4c 9c bd
       -0.06474675 -0.07148679 -0.18966645 -0.076318055
000070 9f 51 69 bf 7d aa 1c be 15 0e 30 3e b2 43 bf be
       -0.9114017 -0.15299411 0.17192872 -0.37356335
000080 e9 95 d2 bd 17 5d b6 bf 35 5d 8f be 7b 6e 9a 3d
       -0.10282499 -1.4247159 -0.280008 0.07540604
000090 09 e5 58 bf 5a 51 f6 3f 30 be 98 3e 89 40 65 3c
       -0.8472448 1.9243577 0.29832602 0.013992437
0000a0 41 00 0e 3e 26 73 35 be 12 29 54 be 60 66 06 bf
       0.13867284 -0.17719707 -0.20718792 -0.5249996
0000b0 4f 96 33 3d fe 2f 8e bd 7b 92 7e be 69 ab b1 be
       0.043844517 -0.069427475 -0.24860565 -0.34701088
0000c0 35 00 9b 3e c2 93 91 3d 17 6e 45 3d 9b 91 29 3c
       0.30273595 0.07108261 0.048200693 0.010349656
0000d0 37 5a a1 3d 2b c4 61 be b8 b7 02 bf 7c 25 1a 3d
       0.07878535 -0.22047488 -0.5106158 0.037633404
0000e0 be d7 8e bd a2 75 c4 bb d6 28 ce bf d0 b9 60 3c
       -0.06974743 -0.0059954682 -1.6106212 0.013716176
0000f0 d8 79 70 bd ff f7 43 3e 4d 14 27 be 0c 2f 65 be
       -0.05870995 0.19137572 -0.16316338 -0.22381228
000100 6d f0 79 be d3 6f 87 3e 37 4f c8 3d 66 bb 80 be
       -0.24408121 0.26452503 0.09780734 -0.25142974
000110 f7 cc 14 3e 99 4b 80 bd 0d 1f 51 3e d6 da b7 be
       0.14531313 -0.06264419 0.20422001 -0.35909146
000120 48 cc f2 3e 47 42 e6 bd fb 27 8f 3c ba 5d 65 3e
       0.4742148 -0.1124311 0.017475119 0.22399035
000130 5d 4d 96 bd a0 73 03 3d 74 67 8c 3d ef e8 fa bd
       -0.073389746 0.03209269 0.068556696 -0.1225146
000140 47 71 94 3e 5b fd 03 be 5a d1 b6 be 14 76 4e 3e
       0.28992674 -0.12889616 -0.35706598 0.2016223
000150 26 78 31 3d 88 78 2f 3f 20 24 be bc b2 c4 55 3f
       0.043327473 0.6854329 -0.023210585 0.8350326
000160 79 74 db 3d 6c f2 48 bd 38 f9 b9 be 24 81 da 3d
       0.10715575 -0.049059317 -0.3632295 0.10669163
000170 86 5a 83 bf 01 ef 17 bf fa cd 18 bd 1e 73 c5 bd
       -1.0262 -0.59349066 -0.03730581 -0.096410975
000180 42 bd 12 3d f1 ab 3f 3e 6c 2f 44 bc 13 5f cf 3e
       0.03582502 0.18717934 -0.011974197 0.40502223
000190 51 13 bd be 29 5a 17 41 e0 d6 01 be 2c 73 22 3f
       -0.369288 9.459512 -0.12679625 0.6345699
0001a0 02 28 83 3c e2 2c 77 3d fa b3 b8 3f 79 32 a5 3e
       0.016010288 0.060345538 1.4429924 0.3226507
0001b0 08 64 73 3e d1 16 6f 3f cd 89 a7 3f fc 92 c0 3e
       0.23768628 0.9339419 1.3088928 0.3761214
0001c0 01 24 45 be 7d 13 aa 3e b7 c3 18 3d 5e 12 d1 3e
       -0.19252016 0.33217993 0.037296023 0.40834326
0001d0 3d 60 1e be a5 9c f4 3c 98 ad 57 be 38 51 19 3d
       -0.154664 0.02985985 -0.21062315 0.03743097
0001e0 aa 18 09 be 10 e5 03 be 7b a6 83 41 7e 55 9d 3e
       -0.13388315 -0.12880349 16.45629 0.30729288
0001f0 33 3e 5b 3d 7f 7b bd bc a3 23 60 3f 1b a3 7c 3e
       0.053526115 -0.023130177 0.8755438 0.24671595
000200 b1 8f 05 3d c4 14 4b bd c1 5c 7b 3e ae a2 14 3e
       0.032607738 -0.04958035 0.24547102 0.14515182
000210 bf f4 39 3d 6d 1d 06 3e 44 c4 52 bf ae ee 59 bc
       0.045399424 0.13097163 -0.8233073 -0.013301535
000220 d0 4c ba bd 0a 1e 4d bd bd 1e 34 3e c5 52 81 bc
       -0.09096682 -0.050077476 0.1758985 -0.015786538
000230 6b 04 fe 3e 14 ee 32 3d 8c 29 66 be 05 49 0e bd
       0.49612746 0.04368408 -0.22476786 -0.034737606
000240 c5 29 53 3e 9b 7a 7e 3d 47 43 cf bd bd 61 b1 3e
       0.20621403 0.062128644 -0.10120254 0.3464488
000250 65 6f 1f 3e 47 6c 11 be 73 aa 0a be ac 64 35 3e
       0.15569837 -0.14201461 -0.13541584 0.17714185
000260 d1 9f 94 3d 4c 19 cc 3c e0 ed d5 3e e7 e1 65 3d
       0.07257045 0.024914406 0.41783047 0.05612364
000270 4d e0 92 3f 80 c1 3b 3e 7f 75 73 3e 34 13 12 3e
       1.1474701 0.18335533 0.2377529 0.14265138
000280 48 2f f2 bc 58 a0 16 3d a6 8d ff 3e 7d a2 07 3f
       -0.029563561 0.03677401 0.49912757 0.5298231
000290 00 b3 1e 3f e2 1e 17 c1 93 68 ab 3d c5 6f 86 3e
       0.6199188 -9.44504 0.08369555 0.26257148
0002a0 e3 54 ac 3e eb 37 86 3e b1 e9 9c be d4 ea c1 3d
       0.33658513 0.26214537 -0.30647042 0.09468618
0002b0 db 43 c8 3c 32 ec 15 bf 42 d7 de be fb 09 fa 3e
       0.024446419 -0.5856353 -0.43523604 0.4883574
0002c0 7f c3 80 3e d9 94 1d be 92 4a 6a 3e b5 3b 44 3d
       0.25149152 -0.15388812 0.22880009 0.047908504
0002d0 d8 08 2a 3f af d3 8c 3e 6c 6f e0 3e c6 75 c2 bd
       0.66419744 0.27505252 0.43835008 -0.0949512
0002e0 86 82 2c 3d d1 3c 07 be b7 00 43 c1 d0 17 b1 3e
       0.042116664 -0.13206793 -12.1876745 0.3458848
0002f0 1b 01 13 be b4 ee 77 3e 95 6e 73 bd f1 c7 96 3d
       -0.1435589 0.24212152 -0.05943163 0.073623545
000300 b7 62 c7 be 91 63 54 bd da 55 82 3d 4a 62 12 bd
       -0.389425 -0.051852766 0.06364031 -0.035738267
000310 50 45 bd be bf bd 4f 3e 23 1f b2 3c a1 e9 93 3d
       -0.36966944 0.20287226 0.021743363 0.072222956
000320 f0 15 16 bd 88 bc 82 3e 36 ac 7e be 08 13 8a be
       -0.036642015 0.25534463 -0.24870381 -0.26967645
000330 e0 65 0b 3f 54 9b 53 3d 07 6b 4e bf 5a 7c 6e 3e
       0.54452324 0.051661804 -0.8063206 0.23289624
000340 d7 35 c6 3e 8a 2f 8d b8 af a2 44 be 54 3c 46 be
       0.38712952 -6.732259e-05 -0.19202684 -0.19358951
000350 7c 2b 28 3f ef e4 23 3d 3e 5c a7 3d 68 72 3b be
       0.6569135 0.04001325 0.08171891 -0.18305361
000360 48 16 85 bd 80 2e 9d bb 64 66 c9 3e 1c 5c 6b 3d
       -0.064983904 -0.004796803 0.3933593 0.05746089
000370 b4 7b 0d bf b4 2b 39 be 42 10 87 bf de 89 7d bd
       -0.5526688 -0.18083078 -1.0551836 -0.06189906
000380 fb eb 07 3e a6 8d 7b bf 48 1a 06 3d 26 f5 c5 bc
       0.13273613 -0.98263013 0.032739908 -0.024164747
000390 dd 41 1f bd 60 b6 58 3e c3 6b c7 3d 99 0e 48 be
       -0.03888117 0.2116332 0.09737351 -0.19536819
0003a0 66 93 a4 3d 3f 81 5d bc a5 69 99 3c 1d c9 87 be
       0.080359265 -0.013519584 0.018727133 -0.26520625
0003b0 64 a1 af 3d 3e 2d b2 3d d5 0c 09 bd eb 7b 93 3c
       0.08575705 0.087000355 -0.033459503 0.018003425
0003c0 df d6 89 3e ae b2 16 3d 00 45 47 bf 80 f0 bd bf
       0.26921746 0.036791496 -0.7783966 -1.483902
0003d0 37 d3 19 be dd dd 1d bf 29 5f d3 3d b0 14 9c 3d
       -0.15021978 -0.6166666 0.10320885 0.07621133
0003e0 61 e6 d4 3d 63 bf 93 bd a5 58 1b c0 de 17 0b bd
       0.10395504 -0.072142385 -2.4272854 -0.03395831
0003f0 56 c4 07 be 0d 54 55 bf 97 2a bd be b8 6e c5 3e
       -0.1325849 -0.83331376 -0.36946556 0.38561034

l2.bias f4 [64]
000000 97 1b 2a 3e 80 22 57 bd 8d 01 d0 3d 9d 70 81 3e
       0.16612087 -0.052523136 0.10156546 0.2528123
000010 60 3c d6 3d 51 2b 63 3e cb 61 b2 be 69 a7 a5 3e
       0.10460734 0.22184493 -0.34840235 0.32354286
000020 e7 c8 8a 3e 4d ac 28 bd 78 46 2c bd 13 3f 4e bc
       0.271064 -0.041179944 -0.04205939 -0.01258828
000030 f1 35 74 3c fc 9e 29 3d 90 c8 e0 3d 0e cf 02 3e
       0.014905439 0.041411385 0.10975754 0.12774298
000040 bc e8 ec bd 2a db 80 be 34 5a 30 3d 1d 6d 5d 3d
       -0.11567828 -0.2516721 0.043054774 0.054059137
000050 c4 54 67 3e 1c 00 0e 3e 6c 82 a6 3d 77 db 18 be
       0.2259093 0.13867229 0.08130345 -0.14927469
000060 ce c0 03 be 96 a6 6c 3e e9 0d 22 3d 7d 20 a5 bd
       -0.12866518 0.23110422 0.039564047 -0.08062837
000070 93 b0 0d 3e 2c 2f 17 3e 8a 35 84 be 23 2b ce 3d
       0.13836889 0.14764088 -0.25822097 0.100668214
000080 d3 9a 44 3e 2f 18 6e 3d 9f ef b4 be d0 86 af 3e
       0.19199686 0.058128532 -0.35339066 0.3428254
000090 38 10 fa 3d 56 00 98 3d a9 e8 09 3e 91 0e 56 3e
       0.12210125 0.07421939 0.13467659 0.20903994
0000a0 94 df dd 3d 07 1e 97 bd 16 40 b8 be 0c 48 54 3e
       0.1083366 -0.07378774 -0.35986394 0.20730609
0000b0 9c 11 22 bd a6 ef 7f bd 31 02 4b be c3 32 8a 3d
       -0.039567575 -0.062484406 -0.19825055 0.06747963
0000c0 a8 a2 99 3b 9a 71 65 3e a9 12 55 bf 9a 0c a1 bd
       0.0046885796 0.22406617 -0.832316 -0.07863732
0000d0 1b ec bf be 03 e1 a5 be d8 5e 2c 3e d2 27 7f 3e
       -0.37484822 -0.32398233 0.16833055 0.24917534
0000e0 0c 6e 20 3e 8d cc 59 be b5 00 3f 3e 4d ec 20 bc
       0.1566698 -0.21269436 0.18652613 -0.0098219635
0000f0 ad 8b 07 3e 07 2d 0a be e4 41 fd 3d bb d1 1d 3e
       0.13236876 -0.13493739 0.12366083 0.15412037

l3.weight f4 [1, 64]
000000 20 8a a0 bf f0 13 9c 40 92 f1 b6 3e f8 f9 ac c0
       -1.2542152 4.877434 0.3573118 -5.405514
000010 e4 13 02 c0 56 6f 8f 3e e6 36 0b c0 fb 50 a8 bf
       -2.032464 0.2801463 -2.1752257 -1.3149713
000020 14 b8 bf bf 87 93 4f c0 30 f3 85 c0 c6 b3 3a c0
       -1.4978051 -3.2433794 -4.185936 -2.9172225
000030 45 7a c1 bf 84 ee db c0 12 bb 6d c0 a1 e3 a4 bf
       -1.5115439 -6.8728657 -3.7145429 -1.2881967
000040 56 ef 15 42 1d 6e 32 40 c4 0e 92 c0 09 cd f9 3f
       37.483727 2.7879708 -4.5643024 1.9515697
000050 dd 18 39 40 3b 24 a9 3e c3 0e 90 40 e0 e4 d4 bf
       2.8921425 0.33035454 4.501802 -1.6632347
000060 73 a7 cd 3d a7 04 ac 3e 9f dc dd c1 36 5d fa 40
       0.10041704 0.335973 -27.732725 7.8238783
000070 f3 a7 da 3e b7 0a 2d 40 1e 6c b2 c1 9f 43 14 c0
       0.4270626 2.703779 -22.302792 -2.3166273
000080 f7 43 c5 3e 8e 16 03 c0 52 36 9a bf 47 08 1c c1
       0.38528416 -2.0482516 -1.2047827 -9.752021
000090 6d 99 21 40 9c 9b 49 40 f7 0e 8c 3e 5e f7 b9 3e
       2.5249894 3.1501226 0.27355167 0.3632154
0000a0 be d6 61 bf eb 13 a7 bf b1 65 46 bf 65 cc 85 3e
       -0.88218296 -1.3052953 -0.7749892 0.26132503
0000b0 e9 b0 32 3f de 27 c5 bf 1f 52 b4 bf 67 80 16 41
       0.69801193 -1.5402792 -1.4087561 9.406348
0000c0 a3 80 0e c0 e7 4f b6 3e 33 56 c1 c1 20 b0 88 bf
       -2.2266014 0.35607836 -24.16709 -1.0678749
0000d0 9f c5 cf c1 df 66 c9 bf c7 5a 88 40 fd 44 9a c0
       -25.971495 -1.5734519 4.261081 -4.8209214
0000e0 df a7 96 bf d2 97 0c c0 0e 52 8c 3e f8 10 93 bf
       -1.176998 -2.1967664 0.27406353 -1.1489553
0000f0 ac 0c 6b bf 06 be 28 bd 8e 87 f6 3e 0a 44 bd 3e
       -0.9181621 -0.041196845 0.48150295 0.36965972
