examples/experiments/experiment_96/actor24_4.pth (torch, 28759 bytes, 6 tensors)

l1.weight f4 [64, 36]
0.05671858 0.014825197 0.08691904 0.03924344 0.12202912 -0.015784612 0.14170644 -0.14434384
-0.028054891 -0.014563634 -0.10578145 0.06902276 -0.084717765 0.06204435 0.0489287 -0.124401025
-0.06329666 0.08576688 0.13680196 -0.0797353 -0.12965488 0.08520856 0.088121794 -0.06308716
-0.07927996 0.1675459 -0.09808394 -0.1605296 -0.10121057 0.05803018 0.0650017 -0.06072216
-0.1545112 0.09267589 -0.040313095 -0.073590666 0.2149072 0.31618598 0.028220272 -0.18021242
0.029779395 -0.0072374097 0.8919839 0.03651637 1.8983921 -0.049935807 -0.0092198085 0.021743428
-0.3410892 0.15749632 0.016558276 -0.28499758 0.16565612 -0.25932238 -0.2199187 -0.05730935
-0.06739317 0.16688499 0.0199585 0.14620014 -0.02825167 0.20145106 0.17452325 0.072892375
-0.00040433527 0.14895575 0.3538925 0.13652676 0.21727133 0.26631725 -0.008080683 0.16818447
0.060954392 0.0019681256 -0.090311214 -0.046848558 0.0048423214 -0.12690578 0.16098599 -0.13593724
0.04986777 -0.006965637 0.06606611 -0.02302589 0.014885664 0.09762375 0.01515013 -0.0699543
-0.008642754 0.015325129 -0.1544142 -0.026755493 0.09579637 -0.0717113 -0.14375113 -0.12892708
-0.10498822 0.051923536 0.081835315 -0.13481241 -0.035137873 0.0028401613 0.11567744 -0.13987586
-0.098654255 0.10805255 0.08824752 -0.05573255 -0.21044004 0.059102766 0.0920085 0.0941384
0.064917885 0.056304447 2.9255884 3.5648038 -0.7704604 0.1529366 0.020028474 0.13314287
-0.056099776 -0.011719311 -0.05476231 0.0826728 -0.25178304 0.042006694 0.066192806 -0.19407025
0.0070929043 -0.0744288 -0.04582955 0.17554621 0.058248617 0.114774175 -0.07741648 -0.03376935
-0.06520225 -0.045167502 -0.24056095 0.06395221 0.14533702 -0.048920874 0.036853395 -0.09541572
0.052457463 0.2764354 -0.05249077 0.038393565 -0.04394968 -0.008088651 1.6694453 -3.7650483
-0.53786767 -0.0029230777 0.067833856 -0.0074142683 0.1628289 -0.03565803 0.06759656 0.047484946
0.00028544042 0.025398483 -0.057607695 -0.0017451608 -0.04179024 0.07968244 0.09111418 -0.03990412
0.10050259 0.035523795 0.12719338 -0.06475759 0.10029764 -0.093516976 -0.0649378 0.065300725
0.011023358 0.09543483 -0.0006157157 -0.1113501 -0.068089485 0.10168199 -0.06379175 -0.06984739
0.16253945 0.022692304 0.08435242 0.102291904 0.014464101 -0.08047652 -0.11052307 0.10850887
-0.054487646 0.009950757 -0.025697052 0.08163452 0.10188334 -0.13575846 0.04691146 -0.05515492
0.0758419 -0.15271991 0.07668756 -0.046072148 -0.12547557 -0.110603854 -0.07499027 -0.04111157
0.07361834 0.11238901 -0.09070623 0.03536441 0.15622346 -0.0254157 -0.029640377 0.108088896
0.017698452 0.4500887 0.004941563 -0.035602022 0.0068170466 -0.07693563 -4.4950905 -2.5231164
-0.35601816 -0.11244494 0.1411161 -0.11236157 0.20361355 0.20873949 0.0023309297 -0.0083002485
-0.10315814 -0.08770071 -0.026319752 -0.013528794 -0.015676007 0.034773234 0.20334594 -0.08660654
-0.0333017 0.20275688 0.13895729 0.1496582 0.01779399 -0.02395449 -0.0926671 0.08075365
0.08674039 0.018552145 -0.3583021 0.21189818 0.2140785 0.44055817 0.15880498 -0.03613429
00000000: be51 683d 62e5 723c 9c02 b23d bbbd 203d
00000010: 67ea f93d bb4e 81bc 7e1b 113e dfce 13be
00000020: 5fd3 e5bc 4f9c 6ebc f2a3 d8bd ce5b 8d3d
00000030: 8280 adbd 3722 7e3d 7669 483d f7c5 febd
00000040: aea1 81bd 8ca6 af3d d015 0c3e 434c a3bd
00000050: 40c4 04be d381 ae3d 3379 b43d d733 81bd
00000060: 885d a2bd 2791 2b3e 3ce0 c8bd df61 24be
00000070: 7d47 cfbd 0eb1 6d3d 9c1f 853d cdb7 78bd
00000080: 2f38 1ebe dbcc bd3d 581f 25bd b4b6 96bd
00000090: a210 5c3e 21e3 a13e 332e e73c 9b89 38be
000000a0: ebf3 f33c cb27 edbb 0f59 643f 3092 153d
000000b0: 83fe f23f 7d89 4cbd ae0e 17bc 461f b23c
000000c0: 3ea3 aebe b746 213e 39a5 873c 34eb 91be
000000d0: c2a1 293e e7c5 84be 5e32 61be 36bd 6abd
000000e0: 6e05 8abd e6e3 2a3e 0280 a33c 7db5 153e
000000f0: 0c70 e7bc 3049 4e3e 39b6 323e 9948 953d
00000100: f6fc d3b9 db87 183e 6631 b53e accd 0b3e
00000110: 607c 5e3e bc5a 883e d764 04bc 8d38 2c3e
00000120: 50ab 793d abfb 003b 16f5 b8bd 46e4 3fbd
00000130: 56ac 9e3b 97f3 01be 83d9 243e 2233 0bbe
00000140: 2642 4c3d 0040 e4bb ab4d 873d cba0 bcbc
00000150: 00e3 733c f6ee c73d 4038 783c 3344 8fbd
00000160: 569a 0dbc 4016 7b3c c21e 1ebe 562e dbbc
00000170: e330 c43d 60dd 92bd 7f33 13be 7605 04be
00000180: 1004 d7bd c6ad 543d 4699 a73d 440c 0abe
00000190: bbec 0fbd 0022 3a3b 4be8 ec3d 9e3b 0fbe
000001a0: 3e0b cabd a84a dd3d 1ebb b43d d047 64bd
000001b0: 987d 57be be15 723d f46e bc3d a2cb c03d
000001c0: abf3 843d 7e9f 663d d73c 3b40 bf25 6440
000001d0: e53c 45bf 699b 1c3e c112 a43c 9b56 083e
000001e0: e1c8 65bd 5a02 40bc 724e 60bd 5b50 a93d
000001f0: b5e9 80be 360f 2c3d 1890 873d 5aba 46be
00000200: 986b e83b 206e 98bd c4b7 3bbd 63c2 333e
00000210: 1a96 6e3d b90e eb3d 888c 9ebd bb51 0abd
00000220: c288 85bd 8f01 39bd 9c55 76be 60f9 823d
00000230: 3ad3 143e 4161 48bd 96f3 163d 5169 c3bd
00000240: a3dd 563d f188 8d3e 9000 57bd 9242 1d3d
00000250: 9404 34bd 4386 04bc 62b0 d53f 8df6 70c0
00000260: b2b1 09bf 1b91 3fbb 7aec 8a3d 64f3 f2bb
00000270: 9fbc 263e 280e 12bd 1170 8a3d 937f 423d
00000280: 2aa7 9539 7b10 d03c 0cf6 6bbd e1bd e4ba
00000290: 3e2c 2bbd 8c30 a33d 129a ba3d 8172 23bd
000002a0: 4dd4 cd3d 6681 113d fb3e 023e a19f 84bd
000002b0: d968 cd3d d485 bfbd 1cfe 84bd 63bc 853d
000002c0: 519b 343c 5673 c33d fb67 21ba 850b e4bd
000002d0: 8072 8bbd a63e d03d 40a5 82bd 260c 8fbd
000002e0: be70 263e 36e5 b93c f6c0 ac3d 6b7e d13d
000002f0: d6fa 6c3c e0d0 a4bd eb59 e2bd e639 de3d
00000300: 702e 5fbd 8008 233c a082 d2bc 0030 a73d
00000310: 36a8 d03d 4404 0bbe 3b26 403d 20ea 61bd
00000320: 0053 9b3d 9c62 1cbe 5e0e 9d3d 26b6 3cbd
00000330: ab7c 00be 4684 e2bd 8094 99bd 9b64 28bd
00000340: 36c5 963d 362c e63d 30c4 b9bd 46da 103d
00000350: 0bf9 1f3e 9634 d0bc 60d0 f2bc b65d dd3d
00000360: 58fc 903c 0772 e63e d6ec a13b 6dd3 11bd
00000370: 8861 df3b 6d90 9dbd c8d7 8fc0 bd7a 21c0
00000380: 0348 b6be 8849 e6bd bd80 103e d31d e6bd
00000390: 1280 503e cebf 553e 83c2 183b c4fd 07bc
000003a0: 9344 d3bd 6e9c b3bd 859c d7bc e0a7 5dbc
000003b0: f86a 80bc 616e 0e3d eb39 503e c55e b1bd
000003c0: 5d67 08bd 809f 4f3e d24a 0e3e 0040 193e
000003d0: b4c4 913c 353c c4bc 40c8 bdbd 2b62 a53d
000003e0: f2a4 b13d abfa 973c 5f73 b7be d6fb 583e
000003f0: 6537 5b3e d790 e13e c69d 223e 8d01 14bd

l1.bias f4 [64]
-0.11296178 0.045809355 -0.12809023 0.12344607 0.07236885 -0.11780429 0.067500696 -0.023410672
0.15162951 -0.16555294 0.13880132 0.0020894825 0.02603332 0.13413507 -0.09000107 0.06572284
0.009508752 0.05308776 -0.15645736 0.042127073 0.062472396 0.056949917 0.0065481206 0.039548658
0.02548655 0.08974661 -0.14254564 0.006883676 0.15037271 -0.077831104 -0.12806962 0.11982266
-0.107714914 0.09921892 0.064430505 0.10820707 0.06833504 0.084865175 -0.019318495 0.04472529
-0.10479301 0.14428791 0.11952576 0.072867066 0.08597199 0.09070753 0.1243232 0.0843325
0.09490699 0.0832772 0.05547819 0.07861127 0.044640087 0.07739137 0.04613606 0.17601015
0.12575997 -0.14269559 0.10166444 0.043586437 -0.10883784 0.056504298 0.057751197 0.2240936
00000000: 8158 e7bd 97a2 3b3d 162a 03be 4bd1 fc3d
00000010: 1f36 943d 6043 f1bd ce3d 8a3d bdc7 bfbc
00000020: c444 1b3e b686 29be ef21 0e3e b3ef 083b
00000030: d443 d53c b45a 093e 7b52 b8bd b299 863d
00000040: 99ca 1b3c 8d72 593d 5c36 20be 708d 2c3d
00000050: 0ee3 7f3d 5144 693d 9e91 d63b c6fd 213d
00000060: 2bc9 d03c 12cd b73d 7cf7 11be 7690 e13b
00000070: 4efb 193e ea65 9fbd af24 03be 9565 f53d
00000080: a399 dcbd 4a33 cb3d 24f4 833d ab9b dd3d
00000090: 3ef3 8b3d cbcd ad3d d241 9ebc de31 373d
000000a0: b89d d6bd 36c0 133e ecc9 f43d 543b 953d
000000b0: 1512 b03d dfc4 b93d 299d fe3d 85b6 ac3d
000000c0: 995e c23d 3d8d aa3d 193d 633d f2fe a03d
000000d0: 86d8 363d 5e7f 9e3d 2af9 3c3d 013c 343e
000000e0: 39c7 003e cb1e 12be 7235 d03d b187 323d
000000f0: 60e6 debd 0d71 673d 858c 6c3d cb78 653e

l2.weight f4 [64, 64]
-0.03022268 0.07980902 0.09359497 0.06797772 -0.3802192 -0.06698908 0.085364394 0.20788534
0.106170766 0.04636915 0.13157815 0.051292714 -0.083506815 -0.10304523 -0.09881219 0.06868826
-0.043097094 0.19048804 -0.12279253 -0.38107926 -0.016269872 -0.2410942 -0.019605776 -0.064304955
-0.13841912 -0.021374252 -0.04932405 0.13542756 0.15365113 -0.025837433 -0.049098954 0.38505146
0.0390691 -0.43945175 -0.22625859 -0.25774404 -0.25429007 0.25439218 0.16183232 0.1460946
0.12302245 0.26411715 0.22590786 0.20186046 -0.19654134 0.37288904 0.19739945 0.06855377
-0.120826334 0.12285453 -0.30968443 0.288567 0.24193344 -0.12038733 -0.15295997 0.052462935
-0.1987235 0.09273918 0.21167204 -0.02642301 0.028963298 -0.27020594 -0.12871675 0.26835382
0.058583066 0.0032694796 0.02716744 0.06234069 0.13934676 -0.086237535 0.09372538 0.08124685
-0.0782089 -0.120456904 -0.09397112 -0.059505038 0.14100643 0.1793923 0.10321824 0.2451316
0.11272566 0.07946165 -0.019595698 0.14931276 0.25435662 0.15004322 0.11487608 0.25234807
0.07874665 0.040219992 -0.081499964 -0.07747103 -0.09626482 -4.7385693e-05 -0.044710726 -0.24812314
-0.038175628 0.22416526 0.14176309 0.14521669 0.114337824 -0.30799618 -0.23362547 0.04366627
0.03329365 -0.16197652 -0.0015230749 -0.05668608 0.35882512 -0.11871141 0.04423982 0.033232126
-0.011114687 0.17847703 0.1157526 0.17519319 -0.33153525 -0.00037463362 0.2351294 0.06660123
0.28217378 -0.07655607 -0.062664755 -0.0011015976 0.0707826 0.35539788 0.12294235 -0.16302986
-0.062448487 -0.041317314 -0.06983562 -0.050348073 -0.11292246 0.08548804 -0.08683325 0.08463217
0.09266806 -0.004537672 -0.11933723 -0.057406172 0.03594181 0.11166391 0.06413464 -0.10070816
0.028290972 -0.045035407 -0.06275144 -0.077034235 0.06825739 0.047828183 -0.10210423 -0.0508416
0.055583 0.08684757 -0.08321805 -0.02742 0.018545091 0.07420416 -0.07402165 -0.02758804
-0.120424345 -0.07634577 -0.042430222 -0.095879585 0.01569356 -0.09686124 0.12317628 0.008181244
0.048061594 -0.10507515 -0.07373229 -0.05776684 -0.01054959 -0.06606895 0.08838233 0.08021167
-0.12198043 0.11436987 -0.11649291 0.052697375 -0.11165285 -0.0032809824 -0.12032123 0.12404102
-0.07483441 -0.0112065375 -0.007871181 -0.037806854 0.10943906 0.09858559 0.10193147 -0.043007508
0.08627498 0.028185587 0.10683712 -0.15986048 0.0070694 -0.0873664 0.34554586 0.22211455
0.06372608 -0.00027012825 -0.0109123755 0.13504866 0.32199278 0.13419305 0.036146745 0.51359445
0.18945876 0.4936325 -0.004334137 -0.1136543 0.38870057 0.42292154 0.051319454 0.07717455
-0.0573615 0.20894736 -0.11059934 0.074967675 -0.031096924 0.013306454 -0.11605272 0.0027207767
0.029027179 0.10045815 0.09747418 -0.09371271 0.107379384 0.23103547 0.26546478 0.3204521
-0.042800948 -0.18070786 -0.030901717 0.24563256 0.3102725 0.09055934 0.29314438 -0.09273247
0.15176834 0.44755724 0.202387 0.077224344 -0.12056948 0.11208294 -0.036832232 0.07805498
0.42580482 0.013230294 0.17001672 -0.029839642 -0.039011285 -0.09659551 -0.055370916 -0.006058944
00000000: 8e95 f7bc e972 a33d b8ae bf3d e737 8b3d
00000010: 17ac c2be 9231 89bd 87d3 ae3d e5df 543e
00000020: 0f70 d93d 94ed 3d3d 6cbc 063e 4f18 523d
00000030: 9f05 abbd 6109 d3bd 0c5e cabd 6eac 8c3d
00000040: 9486 30bd 4c0f 433e a67a fbbd d21c c3be
00000050: 6548 85bc 66e1 76be 4b9c a0bc 51b2 83bd
00000060: bebd 0dbe 0e19 afbc 0408 4abd 86ad 0a3e
00000070: b956 1d3e 06a9 d3bc fc1b 49bd 7725 c53e
00000080: ec06 203d d2ff e0be 55b0 67be 07f7 83be
00000090: 4f32 82be b13f 823e 5fb7 253e d399 153e
000000a0: 32f3 fb3d 5d3a 873e 6454 673e 82b4 4e3e
000000b0: 2242 49be 50eb be3e 1523 4a3e eb65 8c3d
000000c0: cc73 f7bd 289b fb3d f58e 9ebe 0ebf 933e
000000d0: 66bd 773e a28d f6bd 8aa1 1cbe 60e3 563d
000000e0: 2c7e 4bbe 0aee bd3d 8ec0 583e 1175 d8bc
000000f0: 7044 ed3c 6f58 8abe 53ce 03be ac65 893e
00000100: ccf4 6f3d c444 563b 408e de3c f458 7f3d
00000110: ebb0 0e3e 4e9d b0bd 18f3 bf3d c064 a63d
00000120: fd2b a0bd 1cb2 f6bd ee73 c0bd 8ebb 73bd
00000130: fd63 103e 9db2 373e 1664 d33d c703 7b3e
00000140: b6dc e63d cabc a23d 2887 a0bc 72e5 183e
00000150: 083b 823e eea4 193e 2644 eb3d c433 813e
00000160: ec45 a13d b8bd 243d 74e9 a6bd 22a9 9ebd
00000170: 7d26 c5bd 00c0 46b8 9822 37bd fe13 7ebe
00000180: 0c5e 1cbd 948b 653e 582a 113e afb3 143e
00000190: f329 ea3d adb1 9dbe 843b 6fbe 67db 323d
000001a0: ec5e 083d 2cdd 25be eaa1 c7ba aa2f 68bd
000001b0: edb7 b73e f81e f3bd d034 353d 691e 083d
000001c0: 601a 36bc afc2 363e b30f ed3d d865 333e
000001d0: fdbe a9be 796a c4b9 c3c5 703e 3a66 883d
000001e0: 1579 903e 6ec9 9cbd 6156 80bd 7b63 90ba
000001f0: 78f6 903d b6f6 b53e 33c9 fb3d 4df1 26be
00000200: fcc9 7fbd 583c 29bd fa05 8fbd c839 4ebd
00000210: e443 e7bd 5a14 af3d a2d5 b1bd a253 ad3d
00000220: c0c8 bd3d c0b0 94bb 1467 f4bd bc22 6bbd
00000230: b837 133d 0cb0 e43d 0659 833d 1440 cebd
00000240: 78c2 e73c 0c77 38bd d483 80bd 20c4 9dbd
00000250: 88ca 8b3d 7ce7 433d 061c d1bd 483f 50bd
00000260: 00ab 633d 24dd b13d 3a6e aabd e89f e0bc
00000270: e0eb 973c 5af8 973d aa98 97bd 5000 e2bc
00000280: 0aa1 f6bd 2c5b 9cbd 50cb 2dbd 845c c4bd
00000290: c88f 803c 305f c6bd d843 fc3d a00a 063c
000002a0: 3cdc 443d a431 d7bd f400 97bd ec9c 6cbd
000002b0: 30d8 2cbc 284f 87bd cc01 b53d 0446 a43d
000002c0: e0d0 f9bd c03a ea3d d693 eebd 34d9 573d
000002d0: 40aa e4bd c005 57bb fa6a f6bd 3809 fe3d
000002e0: c842 99bd a09b 37bc 20f6 00bc 5cdb 1abd
000002f0: 9621 e03d 3ee7 c93d 72c1 d03d a428 30bd
00000300: f0b0 b03d 76e5 e63c 6ccd da3d 77b2 23be
00000310: 6da6 e73b 28ed b2bd 63eb b03e ff71 633e
00000320: d282 823d 00a0 8db9 d2c9 32bc 324a 0a3e
00000330: 3ddc a43e e769 093e 9c0e 143d ed7a 033f
00000340: 7a01 423e 66bd fc3e 6005 8ebb 96c3 e8bd
00000350: c303 c73e 2c89 d83e 5934 523d b10d 9e3d
00000360: e4f3 6abd 4cf6 553e e881 e2bd a788 993d
00000370: fabe febc 5003 5a3c 0cad edbd 0f4f 323b
00000380: 68ca ed3c 01bd cd3d 8ba0 c73d 73ec bfbd
00000390: b9e9 db3d 9094 6c3e 00eb 873e 4c12 a43e
000003a0: 0c50 2fbd 7b0b 39be 9925 fdbc 1a87 7b3e
000003b0: 0adc 9e3e 2d77 b93d 0517 963e 85ea bdbd
000003c0: 2969 1b3e 3926 e53e 8a3e 4f3e cc27 9e3d
000003d0: 22ed f6bd be8b e53d 65dd 16bd 4adb 9f3d
000003e0: 1703 da3e e0c3 583c dd18 2e3e 4472 f4bc
000003f0: 4cca 1fbd ded3 c5bd 9dcc 62bd 1b8a c6bb

l2.bias f4 [64]
0.13864762 -0.043814473 -0.083518475 -0.08124463 0.008412634 -0.017049091 -0.09243576 -0.07026194
0.018479304 0.09960587 -0.058078066 -0.062227726 0.00091984525 -0.09577418 -0.12050029 0.08972079
-0.3449551 0.10348379 -0.068655655 -0.039537944 -0.08590698 -0.033853225 0.028186563 -0.032621328
-0.102105305 0.17386022 -0.11030781 0.11466971 0.07025928 -0.10051302 -0.10924759 0.1621991
-0.20645264 0.16851649 0.047916327 -0.017037533 -0.037363876 0.13536651 0.18626927 0.05901483
-0.07618431 0.14977789 0.026078155 0.064039804 0.04017318 0.009492883 0.030973235 0.06099738
-0.033841614 0.15936668 0.02767026 -0.06915767 -0.0057304227 -0.11624007 0.20433606 0.10585789
-0.19573176 0.06100883 0.06716758 -0.100881495 0.23120227 -0.054918814 0.18216188 0.059096165
00000000: a4f9 0d3e ce76 33bd bc0b abbd 9663 a6bd
00000010: 25d5 093c 89aa 8bbc f64e bdbd 7ee5 8fbd
00000020: e961 973c 2afe cb3d 44e3 6dbd 80e2 7ebd
00000030: c521 713a 4125 c4bd dbc8 f6bd 89bf b73d
00000040: f49d b0be 4fef d33d 569b 8cbd 8af2 21bd
00000050: 00f0 afbd aea9 0abd 82e7 e63c f19d 05bd
00000060: 961c d1bd 6a08 323e 10e9 e1bd f4d7 ea3d
00000070: 19e4 8f3d c5d9 cdbd 33bd dfbd 8517 263e
00000080: 5268 53be 968f 2c3e e943 443d 4c92 8bbc
00000090: dd0a 19bd 859d 0a3e 5fbd 3e3e 89b9 713d
000000a0: 8506 9cbd 605f 193e dba1 d53c 4d27 833d
000000b0: a28c 243d 0a88 1b3c 95bb fd3c 64d8 793d
000000c0: 819d 0abd 0531 233e beac e23c 89a2 8dbd
000000d0: 45c6 bbbb 460f eebd 793d 513e 05cc d83d
000000e0: e86d 48be 65e4 793d 288f 893d f59a cebd
000000f0: 4ac0 6c3e 8df2 60bd a588 3a3e d20e 723d

l3.weight f4 [3, 64]
-0.13307266 0.03823904 -0.03270991 -0.245145 -0.054466497 0.14369161 -0.1727244 -0.003371125
-0.24121436 0.25215656 -0.034857504 -0.022883907 1.9535096 -0.13663816 0.097962454 0.27841723
-4.374619 0.058402497 -0.34345967 -0.245872 -0.12412019 -0.23734067 -0.08718617 -0.018886873
-0.98039424 -0.17577632 -0.10834695 0.13336167 0.027638689 -0.10460925 -0.049825057 -0.15837692
0.9899001 -0.18886614 0.14100549 -0.5252333 0.044815157 0.14620975 -0.1675415 0.5921207
0.058422644 0.24730071 0.21099083 4.390921 -0.07233622 -0.00808704 0.08550101 0.20895992
-0.09382013 0.07703155 0.38956916 1.440795 -0.29389614 0.019235834 0.22582673 0.24431764
0.275776 0.048108723 -2.1753154 -0.12716047 0.30375147 0.060046226 0.37136173 0.067784004
0.3267151 -0.07813305 -0.0067465454 -0.124833934 0.009263126 -0.020975586 0.010528939 -0.04452036
0.31875676 -0.17973153 -0.06923806 -0.06157273 3.5629716 0.013470525 -0.18759987 0.18315256
-0.40757442 0.061873704 -0.15103059 -0.33134484 -0.08597255 0.07561355 -0.34582248 -0.012299703
0.2434644 0.26446268 -0.35763916 -0.014052709 -0.20085183 0.014621424 0.020481035 0.21984455
0.14194459 0.23960078 0.14131239 0.31315446 -0.149572 0.1446002 -0.13484211 3.838808
-0.21600255 -0.082221866 -0.2587432 0.2885899 0.017398922 0.0019900596 -0.13777271 -0.21716745
0.01539139 0.03637755 0.13132891 -0.25730732 0.49172637 0.024659514 0.3337483 0.061973184
-4.6970267 -0.10425676 10.499671 0.03213878 0.20757693 -0.014702703 0.26445445 -0.2792747
0.03243023 -0.14983058 -0.076603815 0.0071363975 -0.15491684 -0.32559317 -0.29479852 -0.12738533
-0.29527134 -0.033096455 0.052659895 -0.028906524 2.2565014 -0.24777961 -0.15968326 0.2119315
0.89475214 -0.40072808 0.08843932 0.15501341 -0.07025936 -0.3040109 0.11600689 -0.29029348
4.529994 0.13112791 0.24126233 0.35975495 0.050691206 -0.3438187 0.02716874 0.39672822
2.519164 0.45457625 0.21295013 -0.035740048 -0.19301863 0.17020024 0.55682135 0.8022803
-0.049590055 0.482195 -0.06462412 -0.13278796 -0.36142972 -0.04364982 -0.24721602 -0.19641225
-0.031338744 0.4972455 -0.27998716 -4.9578485 0.17496143 -0.09164189 -0.4674341 0.30004677
-0.3288373 -0.12400444 -0.07672255 -0.27046132 -0.0456249 0.11945188 -0.2711746 -0.05769066
00000000: 3344 08be 8aa0 1c3d d4fa 05bd 4a07 7bbe
00000010: 4318 5fbd e523 133e aade 30be 18ee 5cbb
00000020: e600 77be aa1a 813e bec6 0ebd 0877 bbbc
00000030: 9a0c fa3f e0ea 0bbe 8aa0 c83d b48c 8e3e
00000040: e1fc 8bc0 7537 6f3d f2d9 afbe dfc5 7bbe
00000050: ba32 febd 6f09 73be aa8e b2bd a5b8 9abc
00000060: 1efb 7abf b5fe 33be 01e5 ddbd f68f 083e
00000070: 886a e23c 603d d6bd 5c15 4cbd 8f2d 22be
00000080: 186a 7d3f 2066 41be be63 103e b175 06bf
00000090: 1990 373d 02b8 153e 0090 2bbe 3995 173f
000000a0: 954c 6f3d 663c 7d3e fb0d 583e 6d82 8c40
000000b0: 0325 94bd 817f 04bc 271b af3d 97f9 553e
000000c0: c524 c0bd b8c2 9d3d 9c75 c73e f86b b83f
000000d0: 8e79 96be 7894 9d3c 1f3f 673e 672e 7a3e
000000e0: 8332 8d3e a70d 453d 5e38 0bc0 5b36 02be
000000f0: 5085 9b3e 08f3 753d 2023 be3e 57d2 8a3d
00000100: 3447 a73e 3804 a0bd 2012 ddbb efa8 ffbd
00000110: 5ec4 173c fed4 abbc 9281 2c3c fb5a 36bd
00000120: 1634 a33e 8b0b 38be afcc 8dbd b033 7cbd
00000130: ba07 6440 7ab3 5c3c 2e1a 40be 588c 3b3e
00000140: 98ad d0be 486f 7d3d c3a7 1abe 08a6 a9be
00000150: 6012 b0bd 47db 9a3d a50f b1be b284 49bc
00000160: bb4e 793e a767 873e 7b1c b7be 553d 66bc
00000170: 1aac 4dbe b28e 6f3c d8c7 a73c ee1e 613e
00000180: ec59 113e e859 753e 32b4 103e c855 a03e
00000190: 6729 19be 1312 143e 0d14 0abe 08af 7540
000001a0: c62f 5dbe f063 a8bd fd79 84be 0ec2 933e
000001b0: 2f88 8e3c a96b 023b 4a14 0dbe 2561 5ebe
000001c0: 2b2c 7c3c a000 153d 167b 063e c9bd 83be
000001d0: 8fc3 fb3e c002 ca3c 0fe1 aa3e 98d7 7d3d
000001e0: 0b4e 96c0 9184 d5bd a7fe 2741 f4a3 033d
000001f0: 0c8f 543e 9be3 70bc 9366 873e 18fd 8ebe
00000200: 90d5 043d 306d 19be 76e2 9cbd 71d8 e93b
00000210: 85a2 1ebe 26b4 a6be d5ef 96be 4d71 02be
00000220: ce2d 97be 2690 07bd e7b1 573d 60cd ecbc
00000230: 856a 1040 f0b9 7dbe 0284 23be 9204 593e
00000240: 7a0e 653f 3b2c cdbe ad1f b53d d6bb 1e3e
00000250: 24e4 8fbd 51a7 9bbe 0595 ed3d 59a1 94be
00000260: b6f5 9040 6546 063e 790d 773e cd31 b83e
00000270: 95a1 4f3d 0109 b0be fa90 de3c f61f cb3e
00000280: fc39 2140 38be e83e 990f 5a3e 2864 12bd
00000290: ada6 45be f948 2e3e d88b 0e3f 3e62 4d3f
000002a0: f11e 4bbd 43e2 f63e a759 84bd 91f9 07be
000002b0: 510d b9be 27ca 32bd 3226 7dbe 4b20 49be
000002c0: 0e5d 00bd f696 fe3e 7a5a 8fbe b2a6 9ec0
000002d0: 1729 333e beae bbbd 8653 efbe bb9f 993e
000002e0: 5d5d a8be 0af6 fdbd b620 9dbd e879 8abe
000002f0: 2de1 3abd 30a3 f43d 66d7 8abe 0b4d 6cbd

l3.bias f4 [3]
-0.045022257 0.095444724 -0.08325976
00000000: 4269 38bd 8678 c33d 1884 aabd
