examples/experiments/experiment_99/actor41_4.pth (torch, 27223 bytes, 6 tensors)

l1.weight f4 [64, 30]
000000 22 85 06 be b9 21 ae bd 3f 0a 47 bd f7 b2 1e 39
       -0.13136724 -0.08502526 -0.048593756 0.00015134724
000010 d9 dd 8f be 83 bd 7d bb db d6 ea 3f ab 37 02 40
       -0.28098944 -0.0038717694 1.8346819 2.0346477
000020 f4 83 25 40 49 cc 4c bd c2 60 3f 3d a5 ac 97 3d
       2.5861788 -0.04999951 0.046723135 0.07405976
000030 a9 04 52 3e 30 4e 83 bd ce e7 ce 3d 49 1b 58 3e
       0.2050959 -0.064113975 0.10102807 0.21104158
000040 cd 2a 27 3e 50 ce 32 3d 7b 11 5f bc 45 2e 39 bd
       0.16324921 0.043653786 -0.0136150075 -0.04521014
000050 e9 e6 b2 3c 64 5e 25 be 3d 31 64 3e 7b 68 82 bd
       0.021838622 -0.16149288 0.22284408 -0.06367584
000060 d4 1f 27 bd 77 a1 01 bc 3b 7d 11 be b9 ce c3 bd
       -0.040801838 -0.007912031 -0.14207928 -0.095609136
000070 cf 0d 5a 3e 0b e9 b0 bd 0c 91 79 be 83 b5 c7 bd
       0.2129433 -0.086381994 -0.24371737 -0.097514175
000080 10 58 5d 3e 23 bd c5 bd 3a ac c1 bc f4 88 d7 bd
       0.21615624 -0.096552156 -0.023641694 -0.105241686
000090 6a a1 00 40 c4 e6 ad 3f 5d 69 0a 40 27 42 d9 bd
       2.009852 1.3586049 2.1626809 -0.10608321
0000a0 03 8f a5 3c be 67 12 be 8b e2 78 be 2d 9a 1b 3d
       0.020209795 -0.14297387 -0.2430517 0.03798883
0000b0 60 b8 08 bd f0 35 76 be 8a ac 30 bd cc 38 f3 bd
       -0.03337896 -0.24044013 -0.043133296 -0.118760675
0000c0 fa df 49 3d df 05 65 bd cc db a5 3e 9a 23 a7 3e
       0.049285866 -0.055913802 0.32394254 0.3264435
0000d0 df 67 06 be 32 0c be 3c 2a 1a 19 bc ec 89 89 bb
       -0.13125561 0.023199175 -0.009344617 -0.00419735
0000e0 5f e9 64 bd df 49 8c 3d 57 15 a9 be 50 86 fe 3d
       -0.055886623 0.06850027 -0.33024094 0.12427962
0000f0 c6 f1 6b 3e 11 81 a2 bc 41 46 77 bd fa 3d 2d 3e
       0.23041448 -0.019836934 -0.060369734 0.16918173
000100 b8 26 8a 3e 23 d9 ab bd ea 5b 85 3f cc 8c 36 40
       0.26982665 -0.08391025 1.0418675 2.8523436
000110 b3 34 d1 3f 41 8f 48 bd 79 fa 65 bc a0 93 a4 3d
       1.6344208 -0.048964743 -0.014036768 0.0803597
000120 cf 77 d5 bd 2b 6e 17 3d 97 47 0f 3d ca a3 a8 3d
       -0.10423242 0.0369703 0.034980383 0.08234365
000130 34 44 d6 3d 86 f9 93 3d 27 bc fd 3c b9 a4 b3 bd
       0.104622275 0.07225327 0.030973507 -0.08771653
000140 28 d2 38 bd 27 47 fd bc 6f 41 fd bb 29 18 72 be
       -0.045122296 -0.030917717 -0.0077287476 -0.23642029
000150 ee 86 ed bc e6 19 54 bd 1d 7e 7c bd 4b 9c f4 bd
       -0.028995004 -0.05178251 -0.06164371 -0.11943873
000160 41 22 92 3c 9a 4a 07 be c7 d1 be bd df bc 9c 3c
       0.0178386 -0.13212052 -0.093173556 0.01913303
000170 39 ca 2f 3d 3a ae 02 3d 9f c3 b7 3d 3e a3 d8 3b
       0.042917464 0.031904437 0.08972859 0.006611257
000180 53 a3 28 be b0 03 a3 3d be e1 2c be 3a d4 bc 3d
       -0.16468553 0.07959688 -0.16882989 0.092201665
000190 44 34 db 3c 2c 33 f7 bd 2e 4f 8f bd b7 d7 3c 3e
       0.02675832 -0.12070307 -0.06997524 0.18441664
0001a0 3d 79 d0 bd 36 12 09 3e a7 04 24 be d0 af c8 3d
       -0.10179374 0.13385853 -0.160174 0.097991586
0001b0 f3 6b f6 bd a3 0c e8 bd 94 c3 20 be 86 0d 91 bd
       -0.120323084 -0.11330535 -0.15699607 -0.070826575
0001c0 15 80 21 be bf c5 18 3d d8 eb 61 bc 65 a2 e8 bd
       -0.15771516 0.03729796 -0.01378914 -0.11359099
0001d0 08 b8 10 3d 37 8d 05 3e 18 18 d4 bd 95 0a 15 be
       0.035331756 0.1304215 -0.10356158 -0.14554818
0001e0 cc 01 fc bd c7 6f 8d 3d 07 3d 21 3e 13 c1 f9 3c
       -0.1230503 0.069060855 0.15745936 0.030487573
0001f0 17 aa c3 3d dd 45 1d bd a8 1e 79 bf 81 3c 3c bf
       0.095539264 -0.038396705 -0.973124 -0.7352982
000200 c7 47 54 c0 25 48 c8 bd 5d 17 d8 bd a6 7a 31 bd
       -3.316881 -0.097793855 -0.10551331 -0.043329857
000210 ad 6e 2c be 86 9c cd 3d 07 f4 97 bd bf 8c 58 be
       -0.16839094 0.1003962 -0.074195914 -0.2114744
000220 c2 f7 66 bc b1 83 2a bd 2a ca df 3d 34 8a ab 3d
       -0.014097156 -0.041629497 0.109272316 0.083759695
000230 0d a6 5b 3d 82 b2 8b 3e 11 b0 71 3d e9 fa fc bd
       0.053625155 0.27284628 0.0590058 -0.12352545
000240 a0 65 b8 bc f4 86 70 3e 1e eb 44 3d e9 d1 ab 3e
       -0.022509396 0.2348898 0.048075788 0.33558586
000250 86 8d 00 3e 28 14 3a bc 89 99 a5 bc 53 12 52 bd
       0.12553987 -0.011357345 -0.020214813 -0.051287007
000260 49 ef db 3b 21 ad ec 3c 5c 59 66 3d 08 50 29 bc
       0.0067118746 0.028891148 0.056237563 -0.010334022
000270 09 64 b7 40 f5 3c 08 40 3e fc a2 be 49 b5 f9 39
       5.7309613 2.1287205 -0.3183307 0.0004762805
000280 f8 f4 d5 3b b0 69 20 3b f7 91 77 bb 46 d9 be 3b
       0.0065294467 0.0024477057 -0.003777621 0.005824241
000290 fc d0 fd bb 2b f2 79 3b 88 fe 36 3b 1d 14 03 3c
       -0.00774586 0.0038138728 0.0027922709 0.008000401
0002a0 fe 25 cd 3c 16 e7 75 bc 38 c8 6c ba 29 db 90 3c
       0.02504253 -0.015008708 -0.00090325205 0.017682629
0002b0 7b eb c1 bc ec 64 21 3c 46 f7 4d bb c0 80 9f 3b
       -0.023671856 0.009850722 -0.0031427904 0.004867643
0002c0 f7 97 78 ba 49 a2 7c bc a0 3f 27 3c d1 8e a1 3c
       -0.0009483094 -0.015419551 0.0102080405 0.01972142
0002d0 25 00 89 3e 3f c2 80 3e 87 30 66 3e bd f0 67 3b
       0.26757923 0.25148198 0.22479449 0.0035391294
0002e0 3e a2 de 3d 54 b4 6e 3d 31 45 fb 3f 86 19 41 c0
       0.10870789 0.058277443 1.963049 -3.0171828
0002f0 31 8f de bf 55 47 aa ba ac 42 7a bd 5e e8 b4 3c
       -1.7387449 -0.0012991229 -0.06109874 0.022083458
000300 ca 33 f7 bd 79 e2 0b 3e 8e d1 83 3d 89 51 85 be
       -0.12070425 0.13660611 0.06436454 -0.2603877
000310 dd 22 1e be f4 8e 83 bc 87 f4 08 3e 89 dc 06 3e
       -0.15442987 -0.016059376 0.1337453 0.13170065
000320 d2 00 41 3d 54 ce 04 3e cd 87 73 bc 94 cc 38 bd
       0.047119923 0.12969333 -0.01486392 -0.045116976
000330 ef b5 40 3e f7 8b 45 3d 2b 21 98 3e bd 87 81 3e
       0.18819402 0.048229184 0.29712805 0.25298873
000340 72 cc 85 3b b0 08 a5 bd 18 b2 47 3e a5 fa c0 be
       0.0040832097 -0.08058298 0.19501531 -0.37691227
000350 a4 78 f5 3c 74 ff f9 bd 14 b5 df 3b 33 64 ae bd
       0.029964752 -0.12206927 0.006827006 -0.08515205
000360 87 8b 9a bf ff 3c 96 bf d7 9f 0e c0 97 5c 1b 3c
       -1.207383 -1.1737365 -2.2285058 0.009482524
000370 19 58 f4 3d e0 ce 21 bd 8a 20 f2 bd 99 d6 fd 3d
       0.11930866 -0.039503932 -0.118226126 0.12394447
000380 8d 60 91 bb 8a d9 0e 3e a4 cb 65 3d 2c 02 73 bd
       -0.0044365586 0.13950172 0.05610241 -0.059328243
000390 df 80 dc 3d 3e 63 87 3e 2b 5b 00 3d 9f 53 a0 bd
       0.10766768 0.26442903 0.031336945 -0.078284495
0003a0 16 14 18 3e f9 90 54 3c 26 28 c4 bd 9f 70 e5 3d
       0.14851412 0.012974017 -0.0957797 0.112031214
0003b0 e2 94 c5 bc c3 52 bc 3c 80 cd 86 3d 8a dd 8a bd
       -0.024118844 0.022988683 0.06582165 -0.067805365
0003c0 f0 0c 30 bd 2d a4 dd bc 94 63 f2 bc 2c 56 10 be
       -0.04298109 -0.027055824 -0.029588498 -0.14095372
0003d0 49 17 22 3e f6 14 9b bd 5f 49 86 3d a1 64 f6 bd
       0.15829195 -0.07572357 0.06556963 -0.12030912
0003e0 dd fa 1f 3e 68 d8 07 be 6c 96 ce bd 22 fb 7b bd
       0.1562304 -0.13266146 -0.100872844 -0.061518796
0003f0 4c ae 21 be d3 02 f9 bd b1 aa 75 bd 81 74 ec 3d
       -0.15789145 -0.12158742 -0.059977237 0.11545659

l1.bias f4 [64]
000000 98 65 49 3e e6 bf 60 3d d1 b3 a3 3d c1 04 3f be
       0.19667661 0.05487051 0.07993282 -0.18654157
000010 f2 01 6b 3d 82 29 11 bd 47 75 db 3c 7a c5 d3 3d
       0.057374902 -0.035439976 0.02678932 0.103404
000020 e4 a6 2b be 37 3e 33 be 6b 28 20 3d 93 0f 81 3e
       -0.16762882 -0.17504202 0.039101046 0.25207195
000030 17 98 65 3d 3d d8 be 3d c6 dd 03 be 46 6e 0d 3e
       0.056053247 0.09318588 -0.12877569 0.13811597
000040 e5 14 78 3d f3 39 d1 bd 77 7f ce 3d 1e ad af 3d
       0.0605668 -0.10216131 0.10082906 0.08577941
000050 0c 52 80 3d 34 3c 6e 3d ee b0 c0 3d 2a 17 44 3e
       0.06265649 0.058162883 0.09408747 0.19149461
000060 fd e7 07 be 7e a2 ef 3d b2 21 c9 3d ae ef 7b 3d
       -0.1327209 0.11700915 0.0982088 0.061507873
000070 5a 43 de 3d a5 da 64 3c 6e cf 75 3d 76 c9 e1 3d
       0.1085269 0.013968145 0.060012273 0.11024754
000080 b2 e5 10 be 6c 27 92 3d 1e 52 a3 3d c5 37 b9 bd
       -0.14150122 0.071364254 0.07974647 -0.0904384
000090 04 79 40 3e bd ce 22 3e 70 84 b9 3d da 06 c1 3d
       0.18796164 0.15899177 0.090584636 0.09425135
0000a0 60 64 c8 3d af 6e e4 3b 0c 1b da 3d 9d 17 74 3e
       0.0978477 0.0069712023 0.1064969 0.23837133
0000b0 76 b8 05 3e 3e 05 ff bd 7a 9c 9a 3d ea b6 ba 3d
       0.13058648 -0.12452172 0.07549377 0.09116919
0000c0 57 78 52 3d 33 37 ce 3d 87 39 b1 3d 1b 00 aa 3d
       0.051384296 0.10069122 0.086535506 0.08300801
0000d0 e4 fa ed 3d 7b b8 14 be c5 e9 37 3e 53 8c 9b 3d
       0.11620119 -0.14523499 0.1796027 0.07595124
0000e0 f9 8b 11 3e 67 04 c8 3d d1 e0 c3 3d 52 44 3f 3e
       0.14213552 0.09766465 0.09564365 0.18678406
0000f0 d4 75 09 3d 7d 5f df 3d 57 a9 07 be 43 f7 e2 3d
       0.033559635 0.10906885 -0.13248192 0.11082318

l2.weight f4 [64, 64]
000000 fd ff 58 3e 6d de c3 3e 45 4b 82 3e f9 2b e3 bc
       0.21191402 0.38255635 0.2544805 -0.027730929
000010 fb 79 0e be 33 e5 96 3e e6 7d 11 3d 83 6f 9b be
       -0.1391372 0.2947174 0.035520457 -0.30358514
000020 72 0d 9f bd 84 36 7f 3d 6b 29 fc bd be 70 4c 3e
       -0.07766236 0.06230785 -0.12312587 0.19964883
000030 0c 64 bc bd 29 fa 53 3d 38 b1 e0 bd b9 ca 6a bd
       -0.0919877 0.051752243 -0.10971302 -0.057322238
000040 ec 06 92 3e 40 9e 2a 3d 03 08 94 3d fa 28 71 be
       0.28520906 0.041654825 0.072280906 -0.23550788
000050 83 cc 8d 3d 81 1c 71 be 51 e2 71 3e e7 9c b2 3c
       0.06923773 -0.2354603 0.23621489 0.021803332
000060 88 cd 9a 3c fd db 7d be 52 30 8c be 0a 2c 98 bd
       0.018896833 -0.2479095 -0.27380615 -0.07430275
000070 70 2d d5 be 8c ba 3f 3d 2e 3f 33 3e 69 2e 84 3e
       -0.4163623 0.046808764 0.1750457 0.25816658
000080 08 ba a7 bd dd 86 ca 3d cc 09 8c 3d d0 e8 0d 3d
       -0.081897795 0.098890044 0.06837806 0.034645855
000090 66 bd 70 3e 5a 4f be 3d f1 08 02 bd 91 3c 33 be
       0.2350975 0.09292479 -0.03174681 -0.17503573
0000a0 c2 9b 55 3e 8d fc b8 3d 8f 7f 99 3e 92 b3 30 3e
       0.20860198 0.09032545 0.29980132 0.17256
0000b0 f9 f7 83 3c d2 80 86 3d ef 49 03 be 37 22 58 bd
       0.016109454 0.06567539 -0.12821172 -0.052767005
0000c0 40 81 40 be f8 12 06 bd 5c ee 1c be 46 78 50 be
       -0.18799305 -0.032732934 -0.15325302 -0.2035838
0000d0 4e 98 c2 3e ea de c5 3d 41 bd 63 3e c9 49 d1 3d
       0.38006824 0.09661658 0.22240163 0.102191515
0000e0 93 df 93 3d d8 4c 40 be a3 a3 3b bd 00 dd 86 3e
       0.07220378 -0.18779314 -0.045810353 0.26340485
0000f0 38 1d 24 3e bc a2 7b 3e a7 11 73 3d b6 d2 3e be
       0.16026771 0.24573797 0.059343006 -0.18635067
000100 f3 29 12 3e b1 d5 b1 3e 6c 40 2e 3e 4e 9f 7f 3c
       0.14273815 0.34733346 0.17016762 0.015601946
000110 83 9a 5f 3b 56 94 1d 41 3a 18 df 3e 7f 3e d2 bc
       0.0034119196 9.848715 0.4357317 -0.025664566
000120 80 51 6b 3d b0 a4 0d bc 53 8d 7a bd ed a9 1f be
       0.05745077 -0.008645222 -0.061169934 -0.15592165
000130 32 e4 14 3e 40 66 c5 3e c0 8a d5 bd 1b 57 c0 3d
       0.14540175 0.38554573 -0.10426855 0.09391614
000140 93 48 37 3e 44 39 ff 3d a2 5d 36 3e c2 b9 da 3d
       0.17898779 0.124620944 0.17809156 0.10679962
000150 8b 69 97 3e b0 e9 fb bb 67 ac aa bc b2 18 ea 3d
       0.2957271 -0.00768777 -0.020834161 0.114304915
000160 50 ab 74 bd 35 83 97 be 59 f1 01 bf 36 ab e8 3e
       -0.05973369 -0.2959229 -0.5075889 0.45443124
000170 b0 ea cd 3e bf b2 cb bd 67 e3 0f 3f dc a6 12 3c
       0.40218115 -0.099462025 0.56206363 0.008950915
000180 9c c6 74 bd a8 db 20 3e 94 01 d3 3e 58 57 ff 3d
       -0.05975972 0.15708792 0.41212142 0.124678314
000190 ce 30 99 bd da 33 d7 bd 55 05 66 3e 03 45 e8 be
       -0.07480012 -0.10507937 0.22462972 -0.45365152
0001a0 c6 43 83 3e 9f c9 b0 3e ef 5a 98 3e 64 58 2d bd
       0.25637645 0.34528825 0.29756877 -0.042320624
0001b0 64 94 d7 3e a0 34 00 bd 87 13 3a 3f 91 1a a3 3d
       0.421054 -0.031300187 0.72686046 0.079640515
0001c0 a5 b2 59 3e 0a 02 b1 be 9e 6e 59 3e 73 fd e0 be
       0.21259554 -0.34571868 0.21233603 -0.43943366
0001d0 09 3d f9 3e e8 93 ca 3c 9c cc 89 3b 68 28 9e 3e
       0.4867938 0.02472873 0.0042052995 0.30890203
0001e0 78 a4 bb 3d cf cd ae be a3 9d 2b 3e b5 a3 79 bd
       0.09162229 -0.34141394 0.16759352 -0.06094714
0001f0 22 06 eb 39 59 c1 35 3c 5b 2a 24 3d f2 78 2e 3e
       0.00044827262 0.011093461 0.040079456 0.17038324
000200 02 3f 65 bd 1e 4a ce bc f6 3a 28 be f1 cc 5a bd
       -0.055968292 -0.025181826 -0.16428742 -0.053418104
000210 06 13 78 3e 3d a5 96 40 a0 39 0a 3f e1 a6 bc 3e
       0.24226007 4.7076707 0.5399418 0.36846069
000220 70 44 e1 bd a8 78 10 3d 93 a4 56 3e 67 aa 1c be
       -0.109993815 0.035271317 0.20961218 -0.15299378
000230 a1 99 c0 3e e5 64 5b 3e 50 d6 b0 bc 5a 20 ca 3d
       0.3761721 0.21425207 -0.021586567 0.09869452
000240 d4 0f 1a bd 30 7c 47 3c 32 6f e0 bc 96 7a 23 3e
       -0.03761275 0.012175605 -0.027396772 0.15964732
000250 a6 37 b5 3d a2 52 91 3e aa cf d0 bd 09 e9 6c bd
       0.08848505 0.28383356 -0.10195859 -0.057839427
000260 ba e6 e3 3d 5d b1 b0 3d 45 db 05 3d 0a fc 95 3e
       0.11127992 0.08627579 0.032679815 0.29293853
000270 b0 90 f5 3e 23 e7 e1 3d 38 0a 20 3e de 5e 83 be
       0.4796195 0.11030414 0.15628898 -0.25658315
000280 08 c2 ef 3d be ef 15 3e 81 9d 8b 3e c0 ea bd 3b
       0.117069304 0.14642236 0.27268603 0.0057958066
000290 8e bd 30 be 4e 96 be bd 16 cc d6 3d 1e b0 47 be
       -0.1725981 -0.09306012 0.10488145 -0.19500777
0002a0 13 36 ce 3d b8 bc 71 3e b0 f4 7e 3e c7 17 0b be
       0.100689076 0.23607147 0.24898028 -0.13583289
0002b0 57 05 81 3d 90 aa a7 3d 07 b5 20 3f 16 69 7f 3e
       0.062998466 0.08186829 0.62776226 0.24942431
0002c0 1f d0 c5 3e f3 80 95 be 52 f2 73 3e 91 bc 24 3e
       0.38635346 -0.29199943 0.23822907 0.16087557
0002d0 7f 68 87 3d a0 66 b9 3b d8 f0 44 bd f7 bd d4 3e
       0.06611728 0.005657986 -0.04808125 0.41551182
0002e0 c9 24 76 3d 6f 66 ea 3d 89 0c a1 3e 99 91 8d bd
       0.060093675 0.11445319 0.31454876 -0.06912536
0002f0 6d 2a fc bd c0 6f e3 bd 8f b3 d8 bd 63 db 65 3e
       -0.123127796 -0.11105299 -0.10581123 0.2244697
000300 13 b9 d2 3c 6e 46 7e 3c c3 e9 8e 3e e0 f0 83 3b
       0.025723016 0.015519721 0.2791272 0.0040265173
000310 df b8 bf bd 9d 3c 69 3f 3a 79 0e bf 47 a6 ab be
       -0.09361433 0.91108114 -0.5565373 -0.33525297
000320 ec f1 2c 3d 46 48 97 bd cd 93 ab 3c 83 b9 f8 3d
       0.042222902 -0.07386832 0.0209445 0.121447586
000330 c0 5d 55 be 8b f9 16 be 00 58 d0 39 43 8b 02 3e
       -0.20836544 -0.1474363 0.00039738417 0.12748437
000340 24 1a 5a 3e 42 df f3 3d bd ca 43 3d 72 3c ce bd
       0.21299034 0.119078174 0.04780077 -0.10070123
000350 6f 24 78 bd 70 93 07 3e f2 36 4f 3e c3 f9 00 3e
       -0.06058162 0.13239837 0.20235804 0.12595277
000360 60 19 72 bc dd 3b 7a 3e 13 13 91 3e 70 ac 7a be
       -0.014776558 0.24436899 0.28334865 -0.24479842
000370 74 ff 0c bf 0f ae e9 bd 4b 24 01 bf 54 36 96 3e
       -0.5507729 -0.11410152 -0.50446004 0.29338324
000380 40 c4 bf 3c 52 82 96 bd 1c 14 aa be f6 4b e7 bd
       0.023409009 -0.073490754 -0.33218467 -0.11293785
000390 70 6b 37 3e 49 70 06 3e 85 02 11 be e3 fe e6 3e
       0.17912078 0.13128771 -0.14161117 0.45116338
0003a0 41 26 55 3a ca db 6e be a8 25 81 be 41 9b 2c 3e
       0.00081310055 -0.2332603 -0.25224042 0.168561
0003b0 03 11 41 bd d8 33 68 3d a0 ea 2e bf 42 12 06 be
       -0.047135364 0.056690067 -0.6832676 -0.13092902
0003c0 43 d0 19 bf 4a 7a ef 3e 0c 7b 71 3d 81 9c 7e 3e
       -0.6008341 0.46772987 0.058955237 0.24864389
0003d0 d1 c2 15 be f0 25 73 3d 35 62 2d 3e 52 e7 a5 be
       -0.14625098 0.059362352 0.16931994 -0.32403046
0003e0 d9 3e 05 3e e8 6c 8a 3e 88 67 5a be 48 52 31 3e
       0.13012256 0.27036214 -0.21328557 0.17316544
0003f0 2e da 8a 3d e1 52 85 3e 7d 0a f4 bd 30 ea 2e be
       0.06779896 0.26039794 -0.11916063 -0.17081523

l2.bias f4 [64]
000000 0a 6e f6 3d da 2c b8 bd 47 44 1f be 27 94 50 3e
       0.12032707 -0.0899293 -0.1555339 0.20369016
000010 9d d7 7b bd 10 46 5e 3e de b1 06 3e 04 b4 48 3e
       -0.06148492 0.21706414 0.13153788 0.1959992
000020 7a d2 32 3e bd 75 60 3e 34 f6 7e bd 1f d3 62 bd
       0.17463103 0.21919914 -0.062246516 -0.055377122
000030 e2 c9 74 3d fa 10 ac bd ad e1 49 bd 6a 7d 4f 3e
       0.059762843 -0.084016755 -0.049287487 0.20262685
000040 3b c7 29 3e b3 74 21 3d b7 c4 9c 3d 4f 6d c6 3d
       0.16579907 0.039417934 0.07654708 0.09688818
000050 8b 9e 65 3d d0 93 4c 3d 80 9c a0 bc a7 ef 15 3c
       0.0560594 0.049945652 -0.019605875 0.009151376
000060 84 ba bc 3d 42 47 85 3e 55 a7 ce 3c eb 24 22 3e
       0.092152625 0.26030928 0.025226275 0.15834396
000070 3f a0 07 3d 8e e4 9f bd f8 44 f7 bd 91 07 c6 bd
       0.033111807 -0.07807265 -0.120737016 -0.09669412
000080 77 33 98 bd a1 ff 89 bc d4 7d 1a 3e 9b 64 0b 3c
       -0.07431691 -0.016845526 0.15087062 0.008507873
000090 79 62 09 3e 09 fe 46 bd db 34 b5 3a f2 94 62 bd
       0.1341647 -0.04858211 0.0013824956 -0.055317827
0000a0 55 3c 8f bd 4a 2a 5b 3e 0e 4d 00 3d 88 42 64 3d
       -0.06993929 0.21402851 0.031323485 0.05572751
0000b0 43 2c 42 be ee 1d e1 bc ec b9 c0 bd 1f 1c 59 3e
       -0.18962197 -0.027480092 -0.09410462 0.21202134
0000c0 05 76 f8 3a 92 f2 0a be c8 68 bb 3d f1 04 3a 3d
       0.0018956071 -0.13569096 0.09150845 0.04541487
0000d0 d2 87 e6 3d 88 1e 08 3e 63 6f e8 bd fb 8c 0e 3e
       0.112563744 0.13292897 -0.1134937 0.13920967
0000e0 c6 b4 26 be 52 02 82 bc 41 17 d2 bd f0 e9 00 3e
       -0.16279897 -0.015870247 -0.102583416 0.1258924
0000f0 34 98 22 3e 35 a7 33 bb aa 9e 6a 3d 06 a4 15 bd
       0.15878373 -0.0027412896 0.05728022 -0.036533378

l3.weight f4 [3, 64]
000000 77 95 d3 3d 75 6a c7 3e 0c 37 6f 3e 21 2d 70 be
       0.103312425 0.38948408 0.23360842 -0.23454715
000010 98 e1 1e bd b6 dc a8 bd 87 eb 27 3e 20 b5 a2 3e
       -0.03878936 -0.08245222 0.1639844 0.31778812
000020 f3 19 82 3e e5 da 03 bf 24 09 a3 bd 9c 2b de 3d
       0.25410423 -0.5150588 -0.07960728 0.108481616
000030 5b 48 a8 3d e4 dc e0 bd bc 67 74 be f4 d6 34 be
       0.08216926 -0.109796315 -0.23867697 -0.17660123
000040 69 74 1e 3e 74 e3 6b 3e e7 d7 b5 be c9 11 69 be
       0.15474094 0.23035985 -0.35516283 -0.22760691
000050 7e dc 7d be 4c 60 48 3e e3 bc e5 3d 5e 0e 85 be
       -0.24791142 0.19567984 0.11217668 -0.25987524
000060 6e 26 0c be 28 17 d5 be ef 8e 86 3e f2 21 ca 3d
       -0.13686535 -0.4161923 0.26280925 0.09869756
000070 c0 ea 51 3e 28 ef a3 3d 02 54 d4 3d 62 6b dc bd
       0.20499706 0.080046 0.10367586 -0.10762669
000080 a5 7a dd bc e0 47 9c be a9 3e 5d 3e 97 e5 a4 bd
       -0.02703602 -0.30523586 0.21605934 -0.08051603
000090 9f c7 dc c0 9f 7d b0 3e 8a 44 b1 bd ca f0 4b 3d
       -6.899368 0.3447084 -0.08655651 0.04979018
0000a0 21 03 d2 3d 3b 3e 12 be 45 1c 8b 3e c5 a9 67 3e
       0.10254503 -0.14281552 0.27170005 0.22623356
0000b0 d9 f7 95 3d 12 98 91 3e fd 7e 98 bb c3 ac c5 bd
       0.07322664 0.28436333 -0.00465381 -0.09652092
0000c0 36 30 5c 3e f9 92 2a 3d 39 1e a2 bd e6 29 80 3c
       0.21502766 0.04164407 -0.07915921 0.015644979
0000d0 d4 90 84 be 05 db 74 3c ae be 45 3e c1 bc 72 3e
       -0.25891745 0.014944796 0.1931102 0.23704816
0000e0 a5 de ca bf 79 47 20 3e 43 be 6c 3d eb 4a 97 bc
       -1.5849196 0.15652265 0.057798635 -0.01846834
0000f0 54 92 a7 3e 41 00 29 be 96 6f 55 bd 2d 7c b8 bd
       0.32728827 -0.16504003 -0.05210837 -0.0900806
000100 47 66 9f 3e cc 9e 6d bd a5 df b0 bd f9 53 80 3e
       0.3113272 -0.05801277 -0.08636407 0.25064066
000110 16 a7 1d be b1 92 5a 3e b3 dc 5a 3e 10 6e 1e 3e
       -0.1539577 0.21345021 0.21373253 0.15471673
000120 6c 95 65 3e 94 b1 d4 3e 80 61 5a 3b 63 92 32 3c
       0.22420281 0.4154173 0.0033322275 0.010899159
000130 87 11 c7 bd 4c 57 bd 3d 2d a8 6b bd 7e 3f 80 bf
       -0.0972014 0.09245166 -0.05753343 -1.0019376
000140 3d 3f fd 3d 94 5e 11 3e 71 96 eb bd 2b b6 2f be
       0.12365577 0.14196235 -0.11503304 -0.17159335
000150 2e bd 65 be 11 44 4a bd 48 01 5b 3d 43 74 94 be
       -0.22435448 -0.04938132 0.05346802 -0.2899495
000160 2c 76 f5 3e be 25 9d 3e d7 e6 94 3d 59 68 6e 3e
       0.4794172 0.30692858 0.07270592 0.23281993
000170 b5 24 24 3d 20 5e 90 bb a9 38 92 bd a0 7d 26 be
       0.04007407 -0.004405752 -0.07139713 -0.1625886
000180 3e 2e b3 be 89 4b 8f be 06 1f 24 3d 6a f1 cc be
       -0.34996217 -0.27987316 0.04006865 -0.40027934
000190 78 ed 51 3f 72 84 0e 3e e6 2e 80 be de 39 a0 3e
       0.82002974 0.13917711 -0.2503578 0.3129415
0001a0 a0 d8 5e 3d e1 2d a7 3d 9f 9d 32 be 63 81 75 3b
       0.05440581 0.081630476 -0.1744294 0.0037461154
0001b0 ad 70 f5 bd 80 90 04 3e 84 99 a8 bd d9 41 6d 3e
       -0.11984382 0.12945747 -0.08232406 0.2316965
0001c0 e3 41 ac bd a1 fa 58 be 73 4a a3 3e db 31 be 3e
       -0.084110044 -0.21189357 0.31892738 0.37147412
0001d0 e2 74 af 3d c5 8c ac be 74 36 b4 bf 68 2c 32 3e
       0.085672155 -0.3370115 -1.4079118 0.17399752
0001e0 c3 79 0e c1 80 51 e9 bd a8 07 ea bd 63 52 3e 3e
       -8.904727 -0.11392498 -0.114272416 0.18586116
0001f0 12 65 cd bd 25 68 b4 bb 90 94 63 be 80 c9 7d be
       -0.10029043 -0.005505579 -0.22224641 -0.24783897
000200 f3 e4 55 3e 4d 73 07 3c 2e e8 fb bc a3 80 d8 3c
       0.20888118 0.008267236 -0.03075036 0.026428526
000210 56 0a 3f be db c0 09 3e 25 dc 28 be 16 2d 00 3e
       -0.18656287 0.13452475 -0.16490228 0.12517199
000220 b8 ab 2b 3e 1b 4e e0 be 94 df f8 3d f7 50 c4 be
       0.16764724 -0.4380959 0.12152019 -0.3834302
000230 05 56 80 bd cf 1b 86 be 43 b7 81 be 4b cd fb be
       -0.06266407 -0.2619309 -0.2533513 -0.49180064
000240 a1 d6 0d bd c5 9e 06 be cb 41 48 bb 01 79 65 3e
       -0.034628514 -0.13146503 -0.0030556794 0.2240944
000250 60 97 4e 3e 97 18 81 be ee 27 8d ba 74 3b 25 3e
       0.20174932 -0.25214073 -0.0010769346 0.16135961
000260 82 1c 5c 3e 3f 56 10 bb 24 af 5d bd ad 8c 85 3d
       0.2149525 -0.0022024063 -0.054122105 0.065209724
000270 61 8a f5 3d 80 a4 51 bd ca dd 43 bd 43 70 87 be
       0.11989284 -0.05118227 -0.047818936 -0.26452836
000280 3e ba 0d 3e b0 ba 54 3e 50 1c bc be be ce 78 3d
       0.13840577 0.2077434 -0.3674035 0.06074404
000290 60 76 4f be 2a 17 00 be dd 5e 9d bd ba 19 bf bb
       -0.2026 -0.12508836 -0.07684109 -0.0058319243
0002a0 1e 7d ae bc 10 91 e5 3e cd 77 87 3e 5d d6 12 be
       -0.021299895 0.44837236 0.26458588 -0.14339586
0002b0 ee 07 3f c0 7a 65 9b be 0f ca af bd 67 3a 49 bd
       -2.984859 -0.30350858 -0.085834615 -0.049127962
0002c0 fc ef 92 3b 2a 7c 02 be 9f e0 c5 3d 05 18 71 40
       0.004484175 -0.12742677 0.09661984 3.767091
0002d0 fb 10 e4 3d 0e f2 9b 3e 41 33 bf 3e 26 5e 37 3e
       0.11136051 0.3045811 0.3734379 0.17907009
0002e0 4f 70 c7 3d f2 ec ef bd c0 ed 5a bc ff c6 87 3c
       0.09738218 -0.117151156 -0.013362348 0.01657438
0002f0 61 ee 40 3e 20 06 6f be 7b 36 dd bc 2c 81 11 3d
       0.18840934 -0.2334218 -0.027003517 0.03552358

l3.bias f4 [3]
000000 ce 59 dc bc 9b 8c 1c 3d 8c 4d 05 3e
       -0.026898291 0.03822003 0.13017863
