examples/experiments/experiment_99/critic13_4.pth (torch, 37463 bytes, 5 tensors)

l1.weight f4 [64, 72]
000000 f6 5c f0 3c a6 94 52 be dd b9 e9 bc 55 c1 fc be
       0.029341202 -0.20564517 -0.02853101 -0.4936625
000010 db 34 e2 3c 1d bc 01 3e 5d d8 8a 3e c5 d1 99 be
       0.027613094 0.12669416 0.27118197 -0.30042854
000020 05 62 45 bd d5 1d e9 be 2e a6 54 be 48 2b 76 3e
       -0.04818918 -0.45530573 -0.20766518 0.24039948
000030 00 aa f7 be 1d 9c 62 3f 9c bf 6b be 46 58 64 3e
       -0.48371887 0.8851946 -0.23022312 0.22299299
000040 d7 d6 91 be 48 15 87 3e 01 b7 da 3d cd 1e 36 be
       -0.28484222 0.26383424 0.106794365 -0.17785187
000050 7e 0a 1f be b5 f1 41 3f 84 38 a5 3e 0f 12 73 bb
       -0.15531346 0.7575944 0.3226968 -0.0037089621
000060 c7 c3 bd 3d 68 5e 8a be 9e 92 c9 bd 28 47 8f 3e
       0.09265857 -0.2702515 -0.09842418 0.27983975
000070 e2 47 d3 be 47 e4 7b be 7a 43 9b 3d 54 c1 42 3b
       -0.4126578 -0.245988 0.075812295 0.0029717283
000080 a8 10 06 3e 29 31 00 be 0a 71 12 3e e2 56 ad be
       0.13092291 -0.12518753 0.14300933 -0.3385535
000090 ea ac 46 bd 76 07 05 3e 23 d7 16 be 63 28 28 3d
       -0.048504747 0.12991127 -0.14730506 0.04105414
0000a0 fa 25 22 bd e0 d8 0f bd 73 af 4a bd 9a 43 f7 3d
       -0.039587 -0.035118937 -0.049483728 0.12073441
0000b0 49 5c 03 be e2 45 b1 3c 68 f2 39 be 86 44 af 3e
       -0.12828173 0.021639768 -0.18158877 0.34231967
0000c0 4f 75 83 3d 9f d2 bb be 91 ab 1c 3f 42 85 00 be
       0.06418859 -0.3668413 0.6119929 -0.12550834
0000d0 64 21 09 be 67 e3 47 be 83 83 87 3f 7d 62 c8 3e
       -0.13391644 -0.19520341 1.0587009 0.3913764
0000e0 b4 79 bc bd 56 3c a5 3f 64 44 fd be 5e 40 d2 3f
       -0.092029005 1.2909038 -0.4946624 1.6425893
0000f0 91 86 42 bf 22 c3 f3 be 78 69 a1 3f a5 cc b0 3e
       -0.7598658 -0.47609812 1.2610312 0.3453113
000100 4e c1 c3 be 2a a4 17 3f 71 86 ca 3f da 15 16 bf
       -0.38233417 0.5923487 1.5822278 -0.5862709
000110 5c c8 2d 3e ad 03 10 3f 39 b8 2c be 1f 38 8c bf
       0.16970962 0.5625561 -0.1686715 -1.0954627
000120 c7 22 86 be 60 c2 bf be bb f9 6f 3c 55 8a 3c bf
       -0.26198408 -0.37452984 0.014646943 -0.7364858
000130 88 86 0b be 35 2a 9c 3a 06 76 b6 be 04 be f0 3d
       -0.13625538 0.0011914434 -0.3563692 0.117549926
000140 85 16 8b 3a 18 27 60 be c5 b3 b7 3e d8 65 3d 3d
       0.001061157 -0.21889913 0.3587934 0.046239704
000150 a6 36 38 3e 96 04 a1 bf dd 36 e0 3d 0d 09 87 be
       0.17989597 -1.2579525 0.10947964 -0.26374093
000160 ca 66 86 3e 16 6a 96 3e c0 c7 3e 3c a9 e2 29 3d
       0.26250297 0.29377812 0.011644304 0.041475926
000170 37 5f a2 3c 96 0c 36 be 2d 63 b2 3e f5 ae bd 3d
       0.019820793 -0.17778239 0.3484129 0.09261886
000180 07 1a c0 3d 96 c9 a2 be fb da 11 be a7 ae 82 3e
       0.09379964 -0.31794423 -0.1424369 0.25523874
000190 6f 8b 4b 3e bf a2 ad be ed 31 1c bd 83 d7 b7 be
       0.19877408 -0.33913228 -0.03813355 -0.3590661
0001a0 c2 7a 54 3e ed 78 73 3e 8e 82 70 3e 0f 45 cb be
       0.20749953 0.23776598 0.23487303 -0.39701125
0001b0 54 e8 80 be 99 b7 a2 be 66 08 51 3c 21 24 be 3e
       -0.25177252 -0.317807 0.01275835 0.3713694
0001c0 48 ca 24 3e 26 86 88 3e 71 c9 01 3f f0 24 9d 3d
       0.16092789 0.26664847 0.50698 0.07673061
0001d0 4f 8a 17 3e 9d bf 49 be 0c 55 84 3e 5a c5 87 3e
       0.14798854 -0.19702001 0.25846136 0.26517755
0001e0 ae 7a 56 3e 54 2b a6 be 34 50 ae be 13 98 cd be
       0.20945236 -0.32454932 -0.34045565 -0.40155086
0001f0 1d 9b a6 3e a6 f8 da 3f 2a 3e bf bc 5d 23 3c 3f
       0.32540217 1.7107131 -0.023345072 0.7349146
000200 91 77 2c bf 82 35 de be c7 b2 98 3d 81 10 14 be
       -0.67369944 -0.43400198 0.07455974 -0.1445942
000210 36 98 85 3f a4 34 e7 3e d3 51 2d bf 74 8b 64 3c
       1.0437076 0.4515735 -0.6770298 0.013949264
000220 01 c5 35 bf 6a 5c 34 3d be d8 e3 be ae 06 4e bc
       -0.7100373 0.044033445 -0.445013 -0.012574835
000230 35 70 42 bd 92 9f 0a be 89 65 08 3f bc da fe 3e
       -0.04747029 -0.13537434 0.5327993 0.49776256
000240 6d b0 ef 3d 00 af 95 bd d3 6a e2 bd ad 41 b8 3a
       0.117035724 -0.07308769 -0.11055531 0.0014057659
000250 14 fb 9c 3d b9 8a 0f bd 45 9d a9 bc af f7 1e bd
       0.07665077 -0.035044406 -0.020704875 -0.03881043
000260 77 ca 46 3d a0 8f bb 3c 04 4e dc bc 79 5f d8 3c
       0.04853293 0.022895634 -0.02689267 0.026412712
000270 cf 71 df bd 2b ad 9a 3d 07 d9 8a bb 8a 04 d3 bd
       -0.10910379 0.075525604 -0.0042372975 -0.103036
000280 18 0b 75 3d b4 51 9b bd c7 a0 96 bd 96 1e 9a 3c
       0.059825033 -0.07583943 -0.073548846 0.018813413
000290 ed 9d d2 bd 6e e1 bf bd bb 68 60 bb 5e a9 9f 3d
       -0.10284028 -0.09369169 -0.0034242112 0.07795976
0002a0 ed 2f 28 3d d5 76 59 3d 8e 57 ab bd 46 0f ac bd
       0.04106133 0.053091843 -0.08366309 -0.08401351
0002b0 5d f9 92 3d 13 c3 33 bd 5f e7 9b bc b0 a9 47 3d
       0.071764685 -0.04388721 -0.019031225 0.04874581
0002c0 b4 26 61 bd ac 9e 85 bd 2a 07 27 3c 85 1c 98 3d
       -0.05496855 -0.06524405 0.010194579 0.07427315
0002d0 a5 f1 43 3d bb 4e 24 bd 44 27 f1 bc 30 04 b3 3c
       0.047837872 -0.040114146 -0.029437669 0.021852583
0002e0 c0 1b a5 3d dc 3a c6 bd 74 aa 84 3d 6f 73 33 3d
       0.080619335 -0.09679195 0.06477824 0.043811258
0002f0 e9 39 9b bb 9d 73 3c 3c 7a 57 47 3d b1 34 04 bd
       -0.004737128 0.011502174 0.04866741 -0.032276813
000300 1f 8f cc 3c d3 41 f5 3a c3 d1 bd bd 10 8e 89 bd
       0.02497059 0.0018711634 -0.092685245 -0.067165494
000310 32 8a cd 3d 22 a1 6e bd 17 17 7b bd 4f 30 ab 3c
       0.10036124 -0.058259137 -0.061301317 0.020897059
000320 50 f5 9c 3d 6d e2 e4 3d 77 c4 0f bd 8a 4d 32 bd
       0.07663977 0.11176 -0.035099473 -0.04353098
000330 34 62 65 3d 62 1f da ba c4 86 a0 bd 26 ac 87 bd
       0.056001857 -0.0016641433 -0.078382045 -0.066246316
000340 24 05 3d 3d f5 b1 d0 3d f0 26 92 bd 6a da 78 bc
       0.04614748 0.101901926 -0.07136333 -0.015188793
000350 3b 9b 43 bc 0b ed f6 3d 83 f8 83 3d 91 ef 16 bb
       -0.011938865 0.12056931 0.06443884 -0.0023030976
000360 68 cd aa bc de 2d 0f 3c e8 a4 b1 bb 7c f8 a7 3b
       -0.020849898 0.008738963 -0.0054212697 0.005126057
000370 be 78 47 bc 20 e8 bb 3b ca fe 7a bc 5d e2 0e 3c
       -0.012174783 0.0057344586 -0.0153195355 0.008720961
000380 72 c9 d5 3b f6 24 01 3c 06 cc db 3a 9a 6a 9b bb
       0.0065242583 0.007882347 0.0016769178 -0.0047429325
000390 06 18 3a 3a 89 c0 ce 3b ee f7 00 3c d6 51 a4 bc
       0.00070989167 0.006309573 0.007871611 -0.020058554
0003a0 57 d9 00 3c c5 5b 6e 3c 9f a9 1e 3b 4d e3 47 bc
       0.007864318 0.014548247 0.0024209989 -0.012200189
0003b0 71 1b 9a 3b 80 aa f0 bc 87 83 45 3b 2e a8 b5 bc
       0.0047029783 -0.029378176 0.003013821 -0.02217492
0003c0 c0 f9 6c bd a4 73 c0 bd 91 3d 81 bd 00 98 26 bd
       -0.057855368 -0.09397057 -0.06310571 -0.040672302
0003d0 fa 9c 33 3d e0 2d 91 3c 1d 8f 8c 3e 69 ed 90 bc
       0.043850876 0.01772207 0.27452937 -0.017691331
0003e0 ff b0 1a bd cb 27 7e 3d 70 6b 86 bb cd 68 c6 3e
       -0.037766453 0.06204967 -0.004102163 0.38751832
0003f0 0d af 60 3b f4 f7 b6 bd 32 87 43 ba 13 2c 34 3e
       0.0034284026 -0.08934012 -0.00074588053 0.17594938

l1.bias f4 [64]
000000 9a 18 7f 3d a2 21 fb bc 61 19 a0 bd 6e 17 82 3a
       0.06227932 -0.030655686 -0.07817341 0.0009925195
000010 d4 77 f2 3d 28 f4 a9 bd 68 e5 c6 3d 81 49 48 3e
       0.11839262 -0.08298522 0.097117245 0.1955929
000020 d3 46 b7 39 34 59 ec 3d ad d3 19 3d 7d e7 29 3c
       0.00034957248 0.11540452 0.037555385 0.0103701325
000030 81 3a e4 bd c7 6e 81 3a 44 32 d5 bd 06 a0 b7 bb
       -0.11143971 0.0009874933 -0.10409978 -0.005603793
000040 ce d5 d3 b9 ce 44 a8 bb 19 2c 8e 3d 19 37 02 bb
       -0.00040404353 -0.0051351553 0.06942005 -0.0019869267
000050 f5 7d 8b 3d bd 2f 5c 3e 8a 5a fa 3d 7b 1c 87 3d
       0.06811134 0.21502586 0.122243 0.06597229
000060 71 f4 4e bc 01 0e d2 3d 97 a4 1c bd ce 22 ad 3a
       -0.012631522 0.10256577 -0.038242903 0.0013209225
000070 dd 82 00 3d 62 c8 10 3c 19 17 8b 3d 49 d1 27 bb
       0.0313748 0.0088368375 0.06791515 -0.0025606921
000080 03 e3 db 3d b8 3f d6 ba 9e eb e2 3d c8 b3 d5 3b
       0.107366584 -0.0016345894 0.11080097 0.0065216757
000090 06 4c 01 bb 24 9e 2e 3c ce a1 3f 3e 46 d7 4f 3d
       -0.0019729151 0.010657821 0.18714067 0.05074241
0000a0 58 81 f8 bb 7f 93 58 3d e8 92 15 3e a5 bc 6a 3d
       -0.0075837784 0.05287504 0.14606822 0.05730881
0000b0 7e e5 0b 3e ef 9b 6a 3d 86 ca 19 bb 5d 05 70 bd
       0.13661763 0.057277616 -0.002346666 -0.058598865
0000c0 a1 1f 58 3c b6 75 bb bb dd a1 64 3e d5 4f ce 3c
       0.013191135 -0.0057208193 0.22327371 0.025184551
0000d0 b0 b7 55 bc 44 46 38 3e 24 cb cd 3d db 4e ae 3d
       -0.013044283 0.17995554 0.100485116 0.08511134
0000e0 65 2f 8f bd a9 ce b9 bc 48 a9 7c 3b 94 70 07 3b
       -0.06991462 -0.022681551 0.0038553048 0.0020666467
0000f0 58 2a 11 3d 86 6c 84 3a c7 be 7c ba 1d 09 cb 3d
       0.035440773 0.0010103143 -0.0009641465 0.099138476

l2.weight f4 [64, 64]
000000 4d e6 6c be 66 ac da 3e b4 2f c4 bb 5b 5e a5 3d
       -0.23134728 0.42709655 -0.005987132 0.080746375
000010 12 bf 9d 3d e4 32 64 3d e3 8c 30 3e 98 aa 04 3e
       0.077024594 0.055712596 0.17241244 0.12955701
000020 c8 eb a9 3e 30 e0 c7 be 3f 6c 92 3d fa 78 6e be
       0.331877 -0.3903823 0.071495526 -0.23288336
000030 70 d8 3c bc d8 ff 11 3f 01 34 1e 3d 23 3d dc 3e
       -0.011526212 0.5703101 0.038623814 0.43015394
000040 0a 58 17 3f 03 2d ce 3d b4 c0 d5 3e c5 71 12 3e
       0.5911871 0.10067179 0.41748583 0.14301212
000050 9e 5e 24 3e a0 32 a3 bd 05 cc b7 3e db 2e 3d be
       0.16051719 -0.0796864 0.35897842 -0.18474905
000060 92 e7 2a bd 2d 46 ec 3e 97 1e 68 bf 9a 01 1e 3e
       -0.04172475 0.4614729 -0.90671676 0.15430298
000070 d9 0c 00 3f ed 2b 1a 3f 29 e5 45 3e cb f8 4f 3e
       0.50019604 0.60223275 0.19325699 0.2030975
000080 5d 56 aa 3e 55 b0 76 3e 92 89 c3 be 5f 44 aa 3e
       0.33269015 0.24090703 -0.38190895 0.33255288
000090 9a 5a 91 3e 39 d0 6f 3d 75 b8 43 be f2 42 17 3e
       0.28389436 0.058548186 -0.19113334 0.14771631
0000a0 76 3f eb be 75 c6 34 be 5c bb 33 be 14 dd 0d 3c
       -0.45946854 -0.1765383 -0.1755194 0.008658666
0000b0 33 34 db be c4 c0 d0 be e0 be bc 3d bc 3e ab 3e
       -0.42813262 -0.40772069 0.09216094 0.334463
0000c0 40 6b d1 bd cc ba 2e 3f 17 bd 78 3d fe 98 47 be
       -0.102255344 0.6825378 0.060727205 -0.19491956
0000d0 56 dc 81 3c 48 04 3d 3d 95 54 6b be b3 03 ca bc
       0.015852135 0.04614666 -0.22981484 -0.024659967
0000e0 35 aa 63 3e 6f 17 fd be e7 a1 a4 3e 2f 18 c1 3c
       0.22232898 -0.4943194 0.32154772 0.023571102
0000f0 b6 bd 46 be de d1 9e 3e 45 52 df 3d 34 f5 b6 bd
       -0.19408306 0.3101949 0.109043635 -0.089334875
000100 fe e4 89 bd e2 cf 3e 3d 14 f3 8d bd 7f ac 84 3d
       -0.0673313 0.04658497 -0.06931129 0.064782135
000110 e9 91 0d be 30 66 7e bd 68 3c 7a bc 1e a0 34 bb
       -0.13825192 -0.062109172 -0.015273191 -0.0027561258
000120 69 e2 5a 3c 96 11 ce bc da 67 2b 3d c5 e6 97 3d
       0.013359644 -0.02515487 0.041847087 0.07417063
000130 8a 53 ea bd 79 e6 c8 3c 8b c8 a5 3d 4e d0 1a bd
       -0.11441715 0.02452396 0.08094891 -0.03779631
000140 23 f0 a8 3c 08 47 97 bd 5b ad 1d bd 32 35 ea bd
       0.020622319 -0.07386595 -0.038495403 -0.114359275
000150 e9 d1 e8 bd 9d 54 4f 3d ba 39 06 be 1e fc 24 3d
       -0.11368162 0.050617803 -0.13107958 0.0402795
000160 e2 98 c6 3d 4a df 07 be a5 89 bb bd 70 78 e6 3d
       0.09697129 -0.13268772 -0.09157113 0.112534404
000170 8c 6d bf bd 1c 3f 42 bd 26 12 df bc f4 ba e9 bc
       -0.09347066 -0.047423467 -0.027230334 -0.028531529
000180 62 56 e6 bd a7 d8 12 be fb fc 7a 3d e1 01 f1 bd
       -0.11246945 -0.14340459 0.061276417 -0.117679365
000190 12 6e f9 bb 93 1f 61 bc 3d 48 09 be 15 b8 9b 3b
       -0.0076119984 -0.013740438 -0.13406463 0.004752169
0001a0 30 0c df bd d6 79 a3 bd 90 48 cc bd b5 c2 bf 3b
       -0.108909965 -0.07982223 -0.09974778 0.0058520683
0001b0 30 d5 67 3d 5e b3 6a bc 83 96 97 3d 63 7d c6 3d
       0.056599796 -0.014324991 0.07401755 0.09691884
0001c0 d7 de d9 3d ad bf 46 3d d0 aa 46 bd 8d a5 a7 bd
       0.106382065 0.04852264 -0.048502743 -0.08185873
0001d0 0c 5b c3 bd b1 ce d2 bd d9 b3 d3 bc 12 a0 c2 3c
       -0.0953885 -0.102933295 -0.025842594 0.023757968
0001e0 ef a9 a7 3d 8b d0 cd 3d e9 d7 94 3c 09 b6 82 bd
       0.08186709 0.10049542 0.01816936 -0.06382377
0001f0 a4 8b cb 3b 3e 07 05 3d fc 62 00 3d 6a 1d 95 bd
       0.006211715 0.03247761 0.0313444 -0.07281001
000200 67 05 66 bb 65 11 0e 3c e0 d2 98 bc cf da ab bd
       -0.0035098435 0.008671139 -0.01865524 -0.08391344
000210 4d a4 4c 3d a6 72 d2 3d f1 41 c7 3a 12 cf 02 3d
       0.049961377 0.10275774 0.0015202147 0.03193576
000220 d2 06 e9 bc bb 12 9d 3c 91 06 93 bc a8 6a ab 3d
       -0.028445635 0.01917397 -0.017947467 0.083699524
000230 20 02 70 3d c9 80 3c bd 66 66 af bd d6 c8 2e 3d
       0.058595777 -0.046021257 -0.08564453 0.042672
000240 fc f7 a1 3b e3 8c 99 3d b9 6f a4 bd b6 91 db bd
       0.004942892 0.07497575 -0.08029122 -0.107211515
000250 b6 e0 3e bd c4 18 57 bc 8a 98 6f 3d 03 a1 75 bd
       -0.04660102 -0.013128463 0.058495082 -0.059968006
000260 36 ce fc bc f5 9c fb bd e3 4f 5e bd e7 c1 28 bd
       -0.030860048 -0.122857966 -0.054275405 -0.041200545
000270 10 79 b3 bc cd cc 44 bd 49 2b a3 3d aa b8 ee 3c
       -0.021908313 -0.048046876 0.0796724 0.029140789
000280 ad 2d b1 bc d4 47 8a 3d 8a 14 87 3d 7b 3f a1 bd
       -0.021628225 0.067519814 0.065957144 -0.07873436
000290 7c 39 e2 bd fe ad f7 3b cc 74 f1 bd 16 06 d4 bd
       -0.110461205 0.0075585833 -0.11789855 -0.10352723
0002a0 83 9c 5e bd 7f 38 17 be 7e a4 11 be a7 87 32 3d
       -0.05434848 -0.14767645 -0.14222905 0.0435864
0002b0 6d c3 74 bd 1c 95 95 3d 6e 30 aa 3d 8e 2a 86 bd
       -0.059756685 0.07303831 0.083100185 -0.065510854
0002c0 d9 0e cd bd e1 93 51 3d 81 1e 77 bd 58 6e e9 3b
       -0.100125976 0.05116642 -0.060331825 0.0071237497
0002d0 a5 df 61 bd af 71 85 3d e4 0a 15 be 2a f5 8b b8
       -0.055144925 0.06515824 -0.14554936 -6.673702e-05
0002e0 fd 80 44 3d 3c 37 13 bc 4a d9 89 bd 08 b7 0a be
       0.047974575 -0.008985337 -0.06730898 -0.13546383
0002f0 e2 d4 08 3d aa 25 07 be cc a4 52 3d 1c 15 79 bd
       0.033406146 -0.13197961 0.051426694 -0.060811147
000300 2e 56 c8 bc c1 4d 82 be 3a 73 e2 bc c2 0e 38 3f
       -0.024455156 -0.25449947 -0.027642835 0.7189752
000310 3a 61 f7 bc 40 66 6b 3c 1e 38 02 3f 68 5f 84 3d
       -0.030197728 0.01436764 0.5086688 0.0646351
000320 ed 54 fc bd d0 b8 56 be f5 59 a5 be 11 d9 9a 3e
       -0.12320886 -0.20968938 -0.32295194 0.30243734
000330 56 8f b0 bd e8 e8 19 3f b9 08 cd be 95 4d 52 be
       -0.08621089 0.6012101 -0.40045717 -0.20537408
000340 6c 35 7f 3e bc d3 5f 3f 45 dc b5 bd 55 d5 e0 3e
       0.24922723 0.87432456 -0.08879904 0.4391276
000350 b3 c7 fc 3d c0 0f e0 bd 5a e7 e1 be 9a 90 41 bb
       0.12342777 -0.10940504 -0.4412182 -0.0029535652
000360 69 b5 91 3e 6f 8b c2 3e 25 99 7a 3f f7 0f 41 3e
       0.28458717 0.37997004 0.9788993 0.18853746
000370 af a6 af 3e 9d 07 93 be 27 64 09 3e 72 43 04 3f
       0.34306857 -0.28716746 0.13417111 0.51665413
000380 39 8c a4 be b1 e4 9d 3e 50 28 83 3e 03 e7 82 be
       -0.3213823 0.3083854 0.25616693 -0.25566873
000390 d9 35 b4 3e 55 db 5f 3e 7e 3a 90 3e 15 d9 33 3e
       0.35197333 0.21861012 0.28169626 0.17563279
0003a0 6e 2b 98 3e 3a 8a dc be f0 9e ed bd 4e 07 13 3e
       0.29720634 -0.43074208 -0.116025805 0.14358255
0003b0 dd 59 27 be 7b c3 85 3e 4e be be bd 77 b1 c5 3e
       -0.16342874 0.26125702 -0.093136415 0.38611957
0003c0 34 d3 85 3e b1 0e 2b 3f 11 c1 46 be 5f 40 03 3f
       0.26137698 0.6681929 -0.19409586 0.512701
0003d0 04 60 1a bd 33 c3 20 bf 91 58 17 be 25 3d e4 bd
       -0.037689224 -0.6279785 -0.14779879 -0.11144475
0003e0 8e 00 bc 3e ef 1c f7 bd 4f ec 63 3f 13 d6 96 3e
       0.36719173 -0.120660655 0.89032453 0.294602
0003f0 b9 25 36 3f 91 08 22 3f 41 f4 72 3e 39 6e 9e 3e
       0.7115131 0.6329432 0.23725988 0.30943468

l2.bias f4 [64]
000000 c1 4b 5a bd e8 35 13 be 97 db 07 be 1f 76 92 bd
       -0.0532949 -0.14376032 -0.1326736 -0.07151436
000010 5b e3 8c 3d 3e 47 c2 3c 24 e4 28 bd b8 51 2e be
       0.06879302 0.023715612 -0.041233197 -0.1702336
000020 65 b4 01 be 38 58 90 3e 90 f7 7d bc 1c de 8c 3d
       -0.12666471 0.28192306 -0.015500918 0.068783015
000030 ac 83 84 bc 29 0f 8a 3c e3 9f 97 bd 64 1a 80 3e
       -0.016176067 0.016852932 -0.07403543 0.25020134
000040 3d eb 02 be fa 8e fc bd 27 7a 2c be 56 09 44 3d
       -0.12785049 -0.12331958 -0.16843472 0.047860466
000050 a9 39 ad 3d 67 33 00 bc fc c3 bf bd 0d 2c 4c bd
       0.084582634 -0.007824755 -0.09363553 -0.049846698
000060 cd 75 c1 bd 0c 9a c8 3c 3a 83 10 3e ae b4 3a bd
       -0.09446297 0.024487518 0.14112559 -0.045582466
000070 c9 74 1a 3e 0d b4 91 3e a4 9e 3c 3d 6f 80 81 3e
       0.15083613 0.2845768 0.04604973 0.252933
000080 73 72 79 3d 9f 1c aa bc 3a 39 34 be 1b 79 84 3e
       0.060900163 -0.0207656 -0.17599955 0.25873646
000090 cc 0e 4f 3e 53 24 f8 bc dd e5 5f 3d ad 5b 1a 3e
       0.20220488 -0.030290758 0.054662574 0.15074034
0000a0 7d 04 6b 3e 24 91 13 3e 65 ce 30 bd 6d af 93 bd
       0.22950931 0.14410836 -0.043165583 -0.07211194
0000b0 db b7 a3 bd 3a b1 9a 3e dc b4 f2 bd 02 58 49 3e
       -0.07994052 0.30213338 -0.118509024 0.19662479
0000c0 1a d4 cd 3d 37 ae 8a 3e 4d 8e 7b 3e 57 b2 07 3d
       0.10050221 0.2708604 0.24566002 0.033129063
0000d0 3f 98 96 bd 27 f4 19 be 8f 9b 0d 3e 4b f9 59 bb
       -0.073532574 -0.15034543 0.13828872 -0.0033260162
0000e0 d4 03 41 3e 62 43 9d bd 27 d1 39 3c cd 71 79 bd
       0.18849117 -0.07678868 0.01134137 -0.060899545
0000f0 db a6 73 3e 78 8b 5e 3e 85 ad 0f be 50 81 51 3e
       0.23794119 0.2173289 -0.14031036 0.20459485

l3.weight f4 [1, 64]
000000 23 7d ce bf 7b f5 8b 3b 1e 85 c2 bd 18 a0 be bf
       -1.6131939 0.004271207 -0.09498046 -1.4892607
000010 34 8f 13 40 e2 66 ab bf fe 8a e5 bf 1c 1c c4 bf
       2.3056154 -1.3390772 -1.7933042 -1.5321078
000020 65 14 bf 3d a9 ee 93 3e 96 3a ad bf 00 17 4b 40
       0.09330062 0.2889302 -1.3533504 3.1732788
000030 1e fb 9f bf b7 80 00 40 5d f4 2d bd b6 32 a8 3e
       -1.249851 2.0078561 -0.04246937 0.3285119
000040 ce 18 f4 3b c1 da 93 bd 03 0e 35 40 00 0d bf bf
       0.007449246 -0.07219458 2.8289802 -1.4925842
000050 40 15 ab bf 91 a6 b9 bf 46 a6 6c 40 6f 29 ae 3f
       -1.336586 -1.4503957 3.6976485 1.3606395
000060 b6 31 c3 bf 77 20 d2 bf 65 12 cb 3e f4 81 01 bd
       -1.5249546 -1.6416157 0.3966247 -0.031618074
000070 8e 9e ee bf 5e b0 ab 3e 5b 49 0f c0 8c a7 d1 3e
       -1.8642137 0.33532995 -2.2388523 0.4094814
000080 4c 2f b7 bc 7b 6b b5 bf ef 4c 52 40 37 0b b9 3e
       -0.02236142 -1.4173425 3.2859457 0.3614137
000090 ac c5 ce 3e 51 c1 ba bf 12 4b 68 bf 2e 74 d3 3e
       0.40385187 -1.4590245 -0.9073955 0.41299576
0000a0 b6 12 bf 3e 01 51 00 c0 88 0f f9 3f 9d e0 b2 bf
       0.37318963 -2.004944 1.9457865 -1.3974797
0000b0 45 46 5e bd e7 5b 9f 3e 20 97 ac bf f3 9e be 3e
       -0.054266233 0.31124803 -1.348362 0.37230644
0000c0 f0 d8 0c c0 00 a2 a6 3e 20 10 d1 3e 2c 65 43 41
       -2.2007408 0.3254547 0.40832615 12.2122
0000d0 2f 0f 14 c0 db 84 b8 bf d6 9b f3 3e fb 0b b8 bf
       -2.3134267 -1.4415544 0.4757983 -1.4378656
0000e0 68 e7 e6 bf e4 c6 01 c0 2e e9 c6 bf cc be 76 c0
       -1.803937 -2.0277643 -1.5539911 -3.8553953
0000f0 69 cd 9a 3e 96 72 0d 3f e9 fb 78 bb 44 12 b9 3e
       0.3023484 0.5525297 -0.0037991947 0.36146748
