examples/experiments/experiment_99/critic5_4.pth (torch, 37463 bytes, 5 tensors)

l1.weight f4 [64, 72]
0.034647528 -0.15574966 -0.11077226 0.0048173596 0.18212044 0.1586497 -0.24250476 -0.05265479
-0.015971953 -0.38012344 -0.029891653 0.048485417 -0.15206239 0.1786714 -0.024831977 0.18122475
-0.026533166 0.14603066 0.085026175 0.08236235 0.08478479 -0.09930824 0.22968382 0.08572976
0.13775836 0.14904085 -0.15841947 0.007885344 -0.08499322 -0.022931743 0.11703511 0.038480416
-0.06188857 0.002877224 -0.046374407 -0.17674586 0.11194383 0.14571969 0.026246537 0.14462
-0.15304111 -0.057198025 0.13687056 0.0034780703 -0.061968554 -0.092826895 0.017561559 0.092229694
0.25441292 -0.1379079 -0.39633697 -0.04800708 -0.33441347 0.13784222 0.30548534 -0.110327035
-0.17537 0.5482769 -0.3767192 0.13749698 -0.1810288 -0.42538342 0.47331914 -0.079940364
-0.04623565 -0.08824497 -0.28168836 -0.018523548 0.20973757 0.26037076 0.18860447 0.05092313
-0.13231394 -0.1370625 0.095824696 -0.27829722 -0.0023954299 -0.08419087 -0.4080801 -0.0038361247
0.12907943 0.09625415 0.19116025 0.013467579 -0.02598625 -0.38226837 0.16117719 -0.2324116
0.16479866 0.19362167 0.16080745 -0.38717258 -0.014662391 0.028940717 -0.06960911 0.11317174
0.1160855 0.11299515 0.078059874 0.012350048 -0.030271603 -0.055184223 0.13997498 -0.18214072
0.14009114 -0.0073063346 -0.0032308584 -0.075024806 -0.29333708 0.20134833 0.066592425 0.09366339
0.10637809 0.14678639 -0.13074507 -0.0731378 0.03058649 -0.13335612 0.5060261 0.08280259
-0.058878914 -0.24128106 0.4197971 0.2673954 0.39174393 1.1773977 -0.17363876 -0.5587436
-0.2868407 0.31120747 0.3437169 -0.3567787 0.31493098 -0.5667062 -0.35065517 0.035094276
-0.32175767 -0.22261561 -0.24610202 0.25832114 -0.5656535 0.018199937 0.88257676 0.6115436
0.117035724 -0.07308769 -0.11055531 0.0014057659 0.07665077 -0.035044406 -0.020704875 -0.03881043
0.04853293 0.022895634 -0.02689267 0.026412712 -0.10910379 0.075525604 -0.0042372975 -0.103036
0.059825033 -0.07583943 -0.073548846 0.018813413 -0.10284028 -0.09369169 -0.0034242112 0.07795976
0.04106133 0.053091843 -0.08366309 -0.08401351 0.071764685 -0.04388721 -0.019031225 0.04874581
-0.05496855 -0.06524405 0.010194579 0.07427315 0.047837872 -0.040114146 -0.029437669 0.021852583
0.080619335 -0.09679195 0.06477824 0.043811258 -0.004737128 0.011502174 0.04866741 -0.032276813
0.02497059 0.0018711634 -0.092685245 -0.067165494 0.10036124 -0.058259137 -0.061301317 0.020897059
0.07663977 0.11176 -0.035099473 -0.04353098 0.056001857 -0.0016641433 -0.078382045 -0.066246316
0.04614748 0.101901926 -0.07136333 -0.015188793 -0.011938865 0.12056931 0.06443884 -0.0023030976
0.024325656 0.054062266 0.016560106 0.08636832 0.16419668 -0.048777863 -0.14750582 0.13318905
-0.019343548 -0.024853032 0.05322144 -0.19903728 0.044086773 -0.20387153 0.04332383 -0.09590205
-0.07136823 -0.12043562 -0.1477646 0.007426309 0.08933332 -0.14457315 -0.04105296 -0.2688413
-0.04473111 0.10150532 -0.03049199 0.017777907 0.029869262 -0.0194859 0.06041413 -0.052961163
-0.067271814 -0.010902967 -0.07889637 0.13178705 -0.09970208 -0.009802282 0.017301586 0.045449294
00000000: 91ea 0d3d d77c 1fbe 91dc e2bd f1da 9d3b
00000010: c87d 3a3e 1175 223e 2b53 78be 8dac 57bd
00000020: 9dd7 82bc 8a9f c2be 57df f4bc a598 463d
00000030: 3eb6 1bbe a3f5 363e 6e6c cbbc fb92 393e
00000040: 155c d9bc 1089 153e 3422 ae3d 97ad a83d
00000050: a6a3 ad3d 1e62 cbbd 3c32 6b3e 1693 af3d
00000060: 8710 0d3e 2a9e 183e b738 22be 8831 013c
00000070: ed10 aebd 5adb bbbc 1bb0 ef3d a49d 1d3d
00000080: df7e 7dbd cf8f 3c3b 17f3 3dbd defc 34be
00000090: cf42 e53d 8b37 153e fa02 d73c 4417 143e
000000a0: cfb6 1cbe 7a48 6abd cc27 0c3e 56f0 633b
000000b0: bdd2 7dbd 071c bebd 42dd 8f3c ece2 bc3d
000000c0: 6942 823e bb37 0dbe aeec cabe 12a3 44bd
000000d0: 3e38 abbe 8326 0d3e 9368 9c3e 24f3 e1bd
000000e0: 3194 33be e05b 0c3f 57e1 c0be 02cc 0c3e
000000f0: 9d5f 39be dbcb d9be e356 f23e c6b7 a3bd
00000100: 9861 3dbd c7b9 b4bd 7539 90be b2be 97bc
00000110: 72c5 563e 514f 853e 8821 413e c694 503d
00000120: 4e7d 07be 1d5a 0cbe bd3f c43d f97c 8ebe
00000130: a5fc 1cbb 436c acbd e0ef d0be 7e67 7bbb
00000140: 662d 043e e520 c53d 83bf 433e 1fa7 5c3c
00000150: 1ee1 d4bc aeb8 c3be a20b 253e 4efd 6dbe
00000160: fbc0 283e c244 463e b5aa 243e 7c3b c6be
00000170: 863a 70bc 1515 ed3c 398f 8ebd 96c6 e73d
00000180: 3cbe ed3d 006a e73d dbdd 9f3d db57 4a3c
00000190: 27fc f7bc da08 62bd 9a55 0f3e 1983 3abe
000001a0: 0d74 0f3e fa69 efbb cfbc 53bb 9ba6 99bd
000001b0: 4730 96be 422e 4e3e 9c61 883d 97d2 bf3d
000001c0: c2dc d93d 2c4f 163e 09e2 05be 45c9 95bd
000001d0: 8590 fa3c 828e 08be ed8a 013f 6894 a93d
000001e0: 042b 71bd 6212 77be a5ef d63e 0de8 883e
000001f0: a992 c83e f8b4 963f 5cce 31be d209 0fbf
00000200: c9dc 92be 9656 9f3e a9fb af3e b3ab b6be
00000210: a23e a13e a813 11bf 1389 b3be 04bf 0f3d
00000220: 6cbd a4be 59f5 63be 2b02 7cbe ab42 843e
00000230: abce 10bf 0918 953c 8df0 613f 1f8e 1c3f
00000240: 6db0 ef3d 00af 95bd d36a e2bd ad41 b83a
00000250: 14fb 9c3d b98a 0fbd 459d a9bc aff7 1ebd
00000260: 77ca 463d a08f bb3c 044e dcbc 795f d83c
00000270: cf71 dfbd 2bad 9a3d 07d9 8abb 8a04 d3bd
00000280: 180b 753d b451 9bbd c7a0 96bd 961e 9a3c
00000290: ed9d d2bd 6ee1 bfbd bb68 60bb 5ea9 9f3d
000002a0: ed2f 283d d576 593d 8e57 abbd 460f acbd
000002b0: 5df9 923d 13c3 33bd 5fe7 9bbc b0a9 473d
000002c0: b426 61bd ac9e 85bd 2a07 273c 851c 983d
000002d0: a5f1 433d bb4e 24bd 4427 f1bc 3004 b33c
000002e0: c01b a53d dc3a c6bd 74aa 843d 6f73 333d
000002f0: e939 9bbb 9d73 3c3c 7a57 473d b134 04bd
00000300: 1f8f cc3c d341 f53a c3d1 bdbd 108e 89bd
00000310: 328a cd3d 22a1 6ebd 1717 7bbd 4f30 ab3c
00000320: 50f5 9c3d 6de2 e43d 77c4 0fbd 8a4d 32bd
00000330: 3462 653d 621f daba c486 a0bd 26ac 87bd
00000340: 2405 3d3d f5b1 d03d f026 92bd 6ada 78bc
00000350: 3b9b 43bc 0bed f63d 83f8 833d 91ef 16bb
00000360: 9946 c73c 6570 5d3d 0fa9 873c e0e1 b03d
00000370: 2d23 283e 4ccb 47bd c40b 17be b662 083e
00000380: 5c76 9ebc 9698 cbbc bafe 593d 6ed0 4bbe
00000390: 5594 343d b3c3 50be 5474 313d 4b68 c4bd
000003a0: 8229 92bd f3a6 f6bd 9a4f 17be 6558 f33b
000003b0: 63f4 b63d fc0a 14be 2627 28bd 91a5 89be
000003c0: f837 37bd 05e2 cf3d 56ca f9bc f9a2 913c
000003d0: 62b0 f43c e5a0 9fbc cf74 773d ceed 58bd
000003e0: cec5 89bd 5ca2 32bc 6c94 a1bd 2ff3 063e
000003f0: 9b30 ccbd c099 20bc 0ebc 8d3c 0a29 3a3d

l1.bias f4 [64]
0.10729974 0.058475405 -0.07817341 0.060113143 0.1204983 -0.08298522 0.05091118 0.076073326
0.063689545 0.09761968 0.07545293 0.025083063 -0.11143971 -0.016161762 -0.03613816 0.036975935
-0.034979526 -0.056022827 0.079610646 -0.05862128 0.044594478 0.059856094 0.0729971 0.06559641
0.0073532895 0.063149616 -0.050186504 0.006005197 -0.0030056264 0.024378084 -0.0049758283 -0.040095437
0.09398033 -0.08589738 0.0949662 0.00096192287 -0.019138403 0.062766224 0.1469508 0.07652962
0.02082756 0.10369811 0.07827448 0.016882807 0.059295353 0.05049 0.016510526 -0.07696228
-0.02705299 -0.042177647 0.13212177 0.0047171484 0.018905303 0.13020565 0.04921696 0.083924085
-0.013688369 -0.012643477 -0.02967798 0.013380974 0.0079122055 -0.021311713 -0.033815455 0.033162724
00000000: f7bf db3d e883 6f3d 6119 a0bd 3339 763d
00000010: d0c7 f63d 28f4 a9bd 3e88 503d 55cc 9b3d
00000020: aa6f 823d d4ec c73d 1187 9a3d ff7a cd3c
00000030: 813a e4bd ac65 84bc 9b05 14bd 1474 173d
00000040: b146 0fbd 3178 65bd e80a a33d de1c 70bd
00000050: b3a8 363d aa2b 753d 817f 953d 6957 863d
00000060: ddf3 f03b 9654 813d 5d90 4dbd 3ec7 c43b
00000070: 0bfa 44bb 8cb4 c73c 460c a3bb 1d3b 24bd
00000080: c278 c03d f7ea afbd a47d c23d 8d29 7c3a
00000090: 24c8 9cbc 948b 803d 457a 163e 90bb 9c3d
000000a0: 8f9e aa3c ad5f d43d 5f4e a03d d04d 8a3c
000000b0: afdf 723d 9ace 4e3d 1541 873c 669e 9dbd
000000c0: 3b9e ddbc 78c2 2cbd ee4a 073e 4f92 9a3b
000000d0: 4bdf 9a3c a154 053e b997 493d 64e0 ab3d
000000e0: 2e45 60bc 9626 4fbc 3c1f f3bc df3b 5b3c
000000f0: 32a2 013c e795 aebc 1382 0abd a3d5 073d

l2.weight f4 [64, 64]
-0.14884342 0.18919685 -0.005987132 0.3414194 0.04446014 0.055712596 0.20747717 0.10557691
0.17616954 -0.19957557 -0.12558217 0.13731033 -0.011526212 0.3487762 -0.022012718 0.109308325
0.8237519 0.30927795 0.18158907 0.15502605 0.1819632 -0.1205403 0.332383 -0.06586841
0.012276831 0.36768058 -0.4839672 0.28883106 0.31704038 0.4322852 0.1784564 0.31060728
0.2651802 0.5211371 -0.23525819 0.214212 0.07467438 0.0965114 -0.11796968 0.21512231
-0.40111327 -0.29613954 -0.106851645 -0.035677824 -0.030415643 -0.37163585 -0.017271562 -0.05923912
0.04343133 0.6285978 -0.015177765 -0.123022474 0.0071236384 -0.045193885 -0.20778559 -0.0858712
-0.059119258 -0.32900366 0.6187208 0.034605302 -0.0963758 0.2086565 0.1989066 0.017026868
-0.03937799 0.057186563 -0.06931129 0.07113201 -0.11870382 -0.062109172 0.0016860267 0.0048161326
0.0035862713 -0.009297758 0.06046736 0.112828344 -0.11441715 0.04192366 0.095317416 -0.0143422065
0.03884335 -0.06426192 0.0035775849 -0.11443153 -0.10718637 0.07746897 -0.12888 0.06170098
0.09774903 -0.1293191 -0.088193536 0.106199004 -0.09445392 -0.026393607 -0.015192223 -0.02766107
-0.09762858 -0.11778718 0.09074288 -0.12383766 -0.01056481 0.009059124 -0.11873164 0.036251746
-0.093964085 -0.06936166 -0.09088008 0.01942897 0.08143732 0.00856253 0.09906989 0.09818584
0.108319685 0.06992432 -0.015711812 -0.06650184 -0.0673106 -0.07942893 -0.0036859622 0.059565857
0.08591379 0.09919169 0.0339655 -0.051463123 0.03629218 0.0302649 0.02318041 -0.069004096
0.009079787 0.008671139 -0.01865524 -0.071357034 0.0626413 0.10275774 0.013900741 0.03193576
-0.028445635 0.01917397 -0.005283759 0.09638929 0.058595777 -0.033454213 -0.07299133 0.05526867
0.017630419 0.07497575 -0.067609444 -0.107211515 -0.04660102 -0.013128463 0.07117067 -0.04734407
-0.018252185 -0.11018808 -0.041632056 -0.041200545 -0.021908313 -0.048046876 0.09228312 0.041823216
-0.008943184 0.08021098 0.078641124 -0.06611002 -0.110461205 0.020215672 -0.10524917 -0.09083948
-0.041681588 -0.13500206 -0.14222905 0.0435864 -0.0472952 0.08560815 0.09545656 -0.05286981
-0.100125976 0.063783534 -0.060331825 0.019650057 -0.043029085 0.07783535 -0.13417135 0.01262694
0.060138483 0.0036433178 -0.06730898 -0.13546383 0.046097208 -0.11930895 0.051426694 -0.060811147
-0.042159617 -0.07462783 -0.027642835 0.77755535 -0.04123892 0.01436764 0.34439343 -0.07544054
0.013216634 -0.16863626 -0.16690166 0.4060044 -0.08621089 0.52208424 -0.0465155 -0.09362067
0.31008056 0.7501858 -0.11700233 0.43836135 0.1045902 -0.16208483 -0.13763298 0.023955239
0.18062201 0.18776159 0.37395117 0.3426789 0.32126144 0.10168107 0.13370635 0.7156371
-0.25268498 0.31648532 0.14048176 -0.18642835 0.23415835 0.14104827 0.096575394 0.107684866
0.015602027 -0.3024223 -0.03506757 0.18929368 -0.029166982 0.22034256 -0.07242839 -0.031818718
0.25050262 0.70433694 -0.17567839 0.1722953 -0.036839403 -0.24995065 0.009204503 -0.20304166
0.164059 -0.2502449 0.7760113 0.09358529 0.40701884 0.6452597 0.46674532 0.20760494
00000000: 696a 18be d2bc 413e b42f c4bb 86ce ae3e
00000010: d61b 363d e432 643d e574 543e b538 d83d
00000020: ca65 343e 8a5d 4cbe 9d98 00be 149b 0c3e
00000030: 70d8 3cbc cb92 b23e 0454 b4bc 0bdd df3d
00000040: 68e1 523f ae59 9e3e 7cf2 393e 26bf 1e3e
00000050: 9054 3a3e d5dd f6bd 1b2e aa3e 04e6 86bd
00000060: c324 493c a140 bc3e 8dca f7be aae1 933e
00000070: 1e53 a23e 7c54 dd3e 46bd 363e eb07 9f3e
00000080: b3c5 873e 3e69 053f 86e7 70be 645a 5b3e
00000090: e2ee 983d c5a7 c53d 169a f1bd 0649 5c3e
000000a0: b85e cdbe 9a9f 97be 09d5 dabd e922 12bd
000000b0: 3a2a f9bc 0e47 bebe 177d 8dbc b8a4 72bd
000000c0: 0de5 313d c9eb 203f 29ac 78bc 35f3 fbbd
000000d0: 696d e93b 391d 39bd bfc5 54be 3ddd afbd
000000e0: 0927 72bd 2b73 a8be 7d64 1e3f 4abe 0d3d
000000f0: ad60 c5bd 0daa 553e 2cae 4b3e ee7b 8b3c
00000100: d14a 21bd 753c 6a3d 14f3 8dbd a9ad 913d
00000110: fd1a f3bd 3066 7ebd abfd dc3a a6d0 9d3b
00000120: a607 6b3b a055 18bc 9fac 773d 8c12 e73d
00000130: 8a53 eabd 25b8 2b3d c735 c33d 93fb 6abc
00000140: 341a 1f3d c19b 83bd ea75 6a3b 145b eabd
00000150: 8784 dbbd 0da8 9e3d 1ef9 03be 2bba 7c3d
00000160: a530 c83d 3a6c 04be d09e b4bd dd7e d93d
00000170: 0f71 c1bd 6837 d8bc cde8 78bc 7899 e2bc
00000180: 7ef1 c7bd 683a f1bd 67d7 b93d 999e fdbd
00000190: 0618 2dbc b86c 143c 9329 f3bd b67c 143d
000001a0: 3e70 c0bd 7c0d 8ebd 561f babd 8129 9f3c
000001b0: 9cc8 a63d db49 0c3c 28e5 ca3d a815 c93d
000001c0: b6d6 dd3d 7b34 8f3d 0fb6 80bc 1e32 88bd
000001d0: 24da 89bd a3ab a2bd 2f90 71bb 54fb 733d
000001e0: 92f3 af3d 0325 cb3d 681f 0b3d ffca 52bd
000001f0: 1ca7 143d 18ee f73c d8e4 bd3c 0552 8dbd
00000200: 63c3 143c 6511 0e3c e0d2 98bc a323 92bd
00000210: 154a 803d a672 d23d efbf 633c 12cf 023d
00000220: d206 e9bc bb12 9d3c 6223 adbb c067 c53d
00000230: 2002 703d 4907 09bd 7a7c 95bd 6761 623d
00000240: ab6d 903c e38c 993d d276 8abd b691 dbbd
00000250: b6e0 3ebd c418 57bc eec1 913d dbeb 41bd
00000260: 9b85 95bc 4aaa e1bd 6086 2abd e7c1 28bd
00000270: 1079 b3bc cdcc 44bd effe bc3d d24e 2b3d
00000280: 6f86 12bc a745 a43d 990e a13d b164 87bd
00000290: 7c39 e2bd 569b a53c e08c d7bd 0d0a babd
000002a0: 50ba 2abd fb3d 0abe 7ea4 11be a787 323d
000002b0: 9db8 41bd 5353 af3d bb7e c33d 048e 58bd
000002c0: d90e cdbd f1a0 823d 811e 77bd 28f9 a03c
000002d0: 443f 30bd 2468 9f3d 3764 09be 3ae1 4e3c
000002e0: c553 763d bbc4 6e3b 4ad9 89bd 08b7 0abe
000002f0: 6dd0 3c3d 4058 f4bd cca4 523d 1c15 79bd
00000300: 90af 2cbd 7ad6 98bd 3a73 e2bc de0d 473f
00000310: 24ea 28bd 4066 6b3c 5654 b03e 9280 9abd
00000320: 958a 583c fcae 2cbe 45e8 2abe cfdf cf3e
00000330: 568f b0bd 50a7 053f 0987 3ebd 32bc bfbd
00000340: e1c2 9e3e 2d0c 403f eb9e efbd e670 e03e
00000350: 6333 d63d 91f9 25be a9ef 0cbe c73d c43c
00000360: faf4 383e 9344 403e 8776 bf3e 9c73 af3e
00000370: 617c a43e 2a3e d03d 51ea 083e fe33 373f
00000380: ed5f 81be 5d0a a23e 73da 0f3e 13e7 3ebe
00000390: 35c7 6f3e f56e 103e 52c9 c53d e289 dc3d
000003a0: a59f 7f3c 19d7 9abe 03a3 0fbd 34d6 413e
000003b0: 98ef eebc 7ba1 613e 5655 94bd 5854 02bd
000003c0: e141 803e 6d4f 343f 09e5 33be 2e6e 303e
000003d0: eae4 16bd 10f3 7fbe 7cce 163c 27ea 4fbe
000003e0: 15ff 273e 1920 80be ada8 463f a5a9 bf3d
000003f0: c664 d03e bd2f 253f 3ef9 ee3e 6496 543e

l2.bias f4 [64]
-0.027194845 -0.11918563 -0.11998964 -0.069809295 0.040974654 0.04814992 0.0084709395 -0.120695256
-0.10772181 0.1932635 -0.022333372 0.013372674 -0.0003873129 -0.049427837 -0.061452553 0.15918633
-0.12785049 -0.110630795 -0.13441895 0.09504564 0.050717514 0.026137354 -0.058511097 -0.10284292
-0.017615635 -0.00046546556 0.035865676 -0.032924425 0.14564879 0.1944275 0.0372284 0.1562472
0.07355614 -0.0360766 -0.05494427 0.16712976 0.10467969 0.026255272 0.0657245 0.054329854
0.13820964 0.16710626 -0.03316091 -0.073569305 -0.07994052 0.20843948 -0.09124912 0.10443514
0.15898554 0.18136013 0.1510412 0.059364144 -0.06719066 -0.11777236 0.04651139 0.007272399
0.161932 -0.07900846 0.034957606 0.05501563 0.14866094 0.13546035 -0.12768495 0.11171542
00000000: b9c7 debc 9817 f4bd 21bd f5bd 2df8 8ebd
00000010: 0ad5 273d da38 453d b2c9 0a3c 132f f7bd
00000020: 419d dcbd dee6 453e 7af4 b6bc 0f19 5b3c
00000030: 4210 cbb9 d874 4abd acb5 7bbd be01 233e
00000040: 3deb 02be 6692 e2bd 1fa5 09be 4aa7 c23d
00000050: 2bbd 4f3d 011e d63c 55a9 6fbd 4f9f d2bd
00000060: aa4e 90bc bb09 f4b9 e3e7 123d c3db 06bd
00000070: f524 153e 0118 473e cf7c 183d 44ff 1f3e
00000080: 9aa4 963d 0fc5 13bd 3e0d 61bd 1024 2b3e
00000090: 4e62 d63d 4c15 d73c 919a 863d fb88 5e3d
000000a0: d486 0d3e e71d 2b3e bcd3 07bd 81ab 96bd
000000b0: dbb7 a3bd 2971 553e d2e0 babd 17e2 d53d
000000c0: 1bcd 223e 78b6 393e 8baa 1a3e d127 733d
000000d0: 429b 89bd a332 f1bd ba82 3e3d 4e4d ee3b
000000e0: 81d1 253e 30cf a1bd b52f 0f3d 1258 613d
000000f0: 933a 183e 1eb6 0a3e d8bf 02be 0ecb e43d

l3.weight f4 [1, 64]
-1.2717907 0.0071442104 -0.102548756 -1.1023792 1.9410285 -1.0071925 -0.867408 -1.1863042
0.105412655 0.19468579 -0.90812945 2.091638 -0.8394736 2.1230638 -0.05039766 0.23067918
0.007449246 -0.08335952 2.671778 -0.9365402 -1.0439059 -1.0930369 2.8462126 0.48806885
-1.2347769 -1.5520779 0.28284627 -0.04268972 -1.5163546 0.23388477 -0.98740464 0.30403066
-0.032151327 -1.0393516 2.6379845 0.26051798 0.2986109 -1.2730074 -0.6083735 0.307267
0.27129468 -0.90103656 2.0683599 -1.0363835 -0.054266233 0.20372799 -1.0602957 0.2747096
-1.878066 0.22310457 0.30495912 3.694998 -0.3213207 -1.2654198 0.349975 -1.0468863
-1.3492715 -1.6157361 -1.3057002 -0.054817956 0.19828635 0.23556519 -0.014988005 0.25651488
00000000: 0aca a2bf fb19 ea3b 1505 d2bd c31a 8dbf
00000010: 9f73 f83f afeb 80bf 730e 5ebf d1d8 97bf
00000020: 97e2 d73d b65b 473e 2c7b 68bf 66dd 0540
00000030: bee7 56bf 47e0 0740 c76d 4ebd 2a37 6c3e
00000040: ce18 f43b 65b8 aabd 69fe 2a40 19c1 6fbf
00000050: b59e 85bf a2e8 8bbf 5928 3640 29e4 f93e
00000060: 2b0d 9ebf 7daa c6bf 3ad1 903e 6adb 2ebd
00000070: e817 c2bf 7d7f 6f3e 8dc6 7cbf e8a9 9b3e
00000080: 1cb1 03bd 7909 85bf bdd4 2840 9d62 853e
00000090: 87e3 983e e8f1 a2bf 5ebe 1bbf 1a52 9d3e
000000a0: 23e7 8a3e 55aa 66bf 0260 0440 37a8 84bf
000000b0: 4546 5ebd 129e 503e c5b7 87bf bda6 8c3e
000000c0: 7764 f0bf 8675 643e 9a23 9c3e d97a 6c40
000000d0: 2684 a4be 47f9 a1bf ec2f b33e 5f00 86bf
000000e0: eeb4 acbf 71d0 cebf 2f21 a7bf cb88 60bd
000000f0: 940b 4b3e 0038 713e 4090 75bc eb55 833e
