examples/experiments/experiment_85/actor6_3.pth (torch, 28759 bytes, 6 tensors)

l1.weight f4 [64, 36]
00000000: fb08 383e b828 7d3e 760c 9abc 691e a3bd
00000010: 578e 173e d3bd df3d 72a3 223d 1c29 a1bf
00000020: 6763 ac3f da43 10be ebb9 923e cae8 2cbd
00000030: 7645 35be 0c52 01bd 9765 b8bd 4108 c1bd
00000040: f061 613e 11b2 63be a8bc 5f3e a459 ab3a
00000050: fc50 df3d e67d e33d 6b81 933d 3c91 b4bb
00000060: 900f 0f3e fdc6 643e 1f69 f8bd 6a85 cebe
00000070: dcf5 193d 2c77 60be 4381 1dbe 92cf ce3d
00000080: 1fbc 60be afd0 fdbc db2d d03e 499a a3be
00000090: a279 17bf 59b8 153f 9f36 4b3e 4516 b13d
000000a0: b554 c53d 14ab 0abe ea6a f53f 6462 813e
000000b0: 593a 85be 18ca 35be 31cb 823d 0ff5 753e
000000c0: ad54 2dbe c6e6 7ebe befd 2a3e ba82 cdbe
000000d0: 4700 ca3d 63d7 52bc 9859 44bc 111b 21be
000000e0: d5c7 c23e 14cb 0abb ea26 3b3e 6055 9e3e
000000f0: c3f5 f3bd a6f0 9d3d 182a 863e 5b9e c93e
00000100: ec37 21be f55a 803e e73b 933e 2ed4 f93c
00000110: e8bb 04be 8044 933e 3ca3 84bc 4e19 c63d
00000120: dc6a 2d3f 8db2 95be ebce 653e 6724 833d
00000130: cced 803e 3b5d 13be 88f4 cdbf 62b1 6dbf
00000140: 0ce4 b03c 424d 67bd 9487 b1be 81e7 3d3e
00000150: dfa4 253e f524 13be ad00 12be de9b 9f3e
00000160: 6cf1 33be f873 0f3e 4971 bbbd 5a23 9ebe
00000170: d168 1b3e 71e8 43bb 39f0 093c 67dd bd3d
00000180: d44a d0bd 3c95 a2be 6dc9 a5bd d9f3 c0bd
00000190: 86d3 d7bd 5cf7 073d 0f48 54be ee9a 34be
000001a0: 9c60 c13d cae3 0cbe fa94 dcbd 615c 353c
000001b0: 7e29 80bd 6b06 543d 7c70 163e 3bbd 993d
000001c0: a26e 15be 000d 403b 4ab2 163e cff5 07be
000001d0: 3496 083e 362b 783d 0aad 21be 1cad 29be
000001e0: c6af cf3d 86b2 043d 4b2d 9abd 9644 16bc
000001f0: 107b 7c3d 480e c1bd 96f9 14bc 305b 5b3d
00000200: 8fc0 21be bef5 bb3d 16f1 1e3d 0663 3b3d
00000210: dbeb 28be 8e08 8d3d 1465 153e ce32 eebd
00000220: a393 89bd 4ee5 b7bd f8c9 9e3d f438 123e
00000230: f8c3 fabd 3b84 14bd c050 6d3c c0a7 7f3d
00000240: 6b5d 02bc 7899 a83d 566c edbc 0bbb c33c
00000250: 54c8 01be 4b92 ab3d b6d7 f33c d6ee 6f3c
00000260: 2b3e 363c a61d d2bd f3e8 fa3d 7306 0ebe
00000270: 9645 cf3d e385 c33d dbce 003e 1876 9cbd
00000280: d626 cdbc 323c 1e3e 40c7 8b3d 8e59 1c3e
00000290: b0c6 783d 4674 2dbd b71f 14be cec6 cebd
000002a0: f6c2 ca3c 3375 8ebd 93e6 29be cb5a c8bd
000002b0: 2e8e ee3d 88ea d83d 764d d03d 5619 07be
000002c0: 9b39 81bd 6ed8 92bd d08b 3f3d a305 00be
000002d0: 6fe9 953e d20c 03bf faff be3e 065b 19be
000002e0: 852a 6abe 394c 01be e3ee fabe 6751 23bf
000002f0: e969 5bbf 4e94 d5ba 5485 a83d e2ac 043e
00000300: bb75 9d3d 64d7 763e 8af3 563e 445c 20be
00000310: a05f 07be 3d25 843e 5c83 003d 7b8f e8bc
00000320: c8ab 93bd eeef 8fbc da16 e03d 6274 143e
00000330: 5950 a93e bed7 c03d bf8e 4c3e 0dd7 183e
00000340: cb4f c23e 7bb2 193d 8a7a 4f3e fb1a f93d
00000350: 293b 923e 6973 203e 3a24 6f3e 40cf 7d3e
00000360: f3b8 633e 51cf 20bc 2b8b 77be fb8b ccbb
00000370: 463b 8cbd 47e1 9e3d 08ac 71bf fd73 08bf
00000380: d255 953f b7dc 0a3d 7601 dcbb ab82 863d
00000390: f147 143e 4dd3 abbc d540 643e 43ee 973e
000003a0: 8f6a 163e 1cc4 8cbd fe76 943e 05f4 42be
000003b0: 79b2 323d 0779 943e b54d 6a3b 48e6 de3d
000003c0: 752f 6e3d 603f 0ebe f52d 6e3e 71a0 bcbe
000003d0: 9ba5 13bb 18f4 8e3d 7335 e63d 7484 3abe
000003e0: e3f3 073e 93d2 b7bd aaf6 29be 2573 b4bd
000003f0: 3ef3 b1be e0cd 1a3e d0f7 4abe ce34 6cbe
0.17972176 0.24722564 -0.01880477 -0.07964785 0.14800392 0.10924878 0.039706655 -1.259067
1.3467835 -0.14088383 0.2865747 -0.042214192 -0.17702278 -0.031572387 -0.09003752 -0.094254024
0.22010016 -0.22235896 0.2184931 0.001307298 0.109041184 0.111079976 0.07202419 -0.0055104773
0.1397078 0.22341533 -0.12129425 -0.40336162 0.037587985 -0.2192046 -0.1538134 0.10098185
-0.21946763 -0.030983297 0.40659985 -0.31953648 -0.5916997 0.5848442 0.19845055 0.08646826
0.09635297 -0.13541824 1.9173253 0.2527038 -0.26021078 -0.17752874 0.06386412 0.24019264
-0.16926832 -0.2489272 0.16698357 -0.401388 0.09863334 -0.012868735 -0.011984251 -0.15732981
0.38043085 -0.0021178173 0.18276563 0.3092451 -0.1191211 0.07711916 0.2620399 0.39378628
-0.15743989 0.25069395 0.2875664 0.030496683 -0.12962306 0.287632 -0.016191117 0.09672795
0.6774118 -0.29237786 0.22442214 0.064034276 0.25181425 -0.14391033 -1.609025 -0.9284879
0.021593116 -0.056470163 -0.3467375 0.18545343 0.16176175 -0.14369567 -0.1425807 0.31173605
-0.17572564 0.14009082 -0.09152467 -0.30886346 0.15176703 -0.0029893185 0.00841909 0.09270745
-0.10170522 -0.31754482 -0.080950595 -0.0942151 -0.10538392 0.033194885 -0.20730613 -0.17637226
0.09442255 -0.1375877 -0.107706025 0.011069388 -0.06257914 0.051763933 0.14691347 0.07506796
-0.14592984 0.0029304624 0.1471645 -0.13277362 0.13338548 0.060588084 -0.15788665 -0.16569942
0.10140948 0.032396816 -0.0752817 -0.009171626 0.0616408 -0.09426552 -0.009092709 0.05355376
-0.15796112 0.09177731 0.038804136 0.045748733 -0.16496222 0.06886397 0.1458934 -0.11630784
-0.067176126 -0.08979283 0.07753366 0.14279538 -0.12244409 -0.036258917 0.014484584 0.06241584
-0.007956843 0.08232397 -0.028982323 0.0238929 -0.12674075 0.083775125 0.029765945 0.014644345
0.01112322 -0.10259561 0.12251463 -0.13869648 0.10120694 0.09547021 0.12578909 -0.07639712
-0.025042932 0.1545265 0.06825113 0.15268537 0.06073636 -0.042347215 -0.14465223 -0.10096513
0.024751168 -0.06955948 -0.16591863 -0.097829424 0.116482124 0.10591608 0.101710245 -0.13193259
-0.063098155 -0.07170187 0.046764195 -0.1250215 0.29279658 -0.5119144 0.3730467 -0.14976129
-0.22867782 -0.12626733 -0.4901038 -0.63796085 -0.8570848 -0.0016294809 0.08228555 0.12956575
0.07688471 0.24105603 0.2099134 -0.15660197 -0.13220072 0.2580966 0.031375274 -0.02838873
-0.07210499 -0.017570462 0.109418586 0.14497522 0.33069113 0.094161496 0.19976328 0.14925785
0.37951502 0.037523728 0.20261589 0.12163349 0.2856076 0.15669025 0.23353663 0.24786091
0.22238521 -0.009815053 -0.24174182 -0.006242273 -0.06847243 0.07757812 -0.94403124 -0.53301984
1.1666815 0.033901896 -0.0067140413 0.06567892 0.14480568 -0.02097478 0.22290356 0.29673967
0.14689086 -0.068733424 0.28997034 -0.19038399 0.043627236 0.28998587 0.0035751883 0.108837664
0.058150727 -0.13891363 0.23259719 -0.36841157 -0.0022529128 0.06980151 0.112406634 -0.1821459
0.13276629 -0.08975711 -0.16598001 -0.088110246 -0.34755892 0.15117598 -0.19821095 -0.23067018

l1.bias f4 [64]
00000000: fde2 873e 64eb 333d dbe3 833e 369d 29be
00000010: ceb9 d5bd 9b83 1b3e 28ce 583e 42f5 3d3e
00000020: d4e4 ae3d eb03 66bc e1cb 573e ceb4 b23d
00000030: 4693 0e3e 4a2f 2a3e fc17 5e3d b965 623d
00000040: bedf 503e e178 1b3e 13e8 733d 3277 8e3d
00000050: d62f 053e f2b5 e1bd 9794 833e 8f8a 873e
00000060: 0f13 b63c 43f8 283e 705d 4e3e 9b5f 1bbe
00000070: 6ec8 df3d 09d0 973d 5e1c c93d bd6e 3e3d
00000080: 1c4a 12be d61e 713d 6aba ed3d 2a41 da3d
00000090: 5e92 b33d 6bf5 673e 4c3d 923d a678 c3bc
000000a0: 6ee4 893d 0cff 1b3e 8bfc dabd dd5f 063e
000000b0: d004 3d3d d930 803e f1ec 3f3d e680 653e
000000c0: 0e6f 40bc 0104 2f3d 9d4d 67bd beed 813e
000000d0: b69f e5bd 049d e33d a98e 7f3d 4bf3 063e
000000e0: 4d00 3a3c 5c05 403e 2bd0 123e 1ba2 003e
000000f0: 1b72 0fbe 1c18 f2bd a3c9 123d 30e9 9d3c
0.26540366 0.043925658 0.25759777 -0.16563877 -0.1043583 0.15186922 0.21172392 0.1855059
0.08539739 -0.01403902 0.21073867 0.08725892 0.13923368 0.16619602 0.054222092 0.05527279
0.20397851 0.1518283 0.059547495 0.069563285 0.13006529 -0.110210314 0.25699303 0.264729
0.022225885 0.16500954 0.20152831 -0.1517319 0.10926901 0.074127264 0.09819864 0.046492327
-0.14286083 0.058867298 0.11607821 0.1065696 0.08768152 0.22652213 0.07140598 -0.02386124
0.06733023 0.15234011 -0.106927 0.13122506 0.046147168 0.25037268 0.046856824 0.22412452
-0.0117452275 0.042728428 -0.056470502 0.25376695 -0.11212103 0.11113933 0.06239191 0.13178746
0.011352611 0.18752044 0.14337222 0.12561838 -0.14008372 -0.11821005 0.035836827 0.019276232

l2.weight f4 [64, 64]
00000000: b283 0d3e a41c 853e 507c d0be f068 a1bc
00000010: ec72 9abd 8c4d f2ba e5df 44be a12d 533e
00000020: 7f73 2c3e 9f0b 343f fc89 cebc d519 673e
00000030: 1061 133e a34a 3c3c 1b36 b63d a44b 27bd
00000040: 9e90 c7be 96b5 993e f4cf edbc 0db9 263d
00000050: 9a8b 153e c388 debd 8e0f 083e 9d22 9ebd
00000060: 6531 b63e 546a b93e 34c5 b6be a08d 0a3c
00000070: e202 743d 5cf0 713e 4853 223e 7ce1 083f
00000080: 5266 b83d dadb 263e 8e47 643e 5e78 803d
00000090: d284 013e 0745 3a3d 6ff5 c33d 798c 3e3c
000000a0: 6bdb 533e 2237 fd3c d40b 28bd 5c72 c13d
000000b0: 96ae 4a3e 2174 90bd 9c5e 413f 3dc4 ed3d
000000c0: b0b4 4f3e cf70 993e ce5d ec3e a0bf d1be
000000d0: 0cc3 33bd fb18 3e3e e739 bf3e fa7c 0cbd
000000e0: 300c d13e a9d7 8abd e67d 8bba 7b24 063e
000000f0: f4e3 93bd 74fa d6bd 31bc db3d 25a5 893e
00000100: 4fad 0bbe 9267 613c 6d63 1bbe 3052 a83d
00000110: 90ce 94bd c60c 123e fcea e7bd b78c 5f3d
00000120: fea9 243e cce3 4cbe ebed 293e b24d 4d3e
00000130: 366c 0b3e a096 c93e 821f d43e 6b29 edbe
00000140: 872b c3be 245b 58bb a8ce 9d3e 054d b63e
00000150: 5d05 283e 7dc6 f8bd ed1a 49be 4815 a23c
00000160: 3bef afbe 1558 f83d c8be 5cbe 2695 c1bd
00000170: d811 91be 2f91 a63e bcfb 0b3f 1116 d4be
00000180: 801c ac3a 4a01 42be c257 463d 119f b4be
00000190: 0cbb 1e3e 3cf9 a03e 5039 c63e 86ac b43e
000001a0: 50f2 a23e 3968 fbbd 9896 9bbd b799 083f
000001b0: 3896 ba3e 5492 21be e2d5 813e 89e1 833e
000001c0: cf59 02be 679f 2c3e 041e 153e 3580 87be
000001d0: 38fd b4bd 4a30 b33e 129a 8e3e b8a3 b33e
000001e0: 4af9 753d 55dc c4bd 8e40 923e 12cd 2b3d
000001f0: 8039 d23d c213 62bd 6fcc 143f d61b 0d3e
00000200: 2395 d4bd 2319 6f3d f7ec c23d 988e 5fbd
00000210: 6aa6 b1bd b850 10be 72e3 85bd 01ea c13d
00000220: 4b26 5a3d c527 dbba f745 1a3c e0ea d93d
00000230: 679b 493d aab3 d7bc 6f5d 24bd 5c36 8bbd
00000240: a9ef 83bd 3372 b33d 3c51 b2bd 6673 913d
00000250: da80 db3d fa9a a1bd 8920 723d 0561 703d
00000260: b58e d83d 5ead e73d 0cf2 3abd 4c87 823d
00000270: ec2f 013d 624d 09be f5d1 1d3e 7af1 8b3d
00000280: c081 c63c b757 a43b 5e9e 013d b459 dabd
00000290: 307f e1bc f5c0 fdbd ccd4 a4bd 04a0 983d
000002a0: c215 debd 08ec 9e3c 3479 90bd f10d f7bd
000002b0: c2e6 9bbd 760e 68bd 23d8 0ebe f1d2 08bd
000002c0: f4f2 a53d 5b98 2fbd 58e6 fb3d aaa7 71bd
000002d0: 0820 f03d 6176 a6bd 96e4 9fbd 065c fabd
000002e0: 1eeb 93bd ed86 423d 22b0 a2bd 4fcc dcbd
000002f0: 140f 403d 4267 ae3d 2bb3 833c 4ae5 c23d
00000300: aea4 653d d377 fbbc 5f8c ca3c 3061 993c
00000310: 4ced 5dbd 0ec5 a83b 9041 723e ecac 483e
00000320: 96b1 903e f210 cbbe 17c1 823e d449 24be
00000330: 46c4 203e 6f0d 913d f03c 40bd 3614 34be
00000340: 68e3 5dbe 01e5 bc3d f14f 913e 8ef2 ef3e
00000350: 2a5e 243d 9e32 f9bd 22be 413d a6ff af3d
00000360: db7f adbe 833d 813e 6c45 313c 01f5 87bd
00000370: 8065 193e faf1 e13a 8dc1 ec3e 3bf0 ae3e
00000380: bcd0 98bd 14f3 993c e455 903e 4a9a 50bb
00000390: 1901 c0bd cb76 083e 7c77 0f3f fb63 933d
000003a0: e5a6 d43d 6427 36be f2da 93bd 067d 073f
000003b0: d26e 183e 12e4 df3d 80fb b43e cbdb edbd
000003c0: 798e 87be bb0d a9bd ce62 963f 04a3 f1bd
000003d0: c8ed 293d d0dc d43e 0a64 bfbc ab79 233f
000003e0: 42f3 c4bd b87b cc3d e76b c43e 14cf 4c3e
000003f0: 40f8 f43d 24c9 92bd 57f7 ae3e fa33 e1bd
0.13819769 0.25998414 -0.40719843 -0.019703358 -0.07541451 -0.0018486246 -0.19226034 0.20622875
0.16840933 0.7033023 -0.02521228 0.22568448 0.14392495 0.011492404 0.088970385 -0.04084362
-0.38977522 0.30021352 -0.029029824 0.040703822 0.14604035 -0.10865929 0.13287184 -0.07721446
0.3558456 0.36213934 -0.3569733 0.008456618 0.05957306 0.23626846 0.15852082 0.5346906
0.09003891 0.16294804 0.22292921 0.06272958 0.12648323 0.045475986 0.09568297 0.011630171
0.2068917 0.030910078 -0.041026905 0.094456404 0.19793162 -0.070534 0.7553499 0.11609695
0.2028377 0.2996888 0.46165317 -0.4096651 -0.043887183 0.18564217 0.37348863 -0.034298874
0.4082961 -0.06779415 -0.0010642379 0.13099854 -0.07221213 -0.10496989 0.10729254 0.26883808
-0.1364033 0.013757603 -0.15174647 0.08218801 -0.07265961 0.14262685 -0.113241166 0.054577556
0.16080472 -0.20008773 0.16594665 0.2004917 0.13615498 0.3937273 0.4143029 -0.46320662
-0.38119146 -0.0033013308 0.3082173 0.35605636 0.16408296 -0.12147234 -0.19639178 0.019785538
-0.34362206 0.12126175 -0.21557152 -0.09452276 -0.28333926 0.3253264 0.5468099 -0.41423085
0.0013131052 -0.18945804 0.048423536 -0.35277608 0.1550104 0.3144015 0.387156 0.35287875
0.31825495 -0.12275738 -0.07597083 0.5335955 0.36442733 -0.15778476 0.25358492 0.25758007
-0.12729572 0.16857682 0.14562231 -0.26465002 -0.0883736 0.3499778 0.2785192 0.35085845
0.060052194 -0.096123375 0.28564876 0.041943617 0.102648735 -0.055194624 0.5812444 0.1378015
-0.10380008 0.05837358 0.09517854 -0.054579347 -0.08674319 -0.14093292 -0.065375224 0.09468461
0.053259175 -0.0016720226 0.009416095 0.10640502 0.04922047 -0.026330788 -0.040128168 -0.067974776
-0.06442196 0.08762016 -0.087069005 0.07102089 0.10717936 -0.078908876 0.05911306 0.058686275
0.10574094 0.11312364 -0.04564099 0.06373462 0.031539842 -0.13408425 0.15412124 0.068331674
0.024231791 0.0050153392 0.03164517 -0.10661641 -0.027526468 -0.12390319 -0.080484 0.074523956
-0.10843994 0.019399658 -0.07054368 -0.12063206 -0.07612373 -0.056654416 -0.13949637 -0.033404294
0.0810298 -0.042869907 0.12299794 -0.058997788 0.117248595 -0.08128048 -0.07807271 -0.12224583
-0.072225794 0.047491957 -0.07943751 -0.10781156 0.04688938 0.085157886 0.016076645 0.0951639
0.056065254 -0.030696785 0.024725137 0.0187231 -0.054181382 0.005150444 0.23657823 0.19597214
0.28260487 -0.39661366 0.2553794 -0.16043788 0.15699872 0.070826404 -0.046933115 -0.17585835
-0.2166878 0.092233665 0.28381303 0.46864742 0.040128864 -0.121678576 0.047300465 0.08593683
-0.33886608 0.25242242 0.010819774 -0.06638528 0.14980125 0.0017238252 0.46241418 0.34167656
-0.07461688 0.018792666 0.2819053 -0.0031830245 -0.09375209 0.13326566 0.56041694 0.07196804
0.10383395 -0.17788464 -0.07219495 0.52925146 0.14886025 0.10932173 0.3534813 -0.11614188
-0.26475886 -0.08254572 1.1748903 -0.11798671 0.04148653 0.41574717 -0.023363132 0.63857526
-0.0961671 0.09984535 0.38363573 0.20000869 0.119614124 -0.07167271 0.3417308 -0.10996242

l2.bias f4 [64]
00000000: 5822 47bd 78d5 603d 5121 91bd 39ce 12bd
00000010: 3f9a 31bd 1dd2 923d da73 db3d f7af be3d
00000020: 953b b13d fbdc 843d 2e25 433d 888c 543e
00000030: e923 a13d 9cbb 7a3e 602b d9bd 4aa9 8c3e
00000040: e9ec e03d 8870 c2bd 09d3 403d d864 acbc
00000050: bf4b c03d 5a05 0f3e fe2e 90bd 5637 793e
00000060: bd20 d5bc d8d9 b3bc 9381 233e 42cc 9b3d
00000070: 855a ebbd d255 1a3e 85c2 493d d580 04be
00000080: 8094 a53d f49a 503e 56f1 f1bc 0493 92bd
00000090: 3a35 233e cb73 c83c 77da 943d cc86 a03d
000000a0: 1245 1f3c 6c5d a83c d509 1a3e 79e6 d03d
000000b0: b8c3 cc3d 9c8c cebd 1e5a f0bc 3c4a 82bd
000000c0: 1f3a 93bc 6111 57bc f2d3 f8bd c078 61bd
000000d0: 04dd 813e 75d7 543d db12 e9bd 0466 c9bd
000000e0: 6d0d 063d 0b7c 513e 36fa b63d cbfd 823e
000000f0: efb6 0e3e 3ddd 023d 33dc 00be dda5 c03c
-0.048616737 0.05489108 -0.07086433 -0.0358412 -0.04335999 0.07168982 0.10715456 0.093109064
0.086539425 0.06487461 0.04764288 0.20756733 0.078681774 0.2448563 -0.10603976 0.27472907
0.10982687 -0.0949412 0.04707626 -0.02104418 0.093894474 0.13966885 -0.07040213 0.24337515
-0.026016587 -0.021954462 0.15967397 0.076073185 -0.114918746 0.150718 0.049257774 -0.1293977
0.08084965 0.2037161 -0.029534023 -0.07156947 0.15938273 0.024469277 0.07268231 0.078382105
0.0097210575 0.02055236 0.15042813 0.10200209 0.09998268 -0.10085413 -0.029339846 -0.06361815
-0.01797205 -0.013126702 -0.121498 -0.055046797 0.25363934 0.05196329 -0.113805495 -0.09833911
0.032727648 0.20457475 0.08934443 0.25584254 0.13936971 0.03194927 -0.12584 0.02351659

l3.weight f4 [3, 64]
00000000: 6a0e e73e 9527 4dbe 2b76 b03b 1a01 26be
00000010: e320 a33f 394d cf3e bb5f dbbd 5de5 fcbe
00000020: 3402 733d a9c6 23bd b44b 2cbd a351 843d
00000030: d343 33be 8442 28bf f53e fe3d 2cfe 1cbe
00000040: f67a 17be 498c ae3c 95d7 fd3d e46a d1be
00000050: 4680 353c 5d51 133e dc68 343f b915 0a3f
00000060: d400 ce3c 7512 233e 70e9 edbe 8f25 0a3e
00000070: d4f6 363f 63a1 21bd 2927 583e b5a6 92bd
00000080: 882a 98bc 75b3 bdbe c635 053f cc44 b63e
00000090: f443 bdbe 5478 353e 8215 8ebe 294b 9bb9
000000a0: d057 863e efcf 813e bbd3 29bf 67d1 0c3e
000000b0: 9f1c 033e 11a7 163f b5f0 d33e 7b32 1b3f
000000c0: b262 62bf 72fe 353f 4099 de3b 6414 19bd
000000d0: fa86 ccbe ad4c 063e 33dd df3d 4386 123f
000000e0: 74d7 903e b7fd 59be ed8f 043e b65a cbbe
000000f0: e263 dbbb 355d 643e adf5 0a3f b1a0 c93e
00000100: 9e43 6f3e 2251 043f f71e 6dbd 7c1c 923e
00000110: 040a 853c f6f2 f33c faaa 83be fdac 613e
00000120: 0ef6 b23e c86c 0cbe d3d5 e53e 14b5 e7be
00000130: 5943 da3e 219a 813e 4cc2 a9bc a20b cabe
00000140: c00a f83e 3daf 6e3e fb3f 943e cec5 993e
00000150: 39ab b2be 287a a5be 6fd5 233f 54db b33e
00000160: e757 a33e fce9 7b3e eb22 4d3e e063 7b3e
00000170: f60a 19bf 638a 38be 7c72 14be 81bb b43d
00000180: 82d9 95bd a4e1 b03e f08b dfbd 97b1 7ebf
00000190: fbab bb3c f2e4 07bf 22f0 00be 8e90 a03e
000001a0: b736 083d 6dc1 f13d 2c5b a33e 8fac a9be
000001b0: 19ab c03e 602c 903c 19da 5b3f 7835 323f
000001c0: d3c2 36bf c959 d13e f00c 043c 6ca8 503d
000001d0: fda5 55be f433 aa3e dbfd 1a3d 771b 88bd
000001e0: 7721 143e 6570 96be 6e27 c9be 801d dbbe
000001f0: 0764 bfbe 83a4 fc3d 9b3c c63e 5785 d0bc
00000200: 925a 2db8 bbd6 20be 9a2d cd3d 3edd 893e
00000210: 04a5 45bf b904 b0bd 57f9 a9be a3d2 e63e
00000220: a01d 2e3e 251d e93e baca bf3d b5e7 04be
00000230: b37a 19be 722f 99be c4f5 123d e1ff 32bd
00000240: 96b7 e0bd 3663 cb3e 0c77 833e 8888 12bf
00000250: 578b 64be f847 b4be 2a5d 42bf bda5 9dbe
00000260: 4cb4 403e 84a3 8d3e 3d22 09bf bf83 aa3e
00000270: aaf5 cf3e 3a9e 11bf f6be b53e 5e14 563d
00000280: 38a0 ecbd 97b3 a6be 417a 15bf dbe8 28bf
00000290: 2367 18bf c180 e6be 98f4 07bf 07cb 8a3e
000002a0: 10e4 af3e 742d 8e3c d17d 453c 5fe0 543d
000002b0: 5b4c 353e cb6f 5dbc 2d40 38be 2423 a5be
000002c0: d535 1b3f 5f42 11bf 4418 a5bd b01c afbc
000002d0: 5881 a33e 863b 633e 3f24 083d b36d 41be
000002e0: 3a6f 7b3e 3166 ba3e 367e d23c 74b1 593e
000002f0: 81b3 e33c f070 833e f0b0 97be b1dd 0b3f
0.45128185 -0.2003463 0.0053851805 -0.16211358 1.2744411 0.40488604 -0.107116185 -0.4939374
0.059328273 -0.03998438 -0.042064384 0.064608835 -0.17506342 -0.65726495 0.12414352 -0.15331334
-0.14793 0.021307128 0.12394635 -0.40901864 0.011077946 0.14386506 0.704725 0.53939396
0.02514688 0.1592501 -0.4646716 0.1349089 0.7147038 -0.03946055 0.21108688 -0.07160703
-0.018574968 -0.37050977 0.52035177 0.35599363 -0.36965907 0.17721683 -0.27750784 -0.00029619902
0.2623887 0.25353953 -0.663387 0.13751756 0.12803887 0.58848673 0.41394582 0.606239
-0.8843185 0.7109138 0.006793171 -0.03737296 -0.3994673 0.13115187 0.10930862 0.5723612
0.28289378 -0.21288191 0.12945528 -0.39717644 -0.0066952566 0.2230118 0.5428112 0.3938041
0.23365638 0.516863 -0.05789086 0.28537357 0.016240127 0.029778939 -0.25716382 0.22038646
0.3495335 -0.13713372 0.44889697 -0.4525534 0.42629507 0.25312904 -0.02072253 -0.39462
0.48445702 0.23309036 0.28955063 0.30033726 -0.34896258 -0.3231976 0.6399755 0.35128272
0.31903002 0.24600977 0.20032851 0.24549818 -0.5978235 -0.1802154 -0.14496797 0.08824826
-0.07316877 0.3454715 -0.10915363 -0.9948973 0.022909155 -0.5308372 -0.12591603 0.31360286
0.033255305 0.11804471 0.31905496 -0.33139464 0.37630537 0.017599285 0.85879666 0.69612837
-0.7139103 0.40888813 0.008059725 0.05094187 -0.20864101 0.33242762 0.03783975 -0.066458635
0.14465891 -0.29382625 -0.39287895 -0.42795944 -0.37381002 0.123360656 0.38718113 -0.025454206
-4.1330764e-05 -0.15706913 0.100184634 0.26926607 -0.7720492 -0.08594651 -0.33198044 0.45082578
0.17003489 0.45530048 0.09364839 -0.12979014 -0.14988212 -0.2991901 0.03587891 -0.043701056
-0.10972516 0.3972413 0.25676763 -0.5723958 -0.22318779 -0.35211158 -0.7592341 -0.3079051
0.18818778 0.27663815 -0.5356787 0.3330364 0.40617114 -0.5688206 0.35497254 0.052265517
-0.11553997 -0.3255889 -0.5838967 -0.6598031 -0.59532374 -0.45020106 -0.53107595 0.27108023
0.34353685 0.017355658 0.012053923 0.05197179 0.17704909 -0.013515423 -0.17993231 -0.32253373
0.60629016 -0.567419 -0.08061269 -0.021375984 0.3193462 0.22190675 0.033237692 -0.18889503
0.24554148 0.3640609 0.025694948 0.21259099 0.027795555 0.25672102 -0.2962718 0.5463515

l3.bias f4 [3]
00000000: f759 673c e721 783c 5f51 9bbd
0.01412057 0.015144802 -0.0758388
