examples/experiments/experiment_85/actor10_4.pth (torch, 28759 bytes, 6 tensors)

l1.weight f4 [64, 36]
00000000: f6e5 383e 7c33 86be e985 8d3e 1ff2 5fbc
00000010: 22bc cc3d d791 9c3d 9afa 8abf 9804 9f3f
00000020: cf15 513f c8fc 7b3d 09fe 183e 2ab4 533e
00000030: 19b4 d1bd 7bc5 72be 29c0 99be bb17 1e3d
00000040: 7749 d03c ed59 44be bd7d 47be 543c ed3d
00000050: 6bba 20be 40ed 593d 4692 20be 5ecf e93d
00000060: 3ae6 af3d 3c5d a0bd 4d5a 213e 5fe9 4ebd
00000070: bbd8 213d ae0e e13d 4a51 c03d 16c2 0fbe
00000080: 4e1f 953c fde1 d93c 6cb6 d1bd 0618 9cbc
00000090: edab 843e ed14 9bbe fbbf 3c3e 7c33 f93b
000000a0: 4a20 7d3d 4f1a 89bd 3a4c 9c3e 503b 5a3f
000000b0: c1bd c33d 81c2 303e c0f4 cbbd 5d73 1cbe
000000c0: 79e7 2d3d 3cb8 ac3d eae0 cd3e 7189 a83d
000000d0: 1370 093e 0a9b 32be 1378 833e cb43 4b3e
000000e0: d6e2 703e 8b10 a53d 9249 863e 4c71 423e
000000f0: 5d54 38be 910c 6839 0e33 6fbd 6bc1 eabb
00000100: 3cda c6bd a8c1 0f3e 49f9 a43c 3467 a03e
00000110: 9f2e 1bbe 2e35 4f3e 4d32 633d 0015 82bd
00000120: 2bbf 1abe 78ee 38bd 1811 943d 183f 733d
00000130: 65ce e93d d1a0 a23b 24c5 07bf 0398 a63f
00000140: 0b4d 2f3f 67d9 ac3e a3da b03c 714c 08be
00000150: 214e 073e d2fe 91bc 6e12 7b3d 0bbe c63d
00000160: add4 8abd 0845 223e a583 df3c fdf0 7b3e
00000170: 704f ab3d 3a44 02be e960 703e ddb8 a4bd
00000180: 6fc1 29be d81c 0a3e b741 003d 11eb 22bd
00000190: 43b0 e23c 9733 483e e0a5 8a3c 6e48 153e
000001a0: d950 56be fa04 55be 8d47 753e ec2e 31bd
000001b0: 993f 403e 9310 16be 73fd 8c3e ca04 673d
000001c0: 4ba6 cdbd a0bb ea3b a592 04c0 5368 343f
000001d0: 4c04 2c3f e819 92bd 63d5 0cbd a078 aa3d
000001e0: 1778 eabe b7ef 33be c6ba c6bd b6b6 93be
000001f0: 3530 493e eb98 c9be b316 b7be 9a3f 67bd
00000200: 85d4 303e 0d6b e03d 372c cbbd 4f4e 4abe
00000210: 897d 8e3e 6cb8 ac3d f1fb a0bd ebb1 9b3e
00000220: ee3b 12bd 0619 52be 6b15 e0bd 4b81 bf3d
00000230: a798 033e 97ff 00bd a852 583e fcd8 de3c
00000240: 797e d6bd 1b43 1abe 4a04 4e3e 57bc b33c
00000250: c63e 0b3d 9104 b5bc d43d bdbe b1e7 30bf
00000260: 1550 1640 feff 27bc f88c a1bd caa4 eebd
00000270: 0308 c03e f34b 843e 7e04 283d 3882 e8bd
00000280: d3cb ad3e 4660 483e 287c 0b3e 8ef0 36be
00000290: beb5 863d 9a97 e63d 1360 ce3e dca9 1bbc
000002a0: 328c cdbc 2dba 913e b205 933e 4879 b43d
000002b0: ab43 ef3d f916 493e 1825 8cbc 59df b73d
000002c0: 2915 833e 911f c6bd e158 af3d 510f cd3e
000002d0: 73bd be3c 433c 6abd 5a5d c7bd a5fe 03bc
000002e0: 9dfc da3c 1004 d93d b40a e73f e65f 3f3f
000002f0: 1341 5cbf f9e5 dabe 3806 793b 80e0 213e
00000300: a529 2abe 3eda 94bd b57a 593d edd1 c5bd
00000310: 5ca4 d03c 1718 043e 587b 1abe 6e29 0a3e
00000320: d0f1 db3c c17c da3d 5bcd 053e 3266 7ebc
00000330: 2d47 6dbd 915c 2d3e 235d d93d 5668 923d
00000340: a504 813c c679 52bd 6e93 b43c 1e5d 0d3e
00000350: ed73 c73e 36fc 253e 9d04 3fbe af5b 7abd
00000360: 7c7a 84bd a9d7 783d cb66 a33c 091a 4a3d
00000370: 6bbf 053e b311 8fbd f82b 273f ce84 a6bf
00000380: ff3b 0fbf bff4 e4bd cbf0 b7bd 3f5c 0a3e
00000390: 9d51 7cbd 215c a9bd 06ba c03d 6541 733d
000003a0: 1e13 f43a 4a0d b4bd 1e30 d9bc 92ee 48bd
000003b0: c4c3 6ebd 9686 5b3d cc20 5dbe 54cb d0bd
000003c0: b983 6ebd af2e 13bd 8ca0 673d 03fb 033d
000003d0: 4bad 3fbe ca2e 0dbe 068b 053e 461c a8bd
000003e0: ff90 9a3d 2204 cf3d 0061 3b3d 8e26 0cbb
000003f0: 30b5 b4be d438 52be d8b4 e3bd a61b 953d
0.18056473 -0.26211154 0.27641228 -0.013668566 0.09996821 0.07645004 -1.0857728 1.2423277
0.816739 0.061520368 0.14940657 0.20674196 -0.10239429 -0.23708145 -0.3002942 0.03859685
0.025425656 -0.19174929 -0.19481559 0.11583772 -0.15696113 0.053204775 -0.15680799 0.11416505
0.08588834 -0.07830283 0.15757103 -0.05051553 0.03951333 0.10989128 0.09390505 -0.14038882
0.018203404 0.026597017 -0.10239872 -0.019054424 0.2591242 -0.30289403 0.1843261 0.0076050144
0.06179837 -0.06694471 0.30526906 0.85246754 0.09557677 0.17261697 -0.09958792 -0.15278383
0.042457078 0.084335774 0.40210658 0.0822934 0.13421659 -0.17441955 0.25677547 0.1985008
0.23524031 0.08059796 0.26228005 0.18988532 -0.18000932 0.00022129925 -0.0583983 -0.0071641705
-0.09709594 0.14038718 0.0201384 0.31328738 -0.15154503 0.2023513 0.055467892 -0.06351662
-0.15111987 -0.045149297 0.07229823 0.059386343 0.1141632 0.0049630185 -0.5303519 1.301514
0.68476933 0.33759615 0.02158863 -0.1331041 0.13213398 -0.017821703 0.061296873 0.097042166
-0.06778846 0.15846646 0.027284453 0.24603648 0.08364761 -0.12721339 0.23474468 -0.080430724
-0.16577695 0.13487566 0.03131267 -0.039774958 0.027671939 0.1955093 0.016924798 0.14578411
-0.20929278 -0.2080268 0.23953076 -0.04325764 0.1877426 -0.1465476 0.27537116 0.05640105
-0.100414835 0.00716348 -2.0714505 0.70471686 0.67194057 -0.071338475 -0.03438319 0.08323789
-0.45794746 -0.17571913 -0.09703593 -0.28850335 0.19647296 -0.3937448 -0.35759506 -0.05645714
0.1726857 0.10957918 -0.09920543 -0.19756435 0.2783015 0.08433613 -0.07860554 0.30409178
-0.035701685 -0.20517358 -0.10941585 0.093508326 0.12851201 -0.03149375 0.21125281 0.027203076
-0.104733415 -0.15064661 0.20118824 0.021940393 0.033995412 -0.022096904 -0.36961234 -0.69103533
2.3486378 -0.010253904 -0.07888216 -0.11652525 0.37506112 0.25839195 0.04101991 -0.11352962
0.33944568 0.19567975 0.1362158 -0.17865202 0.06577633 0.112593845 0.40307674 -0.009500947
-0.025091264 0.28462353 0.28715283 0.08812195 0.116828285 0.1963767 -0.017107531 0.08978147
0.2560208 -0.096739896 0.08561874 0.40050748 0.023283696 -0.057186376 -0.09734602 -0.008056317
0.026731784 0.10596478 1.8050141 0.74755704 -0.86036795 -0.4275358 0.0037998091 0.15808296
-0.16617449 -0.07268189 0.05309554 -0.09659181 0.025468998 0.12899815 -0.15086114 0.13492367
0.026848704 0.10668326 0.13066618 -0.015527295 -0.057929207 0.16929843 0.106134675 0.07148807
0.015749285 -0.051385663 0.022042956 0.13805053 0.38955632 0.16209492 -0.18654104 -0.061122593
-0.064686745 0.060752545 0.019946476 0.049341235 0.13061301 -0.06985798 0.65301466 -1.3009279
-0.5595092 -0.11179494 -0.089814745 0.13511752 -0.06160127 -0.08269525 0.09410481 0.059388537
0.001862142 -0.08791597 -0.026512202 -0.049055643 -0.058292165 0.053595148 -0.21594542 -0.10195032
-0.05823109 -0.035933193 0.056549594 0.032221805 -0.1871845 -0.1378738 0.13041314 -0.08208518
0.07547187 0.1010821 0.045746803 -0.0021385285 -0.35294485 -0.2052949 -0.111184776 0.07280664

l1.bias f4 [64]
00000000: 0c7a d93c fbee 283d 5062 203e 68c0 9f3d
00000010: 98a2 de3d f67f 193e 582e f03d c8dc 3e3e
00000020: a898 1e3e bc32 123e ae84 453d 5abe 0c3e
00000030: a330 273e 2059 02be 41ec 0e3d ba8a bd3d
00000040: 41da b43c 2059 1fbe d017 4f3e 3f51 003e
00000050: 136d 843d 3234 c83d 5e1d 0fbe 11cf 053e
00000060: 476a 0c3e 31b3 b53d 6848 0d3e 135d 303e
00000070: e100 d23d 2bff 043e 4a25 153e cbe8 01be
00000080: 0b92 f73d 13fd 993d faff 0dbe 6e04 0dbe
00000090: d4d2 a73d 854e 073e bd22 2e3d 0a06 df3d
000000a0: 3d4c 6ebc 8264 f63d faa9 26be b10d 313d
000000b0: 1f50 703d 200d e63d 38e8 653e f96f 303e
000000c0: 00ad 443e 969c 9e3d 87fc ef3d 00bc 523d
000000d0: 44ad bc3d 0501 143e 406a d83d 2062 ce3d
000000e0: 30ca 5e3d f8d1 bebd 0fb3 933d ecb5 c73d
000000f0: eb47 07be e92d 1e3e 1a12 843d 69c1 433d
0.026547454 0.041243535 0.15662503 0.078003705 0.10870856 0.1499022 0.11727589 0.18638909
0.15487921 0.14277166 0.048222236 0.13744488 0.16327147 -0.12729311 0.034893278 0.092549756
0.022076728 -0.15561342 0.20223927 0.12530993 0.06466117 0.097755805 -0.13976046 0.13067271
0.13712417 0.08872069 0.13797152 0.17223005 0.10254074 0.12987964 0.14565006 -0.1268646
0.12088402 0.07518973 -0.13867179 -0.13771221 0.08194509 0.13213547 0.042513598 0.10889824
-0.014544544 0.12030889 -0.16275778 0.043225948 0.05867016 0.11232972 0.22451866 0.17230214
0.1920662 0.0774471 0.11718088 0.051448822 0.09212735 0.14453514 0.105671406 0.100773096
0.05439204 -0.09317392 0.07211887 0.09751496 -0.13211028 0.15447201 0.06448765 0.047791872

l2.weight f4 [64, 64]
00000000: 5d13 1dbe 7523 3f3d d9b6 103d 5acf b43d
00000010: d515 093d 700e debd 3ffb 5f3e ec22 743d
00000020: 0775 6b3d 4d2c 43be 9914 ea3e 4e19 c1bc
00000030: ddab 4bbe 9375 28bd 3443 93be c420 45be
00000040: 541a 883e 600a 0fbd c644 b13d c390 c13e
00000050: 1578 f53d 86ae 183e 90e0 fd3d 744a 213c
00000060: c98e 12bd 7f75 8cbe 3f81 69be 93ac a83e
00000070: f2c5 9a3e b2ff ab3d a9ad 5e3e c44e 08bd
00000080: 9b1a 583e cb66 54be 2093 eebc 001f 9f3c
00000090: 64d2 893e 9ba9 66be 4384 de3d 9a2c 883e
000000a0: 9635 a43e d6b1 903e a8b7 a0bd f4bb a9be
000000b0: 32b7 86be b4a4 6ebe 3f1b adbd a008 3c3e
000000c0: fb28 5f3d 1a75 883e e98c 8fbe 4a30 953e
000000d0: 47da c53e 7417 b03c dc6d 883e 744b 1a3e
000000e0: 0e47 9e3e 6e42 b63d f140 a63e fec9 933e
000000f0: c0c0 b3bb d68a edbc 5219 bcbe 3c13 a33e
00000100: f5a3 9d3e c3cc 643e 428b a23e 170e 683e
00000110: ecd4 36be e9f2 753e cab8 abbe bd24 3b3e
00000120: 7fe9 e33c 69e3 913e 6013 77be efc5 313e
00000130: 0155 763e bc13 e1bd 93b5 093e e689 643d
00000140: e754 9a3d 965e 92bd 938d 543e a74c a3be
00000150: 57a5 833d 56e3 16be 809d 873d e9e9 8d3e
00000160: b818 493e f993 cfbd 5644 ef3d 7c97 dabc
00000170: efe9 c5be aad8 97bc 0e1e 3fbd 58d5 b9bd
00000180: 67f8 8b3d a286 8b3e 566c 843d f03c 7a3d
00000190: 27b1 25be 7f27 553e e9f7 a2bc 1a69 95be
000001a0: 2464 31bd 8eca 89be 5ec1 90bd ae34 403e
000001b0: 029c df3e 37b9 e23e 5f4a 1a3e a9e2 1c3e
000001c0: 73ce 3e3e 0c5d 7dbd bd84 c23e 4972 3ebe
000001d0: 3b1c 43be 571d 26bd 59d1 c7be 2dfa a23e
000001e0: 304c 98be 48f0 48bd cda4 b1bd e118 babd
000001f0: 6041 dabb 0ca6 8e3e 7f57 c83e 786f 3b3e
00000200: a1a5 fa3d 1c5f 7b3d 8a67 3b3e cfc1 a13e
00000210: 11a0 0fbe 2dd3 04bd 2f78 17be 8f6f 9a3e
00000220: 603f db3d 239a e6bd 4996 163e 9e7f 5a3e
00000230: e0c6 c53d 640c babd ffcc 2fbe 4d5b a43d
00000240: 1465 ea3e 86de f8bd 908a fd3d 87a7 51be
00000250: 2431 013e e616 79be f8c0 5dbd b444 593e
00000260: e3b4 6e3d 46ec ebbe 4b93 91bc f6f6 813e
00000270: ee20 663e 1092 093e 1d6b 7c3e 80cf 57bc
00000280: 1c68 423e 767b 0fbd 04ec 32bd 807a e53a
00000290: 307b 163e 378d 01be 472b df3d 99fb 9f3d
000002a0: 66a1 053d e3ee 55bd 4011 86bb 83c1 b4be
000002b0: 0cdb e0bb bef9 7bbc 884d 0f3e e88e af3e
000002c0: e975 163e 5d57 cebd 6b5a 173c 659e 95be
000002d0: 8a0e 1e3d a4ee 0d3d 40a9 4abf b56a 923e
000002e0: b84a 92be a037 3c3c 5d97 013f 0aa2 7ebe
000002f0: 70a1 033d bdd3 94bd d4d2 73be 73a1 d73e
00000300: d681 543e 0f90 0ebd 0841 123e 4fe6 b23e
00000310: a13b 153e a069 22be 2ba8 70bc 4bf5 47be
00000320: 4820 33be e47d d83d dac5 3b3e 0695 cb3d
00000330: f261 b03c 980d eebd 28a2 143e a830 d2bd
00000340: 9db0 0bbc b036 6dbd ed2b 32be 442a 9e3e
00000350: b2aa 99bc 1400 60bb a0ad ac3c f078 c23c
00000360: 8a6f 683e 2a50 82bd 9efe 7d3e c994 5e3d
00000370: 0d8e 343e 242d da3d 46b9 7c3e 527e d0bd
00000380: 59b1 4d3e 0d0b 23be f8cb 7fbd 3aaf cf3d
00000390: 9f8b 49bd f4b2 d23c 3f24 f53c ad48 c0bd
000003a0: 36b5 efbd 450d 183f ca6e c23d 14e4 3d3e
000003b0: bc80 213e 5822 bb3d d0f6 28be 0ee1 d9bd
000003c0: 6a88 9dbd a98a 5b3e 745e d83d c025 833e
000003d0: b782 4dbe c706 8a3e e443 7d3e fe74 bcbe
000003e0: cb62 8e3e 0080 eb38 2f28 163d a178 0e3f
000003f0: d8a3 e03d b4d2 d93d 6788 083e 8000 e43d
-0.15339418 0.046664674 0.035330627 0.08828612 0.033468086 -0.108425975 0.21873187 0.059603617
0.057484653 -0.19059868 0.4571884 -0.023571637 -0.1988978 -0.041127753 -0.2876221 -0.1925078
0.26582587 -0.034922004 0.086556956 0.37805757 0.119857945 0.14910325 0.123963475 0.009844411
-0.0357807 -0.27433392 -0.2280321 0.32944164 0.30229145 0.083983794 0.21745934 -0.03327824
0.21103899 -0.20742337 -0.029122889 0.019423962 0.26918328 -0.22525637 0.10865071 0.26596528
0.32072133 0.28260678 -0.0784753 -0.3315121 -0.26311642 -0.23305017 -0.084524624 0.18362665
0.05448244 0.2665184 -0.28037193 0.29138404 0.38643095 0.021495558 0.26646316 0.15067846
0.30913585 0.08899389 0.3247142 0.28865045 -0.005485624 -0.028996866 -0.36738068 0.31850612
0.30789152 0.22343735 0.3174687 0.22661625 -0.17854661 0.24018444 -0.3353942 0.18275733
0.0278213 0.28493813 -0.24128485 0.17360662 0.24055864 -0.10990092 0.13448171 0.055795573
0.07535725 -0.07146947 0.20757131 -0.3189442 0.064280204 -0.1473516 0.066218376 0.27717522
0.19638336 -0.101356454 0.11682956 -0.026683562 -0.3865504 -0.01853593 -0.04665952 -0.09073895
0.06834488 0.27251154 0.06465976 0.06109327 -0.1618086 0.20815848 -0.019893603 -0.2918175
-0.043308392 -0.2691235 -0.07068132 0.18770096 0.43673712 0.44281933 0.15067433 0.15320839
0.18633442 -0.061856315 0.37991896 -0.18598284 -0.19053738 -0.040555324 -0.39026907 0.31831494
-0.29745626 -0.049057275 -0.086740114 -0.090867765 -0.0066606253 0.2786106 0.39129254 0.1830424
0.122386225 0.06137 0.18301216 0.31593177 -0.14025904 -0.032427955 -0.1479194 0.30163237
0.10705447 -0.11259868 0.14705767 0.21337745 0.09657073 -0.090843946 -0.17168044 0.08025227
0.4578024 -0.12151818 0.12379944 -0.20474063 0.12616402 -0.24325141 -0.054139107 0.21217614
0.058277976 -0.460787 -0.01777043 0.2538373 0.22473499 0.13434625 0.24650235 -0.01317203
0.18985027 -0.03502985 -0.043682113 0.0017507821 0.1469543 -0.12651525 0.108969264 0.0781166
0.032624625 -0.052229773 -0.004091412 -0.35303888 -0.00686205 -0.015379367 0.1399442 0.34288716
0.14693417 -0.10075257 0.009237866 -0.29222408 0.038588084 0.034651414 -0.79164505 0.28597036
-0.2857263 0.011487871 0.5062159 -0.248665 0.03213638 -0.07266948 -0.23810893 0.42115363
0.20752653 -0.034805354 0.1428262 0.34941337 0.14573528 -0.15860605 -0.014688532 -0.19527166
-0.17492783 0.10570887 0.18337193 0.09940533 0.021531079 -0.116236866 0.14514983 -0.10263187
-0.008525995 -0.057913482 -0.17399569 0.3089162 -0.018758152 -0.0034179734 0.021078885 0.023739308
0.22698799 -0.06362946 0.2480416 0.05434111 0.17632313 0.10653141 0.24680051 -0.10180344
0.20087184 -0.15922184 -0.06245038 0.10140844 -0.04920542 0.025720097 0.02992451 -0.09388862
-0.11704485 0.5939525 0.094937876 0.18544036 0.15771765 0.0913741 -0.16500401 -0.10638629
-0.076920345 0.21439613 0.105648905 0.25614738 -0.20069395 0.26958296 0.2473293 -0.36808008
0.27809748 0.00011229515 0.036659416 0.55652815 0.10968751 0.106358916 0.13333283 0.11132908

l2.bias f4 [64]
00000000: 1be7 393e cebc 4a3d 0570 063e 4af4 bbbc
00000010: 059f 053e be33 193e b831 f13d 11a7 49bc
00000020: eadb 783d 31ba e4bc c345 633e 6eda d43d
00000030: 31ed 063e 6e6c f53d 787d 9d3c 41ba 603d
00000040: 4415 253e 6ee9 543d f236 ff3d f266 3b3e
00000050: 157a b8bc 2604 723c 3f22 c83d 4b5e 4a3d
00000060: 28a0 cb3d 2f34 1a3d f6ca 6b3d 27bb 773c
00000070: cae0 7bbd c470 3e3d 9fde 99bc 71b1 34bd
00000080: 32ff 953d fb3c 053e 332b 573e f07b 723e
00000090: a2c1 143e 1663 103c ab1c 06bd 237c 813d
000000a0: d722 2b3e efe4 f5bc 91c2 763e 2ae0 163e
000000b0: 2b5b a6bd 2abf 18bc 68d3 76bd 136b 54bd
000000c0: a90d 7d3c f9fa 143e 39a5 be3d 2bda 273c
000000d0: 1f7e 1f3e 78a4 ce3b b858 7a3d 92fc 113e
000000e0: 186b 5abb 503e 9e3d e5b4 ec3d 266b 43bd
000000f0: 003c 663d 9d1b b83d 899c cf3d f506 363d
0.18154566 0.049496464 0.1312867 -0.022943635 0.13048942 0.14961144 0.11777061 -0.012307898
0.0607566 -0.027920814 0.2219458 0.10393225 0.13176419 0.11983572 0.019224867 0.054865126
0.16121393 0.05198043 0.12461652 0.1830099 -0.02251915 0.014771497 0.09772157 0.04940633
0.09942657 0.037647422 0.057566606 0.015120304 -0.061493672 0.04649426 -0.018782912 -0.044114534
0.07324065 0.13011543 0.21012573 0.23680091 0.1452699 0.008812686 -0.032742184 0.06322505
0.16712509 -0.03001639 0.24097659 0.1473395 -0.08122858 -0.009322921 -0.060260206 -0.051859926
0.015445151 0.14548863 0.093088575 0.010244886 0.15575455 0.0063062273 0.061119765 0.14256504
-0.0033327993 0.07726729 0.115579404 -0.047709607 0.056209564 0.08989642 0.101372786 0.04444023

l3.weight f4 [3, 64]
00000000: 1e5e a6be fb6b 0c3e ce1a 62be 63cb 8cbe
00000010: 3602 6e3d d1af 3b3e 17df 093e 914f 303f
00000020: a4af 613e 9c8f 203e 44ce 973e 2176 b4be
00000030: 1711 bebd c7d3 36be 5721 e23c 3063 e53e
00000040: 3020 22be c14e b73c 7554 983d bc42 9b3d
00000050: 5f06 16c0 8b4f 88be 9cff 8f3e 3555 99be
00000060: 5bcc c6bd 727d c23e ce87 e13e 9cb2 0cbf
00000070: ceb3 363c d6d0 ba3c 646e 02be f5c2 9ebe
00000080: f5fe e8bd 7cb6 493e 1339 4f3e e763 883f
00000090: 20b5 cebd 3468 abbe ffdf 9ebd f838 febd
000000a0: d105 873e 83f4 17be b6d2 8dbd 047e 913e
000000b0: 3976 a4bd 0622 f2be 9e89 b93d b83c cbbe
000000c0: 1981 09be 4df9 1e3e 41f2 893e 360c 29bf
000000d0: e7dc d03e 85f7 d5bd 1340 85be faa3 923e
000000e0: 2661 873e eec7 7c3e 1d01 123e b5d0 f5bd
000000f0: 59ac c1be ba09 a5be 48ab 02be c80d 093f
00000100: f9cf 5fbe d40e c93e 6aaf 323e 3465 0cbe
00000110: 5b18 88be 9526 1d3e f9bd 9c3e de2c 91bf
00000120: e99c 923e ced5 46bd b464 7dbe 4714 993d
00000130: 81af 8b3e 20bb 76be 2d40 87be 404e 9bbe
00000140: 4d09 893e f1ed b83e c3a0 883e 0f85 a8be
00000150: 948a 2140 969c 6c3e ec5f 7a3d 3766 70be
00000160: 0b54 89be acd5 31bc ee76 663e c3ae 89be
00000170: b919 92bd 19a9 74be a911 76be cff0 3fbe
00000180: a7be c83e a095 7d3e cb47 b1be 6a6b 74be
00000190: dbbd 963e da33 94be 96e2 77be 0c7b 003e
000001a0: a5a2 64bd 46d2 983e 371c 87be 6591 333e
000001b0: b2b8 be3d 7e24 2a40 14d6 48bd c5f2 3b3e
000001c0: 8074 d63d 74f1 223e 593d 8dbe 83e9 5abf
000001d0: 8d73 fabd bbcd a33e a3b7 383e 1b67 fabd
000001e0: 64c5 4d3e 9717 a3be 508d a93e f501 88bd
000001f0: 4379 68be 44ea 4cbe b5af 973e d09f 62bf
00000200: 060f 5ebe 199f 913d bf9d 24be 56a1 843e
00000210: 01b4 d4be 2dfe 173d 93f8 803e 1f43 003f
00000220: c871 b53e db96 043f f8fe b1be f18d 9c3e
00000230: d0f2 5ebd ec0c 9bbe 0439 1f3e 9055 a23e
00000240: 7225 81be b855 fe3d c998 103c d009 b7be
00000250: 5593 16bf 3093 c5bd ff98 95be 0cc1 3abe
00000260: 2b8d 50be aff3 8bbe 49e2 f0be a9f2 40c0
00000270: 8619 84bb 83bd 67bd dfd5 2c3d 9542 3f3e
00000280: e8c8 47bd c7d5 29be 1cd7 7bbe d05f 6dbf
00000290: 4fa3 bd3d 50f1 d8bd 32cf b93e ff19 763e
000002a0: dde2 c5be 1013 d5bb 956e b2be fdc2 8cbe
000002b0: 45ab da3b 8819 49bf e8e8 0dbd 7ab5 70bd
000002c0: 30c3 a43e 3574 76be 6460 243e 0ab5 2fbe
000002d0: b170 573e 2d8d 1f3e 78d4 5dbe c311 e93e
000002e0: e0d8 c13e cfb3 833e 8c41 303d 4a6b 863e
000002f0: 3d22 3f3e 1e50 d53d cbd3 d33d 295e 463f
-0.3249368 0.13713066 -0.22080538 -0.27498922 0.058107577 0.18328787 0.13464008 0.6887141
0.22039658 0.15679783 0.29649556 -0.35246375 -0.092806034 -0.17854224 0.027603788 0.44802237
-0.15832591 0.02237642 0.07437984 0.07581088 -2.3441389 -0.26623186 0.28124702 -0.2994782
-0.097069465 0.37986332 0.44048923 -0.54960036 0.011151267 0.022804659 -0.12737423 -0.31008115
-0.11376754 0.19698519 0.20236616 1.0655488 -0.100931406 -0.33477938 -0.077575676 -0.1241321
0.26371625 -0.14839368 -0.069249555 0.28416455 -0.08030362 -0.47291583 0.090594515 -0.39694762
-0.13428153 0.15524788 0.26942638 -0.6603426 0.40793535 -0.10447601 -0.26025447 0.2864073
0.26441306 0.24685642 0.14258237 -0.12002698 -0.37826803 -0.32233983 -0.12760651 0.53536654
-0.21856679 0.39269125 0.17449728 -0.13710481 -0.26581082 0.15346749 0.30613688 -1.1341817
0.28635338 -0.048543744 -0.24745446 0.07474571 0.27282336 -0.2409482 -0.2641615 -0.30333138
0.26764908 0.36119035 0.2668515 -0.32914016 2.5240831 0.23106608 0.061126634 -0.23476492
-0.26821932 -0.010854166 0.22506306 -0.26891145 -0.071338125 -0.2389263 -0.24030174 -0.18744205
0.39207956 0.24764109 -0.34625086 -0.238691 0.29441723 -0.2894581 -0.2420753 0.12546939
-0.055819172 0.29847926 -0.26388714 0.17535932 0.093125716 2.6584773 -0.049032286 0.18354328
0.10471439 0.1591242 -0.27585867 -0.8551256 -0.12229071 0.31992897 0.18038802 -0.12226697
0.2009483 -0.31853935 0.33115625 -0.06640998 -0.22702508 -0.2001124 0.2962624 -0.88525105
-0.21685418 0.071104236 -0.160758 0.2590434 -0.41543582 0.037107635 0.25189647 0.5010242
0.3543837 0.5179269 -0.34764838 0.30577043 -0.054430783 -0.30283296 0.15549093 0.31705904
-0.2522388 0.12418693 0.008825489 -0.35749674 -0.5881856 -0.096472144 -0.2921829 -0.18237704
-0.20366351 -0.27334353 -0.47047642 -3.0148108 -0.004031363 -0.056577217 0.04219615 0.18677743
-0.048775584 -0.16585456 -0.24593776 -0.92724323 0.09259664 -0.10592902 0.3629089 0.24033354
-0.38649645 -0.0065025166 -0.34849992 -0.27492514 0.006673249 -0.7855458 -0.034645945 -0.05876682
0.32180166 -0.24067767 0.16052395 -0.17158905 0.21039082 0.15581198 -0.21663082 0.45521364
0.37860775 0.2572312 0.04303126 0.2625373 0.18665405 0.10415672 0.10343131 0.77487427

l3.bias f4 [3]
00000000: 91a2 9b3d 12c3 d13d 9dff 0ebe
0.075993665 0.10242285 -0.13964696
