examples/experiments/experiment_85/critic65_9.pth (torch, 42071 bytes, 5 tensors)

l1.weight f4 [64, 90]
-0.117072806 0.39479145 -0.14746168 -0.071157485 -0.0876962 0.0097717885 0.39238155 0.22987966
-0.122349344 0.0030916973 0.26319215 0.015067645 0.105393335 -0.13137771 -0.00043087234 -0.07831301
0.3894364 -0.085506395 -0.3839851 0.24783927 0.12501757 -0.22220497 -0.4444721 -0.0772978
-0.15042801 0.16381612 -0.08098692 -0.10626704 -0.33004522 0.956632 0.116640665 0.018731205
-0.012073957 0.02870328 0.03835029 -0.14339261 0.10846606 -0.04580648 -0.08166051 0.15852943
-0.012519488 -0.040838532 0.13409916 -0.31440902 -0.13405295 -0.1874502 0.049080055 0.07700585
-0.09218789 0.16603622 -0.20969634 -0.1828377 -0.16016424 -0.073956646 0.20280468 0.03568167
0.033316247 -0.38154066 -0.050428014 -0.025597587 0.6719962 -0.5926884 -0.54168165 1.5767244
-0.38782224 1.2658675 -0.00510562 -0.5906834 0.24605335 -0.030795306 0.14042704 0.43957055
0.527259 1.0592985 1.1092224 1.3859178 -1.398897 0.61653876 0.99852645 0.82874435
1.7465607 -0.18293175 0.83029324 0.7855409 -1.7377025 -0.8096199 1.2119439 4.3175616
2.302084 1.6078556 -0.07292864 -0.20949498 0.1360293 -0.01680733 0.12052502 -0.11972724
0.06975991 0.085407816 0.10225642 -0.13441686 -0.017211694 0.01931651 -0.024286969 0.017369673
-0.0746409 -0.04934357 -0.19357406 0.100639254 -0.10397897 0.16497493 -0.03781791 -0.2141565
0.040363878 -0.044248957 0.002188654 0.09670993 -0.13026425 -0.0136813335 0.13000211 0.11495226
0.92682076 0.8391109 -0.33907816 -0.18100044 -0.490009 0.6497641 0.29171383 0.33443928
0.10226597 -0.08952853 -0.24682996 -0.14071931 -0.21728678 0.12859231 0.3254506 0.0740734
0.32273877 -0.04122825 -0.16794918 1.0351852 -0.5975729 0.13462242 0.17108981 0.28372893
-0.0839129 -0.19502893 0.08477906 -0.015531176 0.33543536 -0.19551045 -3.7805347 -3.15721
0.79952043 0.5691892 1.6254519 -2.2472558 -0.2908163 -1.5258504 0.5846167 -1.5471039
-0.26351842 1.2367857 1.7462735 -0.29422218 -0.6853999 -1.3801304 -1.945836 1.5756334
1.5633265 -6.076538 3.4032717 -1.0273551 -0.18138604 -0.789858 0.5539715 1.0148411
0.74917865 -1.649552 -2.1730664 -0.24811387 0.04336529 0.11752067 -0.21807653 1.0835382
0.75493103 -0.224334 -0.37027302 -0.20265116 -0.62892175 0.2602744 0.054254916 0.44976097
-0.8913598 0.33182627 0.5341042 0.0093791075 0.58000845 0.05475939 0.76831025 1.1741022
0.622585 -0.10206187 0.43492675 -0.70952487 -0.5757187 -0.064271145 0.27206352 -0.25841075
0.32371736 0.017400008 -0.39641088 0.086685926 0.31990114 0.024291545 0.2856711 -0.022854298
-0.572741 -0.4784816 0.03755964 0.54406685 0.059941962 -0.025648726 -0.27545044 -0.7725807
-0.50819606 -0.43264475 0.5184782 0.048327886 0.8260542 -0.29773518 -0.13353945 -0.525115
-0.6049224 0.25517744 -0.8176648 0.18793741 -0.28384668 0.5472112 -0.08712695 -0.26449305
0.13918334 -0.23916093 0.03946856 2.2121062 0.1833015 0.7787609 0.7304363 -0.35388356
-0.8462338 -0.094639406 -0.11038608 -0.89036375 0.26637283 -1.0680356 0.5601089 1.2087873
00000000: dec3 efbd 1b22 ca3e 3200 17be 04bb 91bd
00000010: 119a b3bd da19 203c 3ce6 c83e 9365 6b3e
00000020: 4b92 fabd 139e 4a3b 1fc1 863e 49de 763c
00000030: 76d8 d73d e187 06be b5e6 e1b9 9262 a0bd
00000040: 3564 c73e fa1d afbd b299 c4be 94c9 7d3e
00000050: 9b04 003e b389 63be d991 e3be 4f4e 9ebd
00000060: cd09 1abe 6abf 273e 78dc a5bd 89a2 d9bd
00000070: b0fb a8be d6e5 743f 4de1 ee3d 2f72 993c
00000080: d9d1 45bc 2423 eb3c 3215 1d3d 83d5 12be
00000090: 7423 de3d 939f 3bbd a03d a7bd 8a55 223e
000000a0: 8a1e 4dbc 4e46 27bd 4a51 093e 38fa a0be
000000b0: 2d45 09be f2f2 3fbe 2b08 493d 3eb5 9d3d
000000c0: 01cd bcbd 6605 2a3e a3ba 56be ce39 3bbe
000000d0: 1802 24be 9576 97bd 08ac 4f3e f126 123d
000000e0: 9e76 083d 4c59 c3be 9b8d 4ebd 08b2 d1bc
000000f0: f107 2c3f 6dba 17bf a6ab 0abf 1bd2 c93f
00000100: a390 c6be f207 a23f 0b4d a7bb 0737 17bf
00000110: 69f5 7b3e 7046 fcbc 1bcc 0f3e 640f e13e
00000120: 72fa 063f 1897 873f 00fb 8d3f c165 b13f
00000130: 0f0f b3bf 7cd5 1d3f 6e9f 7f3f 9728 543f
00000140: 4d8f df3f 7652 3bbe 198e 543f 3519 493f
00000150: 096d debf 4043 4fbf fa20 9b3f 7729 8a40
00000160: 5855 1340 36ce cd3f 9c5b 95bd da85 56be
00000170: 444b 0b3e 87af 89bc d2d5 f63d 8e33 f5bd
00000180: 49de 8e3d 4bea ae3d d06b d13d 93a4 09be
00000190: 8aff 8cbc a83d 9e3c 77f5 c6bc d84a 8e3c
000001a0: 54dd 98bd 7c1c 4abd 4738 46be f41b ce3d
000001b0: edf2 d4bd 30ef 283e f4e6 1abd d74b 5bbe
000001c0: 9854 253d 653e 35bd 856f 0f3b db0f c63d
000001d0: fe63 05be ac27 60bc 461f 053e 176c eb3d
000001e0: 2044 6d3f f9cf 563f a79b adbe 2e58 39be
000001f0: 76e2 fabe f156 263f 845b 953e a03b ab3e
00000200: d270 d13d bc5a b7bd fec0 7cbe b918 10be
00000210: 6d80 5ebe b4ad 033e 76a1 a63e cbb3 973d
00000220: 043e a53e f4de 28bd dffa 2bbe f380 843f
00000230: 8afa 18bf 76da 093e 2b32 2f3e eb44 913e
00000240: 87da abbd aab5 47be a5a0 ad3d 7976 7ebc
00000250: 2fbe ab3e e433 48be 48f4 71c0 bb0f 4ac0
00000260: 5fad 4c3f 62b6 113f cf0e d03f 0ad3 0fc0
00000270: e0e5 94be 114f c3bf 71a9 153f 8007 c6bf
00000280: e3eb 86be fe4e 9e3f e485 df3f 4aa4 96be
00000290: 5e76 2fbf 1da8 b0bf 2711 f9bf 5bae c93f
000002a0: 151b c83f 0073 c2c0 34cf 5940 5f80 83bf
000002b0: 43bd 39be 2234 4abf 14d1 0d3f 50e6 813f
000002c0: 2cca 3f3f 8524 d3bf 8513 0bc0 9011 7ebe
000002d0: cd9f 313d adae f03d 744f 5fbe 61b1 8a3f
000002e0: 2943 413f d0b7 65be 6d94 bdbe c983 4fbe
000002f0: 0401 21bf b042 853e 673a 5e3d 1247 e63e
00000300: 2830 64bf 22e5 a93e 0ebb 083f d4aa 193c
00000310: 6f7b 143f 624b 603d fbaf 443f fb48 963f
00000320: bb61 1f3f d005 d1bd b8ae de3e 6ca3 35bf
00000330: 4d62 13bf 97a0 83bd e94b 8b3e 6a4e 84be
00000340: 48be a53e 768a 8e3c 5ef6 cabe 6488 b13d
00000350: 15ca a33e 10ff c63c 7b43 923e f038 bbbc
00000360: 279f 12bf 8afb f4be 23d8 193d f747 0b3f
00000370: b485 753d 471d d2bc d707 8dbe d9c7 45bf
00000380: 2319 02bf 9d83 ddbe fdba 043f 76f3 453d
00000390: 4a78 533f bf70 98be 91be 08be f06d 06bf
000003a0: 32dc 1abf 9ea6 823e 7b52 51bf aa72 403e
000003b0: 5a54 91be 0916 0c3f 9d6f b2bd a26b 87be
000003c0: 1486 0e3e 9ae6 74be c9a9 213d 2693 0d40
000003d0: 63b3 3b3e e05c 473f e0fd 3a3f 3a30 b5be
000003e0: c7a2 58bf 4ed2 c1bd 1912 e2bd e1ee 63bf
000003f0: 0562 883e 64b5 88bf 4c63 0f3f 8bb9 9a3f

l1.bias f4 [64]
0.0043368638 -0.014869808 -0.10883474 -0.012693451 -0.09093257 0.4955748 -0.15581794 0.2031505
0.22664067 0.24661268 0.0050316905 0.002530005 0.0029183878 -0.00019082947 -0.09087827 -0.15439315
0.06699486 -0.00063864235 0.2252201 0.31966385 0.18413855 0.0017361293 0.061788768 0.14142734
-0.032330424 0.051526934 0.07096256 0.05080526 0.08989312 -0.20714118 -0.0073312917 -0.24226278
0.16653305 0.02374835 -0.004062953 -0.000117215975 0.0015182637 0.05536246 -0.0027886329 0.0018767943
-0.008301422 -0.0036845843 0.48010302 0.036951907 0.0046693566 -0.08215238 0.042372916 -0.05779254
-0.0052120956 0.0010444474 0.10347424 0.054566678 0.23247255 -0.12074335 0.20468341 -0.0026900214
0.255643 -0.0035140398 -0.11511013 -0.11733435 0.085988544 -0.0058149165 0.33173025 0.023865823
00000000: 401c 8e3b 7fa0 73bc c0e4 debd 31f8 4fbc
00000010: db3a babd fbbb fd3e bd8e 1fbe af06 503e
00000020: 7e14 683e 0988 7c3e e1e0 a43b 71ce 253b
00000030: 6c42 3f3b 6519 48b9 631e babd 3d19 1ebe
00000040: 9a34 893d 906a 27ba 19a0 663e fbaa a33e
00000050: d18e 3c3e d58e e33a 3816 7d3d 54d2 103e
00000060: e86c 04bd e80d 533d d254 913d 2d19 503d
00000070: e219 b83d d11c 54be 553b f0bb bc13 78be
00000080: a487 2a3e e68b c23c 8522 85bb d9d1 f5b8
00000090: 7a00 c73a bfc3 623d 7fc1 36bb c4fe f53a
000000a0: b002 08bc 1179 71bb 10d0 f53e e25a 173d
000000b0: 6701 993b 823f a8bd 398f 2d3d dfb7 6cbd
000000c0: 3aca aabb d7e5 883a 4dea d33d 4f81 5f3d
000000d0: 490d 6e3e 4a48 f7bd 8798 513e 124b 30bb
000000e0: a4e3 823e ce4b 66bb dcbe ebbd fe4c f0bd
000000f0: c31a b03d 0e8b bebb 8cd8 a93e 4282 c33c

l2.weight f4 [64, 64]
0.6514128 0.30409843 -0.13230139 -0.095639996 -0.040296614 0.75664526 -0.024785638 0.014720807
-0.20548666 -0.676738 -0.37114012 0.9702103 -0.007787768 -0.3981244 -0.07365027 -0.21406618
0.025380144 -0.31354508 0.65226096 0.041115314 0.33328137 0.09491299 0.102621 0.40576234
0.04969299 0.23466094 0.008747582 0.038889095 0.022469403 -1.181279 -0.48775184 0.19067585
0.70352995 0.56367564 -0.49876124 -0.42879033 0.1335954 0.57698256 -0.71298134 -1.1426941
-0.49973512 -0.8952505 0.4591679 0.12118895 -0.09931516 -0.096006036 -0.33780643 0.24796507
-0.31341273 -0.6069773 0.8498362 0.5061285 0.58182746 -0.10071432 0.09634504 -0.29963097
0.6348957 -0.08460339 -0.09440036 -0.118457906 0.33195895 0.065321885 0.0869521 0.34624055
0.13930428 -0.10531754 -0.03189258 0.3287344 -0.0723438 0.10577756 0.068481535 0.3499394
0.18180539 0.25005206 -0.55891436 0.09318114 0.07998493 0.4824077 -0.105973795 0.2214439
0.19718869 0.0188404 0.24406487 0.09357501 0.20253326 0.25905892 0.056571353 0.1571996
-0.0078113633 0.30219397 0.2924578 0.17088605 0.2897321 -0.25608334 0.13083455 0.22611791
-0.17723687 -0.17360017 0.027880555 -0.07333962 0.24494386 -0.26441696 0.19543363 -1.1385295
0.04262489 -0.1418241 0.038875923 0.21419357 -0.024747035 -6.505276e-05 0.2691609 -0.07464992
0.14699864 -0.201528 0.37156767 0.16463844 -0.12078888 0.05997325 0.072865725 0.17167106
-0.10292809 0.102735035 -0.033437528 0.09208506 0.25014624 0.12248987 -0.06863689 0.15429294
0.3292015 0.06008188 -0.0013759731 0.14370199 -0.07813814 0.03209807 -0.02481451 -0.18971954
-0.043112125 -0.34437144 2.0648367 0.4901673 0.5029786 0.3279672 -0.08887583 -0.34026387
0.33728907 0.27228275 0.58289075 -0.06931679 -0.17743726 0.45034498 -0.02868237 0.5299472
-0.033880234 0.37319076 -0.3030163 -0.14861389 -0.13644388 -0.08036883 0.35844308 -0.09657576
0.23945679 0.45265508 0.47385 0.25831944 0.2891903 0.2358558 -0.2193629 1.4549443
0.16961433 0.22464593 0.27266154 0.021987123 0.321823 0.06793838 -0.22058816 0.12827969
0.15079068 0.42229107 0.41704544 -0.09207013 0.21159318 0.00532538 0.032934222 0.54629207
1.020328 0.18980828 -0.03570853 -0.059432007 0.081633516 0.08847147 0.1733231 0.03335586
0.108566776 0.06289485 0.32498974 -0.03303532 -0.007231429 0.20074993 -0.4787171 0.3028242
0.1902813 -0.527024 -0.7714776 0.5847878 -0.10117557 -0.56187254 0.030746147 -0.16382964
-0.24676149 0.36557445 0.170357 0.19803615 0.0037982462 -0.27646953 0.09669367 -0.008205316
0.34083283 0.12224992 0.44416487 -0.26047754 0.2043176 -2.2251558 -0.42955503 -0.06994133
0.010278221 0.28892323 -0.32968393 -0.287527 -0.14090781 0.5144613 -5.056024 -0.84896135
-0.29341304 -0.4187495 0.42308977 -0.13360764 -3.2082293 0.119309634 -0.18516195 -0.25177857
-0.296067 -0.6009325 0.17460519 -0.1296897 0.25929067 0.05066731 -0.017312793 -0.23927279
0.33365455 -0.53829885 0.10798979 0.02365677 -0.0928794 -0.073711626 0.057149343 0.33948955
00000000: fdc2 263f cab2 9b3e 047a 07be e7de c3bd
00000010: 100e 25bd 81b3 413f 400b cbbc 8a2f 713c
00000020: 186b 52be b43e 2dbf 1406 bebe b45f 783f
00000030: 8830 ffbb f6d6 cbbe f4d5 96bd 2a34 5bbe
00000040: 05ea cf3c fb88 a0be 93fa 263f 8868 283d
00000050: dba3 aa3e be61 c23d f52a d23d 15c0 cf3e
00000060: e08a 4b3d f54a 703e 0552 0f3c 2c4a 1f3d
00000070: c111 b83c 2634 97bf 9cba f9be 8840 433e
00000080: 8a1a 343f 0c4d 103f a25d ffbe 688a dbbe
00000090: 3ccd 083e 21b5 133f f285 36bf cd43 92bf
000000a0: 48dd ffbe 232f 65bf 0e18 eb3e ea31 f83d
000000b0: bf65 cbbd d09e c4bd f7f4 acbe 8eea 7d3e
000000c0: a277 a0be dd62 1bbf dd8e 593f a391 013f
000000d0: a5f2 143f 4f43 cebd 8c50 c53d 3b69 99be
000000e0: 8688 223f 8b44 adbd fa54 c1bd 0f9a f2bd
000000f0: 86f6 a93e 7bc7 853d f113 b23d 7146 b13e
00000100: c8a5 0e3e b9b0 d7bd cba1 02bd e04f a83e
00000110: fc28 94bd e8a1 d83d 0c40 8c3d 422b b33e
00000120: 312b 3a3e d306 803e 0315 0fbf c1d5 be3d
00000130: 24cf a33d 24fe f63e ca08 d9bd 31c2 623e
00000140: d5eb 493e 2f57 9a3c 24ec 793e 41a4 bf3d
00000150: e164 4f3e 5fa3 843e 5db7 673d eff8 203e
00000160: 77f6 ffbb 2bb9 9a3e 07bd 953e c1fc 2e3e
00000170: c457 943e 5b1d 83be 7ef9 053e 748b 673e
00000180: 957d 35be 3ec4 31be c365 e43c 1533 96bd
00000190: 90d2 7a3e a961 87be c11f 483e 56bb 91bf
000001a0: 7097 2e3d 563a 11be 5c3c 1f3d 8f55 5b3e
000001b0: 4bba cabc ef6c 88b8 75cf 893e 0fe2 98bd
000001c0: d086 163e 5b5d 4ebe 1e3e be3e fb96 283e
000001d0: 2960 f7bd 83a6 753d a03a 953d 8aca 2f3e
000001e0: f6cb d2bd bf66 d23d caf5 08bd 1897 bc3d
000001f0: 2b13 803e f8db fa3d 7f91 8cbd f8fe 1d3e
00000200: 198d a83e 6b18 763d ff59 b4ba 9d26 133e
00000210: e406 a0bd 4479 033d cd47 cbbc d745 42be
00000220: 5796 30bd 7451 b0be 4926 0440 35f7 fa3e
00000230: 35c3 003f 51eb a73e 8804 b6bd 1137 aebe
00000240: 27b1 ac3e a568 8b3e 5438 153f f6f5 8dbd
00000250: 1db2 35be 9e93 e63e 4af7 eabc 9faa 073f
00000260: 00c6 0abd dc12 bf3e f424 9bbe 3d2e 18be
00000270: f2b7 0bbe 6a98 a4bd da85 b73e 83c9 c5bd
00000280: 2934 753e 68c2 e73e 789c f23e 7242 843e
00000290: c010 943e 2f84 713e aba0 60be 9d3b ba3f
000002a0: 61af 2d3e 9509 663e 4b9a 8b3e 571e b43c
000002b0: fcc5 a43e 4723 8b3d dde1 61be c05b 033e
000002c0: df68 1a3e 8936 d83e fb86 d53e 448f bcbd
000002d0: e2ab 583e 8680 ae3b 09e6 063d ccd9 0b3f
000002e0: 1c9a 823f 1a5d 423e 1c43 12bd fa6e 73bd
000002f0: 792f a73d 8830 b53d 9c7b 313e 27a0 083d
00000300: 4258 de3d 04cf 803d 0e65 a63e 0b50 07bd
00000310: a0f5 ecbb 6491 4d3e 681a f5be c60b 9b3e
00000320: 1ad9 423e 0beb 06bf 8e7f 45bf a7b4 153f
00000330: 2335 cfbd e1d6 0fbf 58df fb3c f5c2 27be
00000340: 0baf 7cbe 932c bb3e 1172 2e3e fdc9 4a3e
00000350: ffeb 783b 6a8d 8dbe 5507 c63d 976f 06bc
00000360: a481 ae3e 2b5e fa3d 9469 e33e 505d 85be
00000370: a238 513e f468 0ec0 a3ee dbbe 663d 8fbd
00000380: fc65 283c bfed 933e 55cc a8be bd36 93be
00000390: 234a 10be bcb3 033f f3ca a1c0 8855 59bf
000003a0: 3c3a 96be 5666 d6be 399f d83e 71d0 08be
000003b0: a153 4dc0 9c58 f43d 189b 3dbe 1fe9 80be
000003c0: 1896 97be b6d6 19bf b4cb 323e 60cd 04be
000003d0: bfc1 843e 8688 4f3d 8fd3 8dbc ed03 75be
000003e0: c5d4 aa3e f4cd 09bf c029 dd3d d8cb c13c
000003f0: 8e37 bebd 1ff6 96bd 6e15 6a3d 93d1 ad3e

l2.bias f4 [64]
0.2059071 0.33552626 -0.1919759 0.16062683 0.17555165 0.054602027 0.40762463 0.24143383
-0.23769206 -0.1381475 0.2723464 0.1444576 0.36717877 0.1590169 0.21448196 -0.1455452
-0.0835137 0.14962053 0.3007905 0.06225598 0.22238868 0.11599713 0.40368375 0.031443566
-0.13719653 0.17106265 0.5698926 -0.20441441 0.17956315 -0.08773211 0.19665913 0.23980284
0.0012626891 -0.1151914 0.054405488 -0.053275753 -0.18807693 0.11740173 0.06768367 0.18495412
0.27264792 -0.26835805 0.024185255 -0.1619069 -0.06795093 -0.4215424 0.19591428 -0.6131276
0.020933256 -0.6413112 0.070493266 0.034328185 -0.16292642 0.26971814 0.22475249 0.24351166
0.1268271 0.36639684 0.5353467 0.5965261 -0.5339582 0.31858054 -0.20193021 -0.22061288
00000000: 50d9 523e 19ca ab3e 5595 44be 5c7b 243e
00000010: d0c3 333e 60a6 5f3d 2db4 d03e 6e3a 773e
00000020: 8c65 73be 8a76 0dbe fd70 8b3e b1ec 133e
00000030: dbfe bb3e 54d5 223e 29a1 5b3e cd09 15be
00000040: 3b09 abbd 2036 193e 3601 9a3e 2000 7f3d
00000050: dcb9 633e e78f ed3d a3af ce3e f8ca 003d
00000060: 3f7d 0cbe 0c2b 2f3e 7be4 113f 0352 51be
00000070: 67df 373e e4ac b3bd 0361 493e e08e 753e
00000080: d180 a53a 78e9 ebbd 4ad8 5e3d ad37 5abd
00000090: 3d97 40be 5170 f03d bc9d 8a3d 9d64 3d3e
000000a0: 8298 8b3e 3a66 89be 2820 c63c ecca 25be
000000b0: db29 8bbd 68d4 d7be c19d 483e eef5 1cbf
000000c0: 387c ab3c f92c 24bf c65e 903d b69b 0c3d
000000d0: 2fd6 26be 7f18 8a3e 8425 663e 1f5b 793e
000000e0: f7de 013e 5e98 bb3e 7b0c 093f efb5 183f
000000f0: 7cb1 08bf fd1c a33e cbc6 4ebe 58e8 61be

l3.weight f4 [1, 64]
0.911592 0.19976845 -1.0091405 0.94932663 0.6408431 -28.17692 2.9607139 0.1804472
-1.305512 -0.05963853 -1.3553617 -2.3974185 0.21687205 0.032815546 2.5161693 -24.103855
0.041914277 -3.078351 0.19970544 1.319031 1.6949105 0.57972467 0.3954985 -31.669735
-0.0065829833 0.6548932 0.75473005 -1.311907 0.9474138 1.0403877 0.6387336 0.18697383
-0.80789053 -0.5304708 1.8150438 -0.69176596 3.0381398 -1.3813778 -20.005545 -2.0749886
0.1340538 -1.1194623 -15.060924 -0.6381053 -0.43477592 -0.88994116 3.4252844 -15.679895
-0.8591013 -19.974104 0.8056916 1.0890642 -0.7510515 3.209556 0.12493535 -2.738462
1.4704827 0.2358873 0.79392433 0.50179636 49.041626 0.17059547 -0.82335943 -35.053394
00000000: 185e 693f 1a90 4c3e 842b 81bf 1207 733f
00000010: 4b0e 243f 556a e1c1 567c 3d40 27c7 383e
00000020: 041b a7bf 8847 74bd 7e7c adbf 4e6f 19c0
00000030: b513 5e3e 9869 063d eb08 2140 b2d4 c0c1
00000040: 4eae 2b3d b403 45c0 957f 4c3e 02d6 a83f
00000050: d4f2 d83f d668 143f c87e ca3e 9e5b fdc1
00000060: 11b6 d7bb 15a7 273f fd35 413f 92ec a7bf
00000070: b689 723f 6d2b 853f 0c84 233f 1176 3f3e
00000080: ead1 4ebf efcc 07bf 5b53 e83f 9317 31bf
00000090: e270 4240 fdd0 b0bf 5b0b a0c1 9dcc 04c0
000000a0: 6645 093e 8a4a 8fbf 8bf9 70c1 de5a 23bf
000000b0: f39a debe 2fd3 63bf dc37 5b40 dae0 7ac1
000000c0: 10ee 5bbf f7ca 9fc1 ce41 4e3f 7566 8b3f
000000d0: e944 40bf 5e69 4d40 1bde ff3d f642 2fc0
000000e0: c738 bc3f 718c 713e a03e 4b3f ba75 003f
000000f0: a02a 4442 94b0 2e3e afc7 52bf ad36 0cc2
